models/ts_views_models/ts-v24.ckpt (torch, 330768 bytes, 201 tensors)

input_pos_embedding.weight f4 [1024, 8]
000000 66 2c 78 be 08 bb 4b bf 85 72 90 bf da ec 2e 3f
       -0.24235687 -0.7958226 -1.1284949 0.68330157
000010 90 3a e0 bf 5c ba 12 3e 4d 37 50 bf 0a 74 f2 3e
       -1.7517872 0.14328903 -0.8133438 0.47354156
000020 79 30 b5 3e 63 16 f0 bc 0d ad ee 3e 46 ab a1 3f
       0.35388544 -0.02930755 0.46616402 1.2630394
000030 b2 b6 ef 3e d0 6f 11 3f 0e ca b3 3f 53 58 e9 3e
       0.46819073 0.5681124 1.4046037 0.455752
000040 5b 3b 91 3f 43 db 64 bf 04 57 a8 3f c2 56 75 be
       1.1346239 -0.89397067 1.3151555 -0.23958877
000050 e6 6a 1c 3f ce d9 55 3f 1b f2 51 40 57 35 18 3f
       0.61100614 0.8353547 3.280402 0.5945639
000060 83 a1 75 be 69 4e 04 3f 24 1a f0 be ad 5c 5e 3e
       -0.23987393 0.51682144 -0.46894944 0.2171504
000070 43 a2 95 3f 3e 03 0e 3f a7 51 b6 3f 36 26 02 bf
       1.1690143 0.554737 1.4243668 -0.50839555
000080 f6 09 ba be fe ee be 3f b4 72 d5 bf b0 ff e2 3e
       -0.36335725 1.4916685 -1.667563 0.443357
000090 fb 3d de 3d 8a a5 37 3f 96 03 33 3f 0f 39 fa bf
       0.108516656 0.7173697 0.69927347 -1.9548663
0000a0 9a 67 79 3e 73 dc 79 3f 63 f8 a7 bf 36 12 ab 3e
       0.24355927 0.97602004 -1.3122677 0.3341233
0000b0 af 2a a3 3f 52 71 62 be c5 c0 b4 3e bb 09 cf 3f
       1.2747401 -0.22113541 0.3530332 1.6174845
0000c0 a7 75 99 bf 41 19 09 3f ca b6 e6 3e 75 0a 90 3f
       -1.198903 0.5355416 0.45061332 1.1253191
0000d0 64 50 86 bf 66 b7 3e be 95 74 6b bf 9a 8e 22 bf
       -1.0493283 -0.18624648 -0.91974765 -0.6349884
0000e0 4a 14 db 3d 99 ab b3 be 26 90 be 3f cc be 21 3f
       0.10697229 -0.35091856 1.4887741 0.6318176
0000f0 4f 47 f9 be 47 c8 04 40 75 e6 eb be 7b 76 d9 be
       -0.48687217 2.074724 -0.46074262 -0.42473206
000100 87 0f 65 bf c7 b3 8d 3f 93 3c 1c 3e 8f d4 06 3f
       -0.8947682 1.1070489 0.15257482 0.5266809
000110 e7 c4 00 c0 b6 9c 90 3f ac 4c 0c bf d0 03 83 3f
       -2.012018 1.1297824 -0.5480449 1.0235538
000120 a8 6a 0b c0 c2 d9 01 3e 4d f4 27 3f c1 3c 82 3f
       -2.1783848 0.12680724 0.6560715 1.0174791
000130 99 b4 29 bf 95 16 6f bc 0b 7d 53 3f 73 69 e5 bf
       -0.66291195 -0.014592786 0.82612675 -1.7922806
000140 b9 26 dc 3f 27 a1 2f bf 27 da cd 3e 70 5c 42 bf
       1.7199317 -0.68605274 0.402055 -0.759223
000150 b8 d3 be bf 74 3b 85 bf d4 dd b8 3f 9e 90 e5 3e
       -1.4908361 -1.0408769 1.4442697 0.44836897
000160 7c 5b 4e 3f 2d 17 18 be f2 cb 16 3d fe 73 61 bf
       0.80608344 -0.14852591 0.03681559 -0.88067615
000170 3e 78 03 bd 7e ff 03 3f c7 de 14 40 54 f7 fb be
       -0.032097094 0.51561725 2.3260972 -0.49212134
000180 12 ad 15 40 f9 23 f6 be a5 93 90 be 34 26 b5 bf
       2.3386884 -0.4807432 -0.28237644 -1.4152284
000190 35 7b 0f 3f 9f 8b 66 3f 25 a6 bf bf cd 49 1d be
       0.56047374 0.90056795 -1.4972578 -0.15360184
0001a0 a8 cd a4 bf 8d 86 93 bf 70 0a 35 bf a6 24 b2 bf
       -1.2875261 -1.1525437 -0.7071905 -1.3917434
0001b0 35 0a d5 3f 05 44 ce bf d8 53 f2 bf dc 82 bf 3f
       1.664374 -1.6114508 -1.8931837 1.496181
0001c0 a5 9c cf bf 32 ed a8 3e 39 14 a9 3f 4f 3d 3d be
       -1.6219679 0.32993466 1.3209296 -0.18480419
0001d0 52 ff 55 be f0 13 3a 3f 0a 21 a1 3e 87 9f 1d 3e
       -0.20898178 0.7268667 0.3147052 0.15392886
0001e0 ad d2 d0 bf 92 9a 32 bf c2 f2 37 3f 67 e6 89 3f
       -1.6314293 -0.69767106 0.71854794 1.0773438
0001f0 e4 99 94 3e cf c2 65 bf c6 dc d5 be ec 94 b6 be
       0.2902366 -0.8975038 -0.4177 -0.35660493
000200 77 c1 9b bf 50 f0 7f 3f 68 7a 95 3e 9a 6f 6e bf
       -1.2168416 0.9997606 0.2919495 -0.9313904
000210 7b 91 5d 3e 3e 3b 57 3f ec 03 6c 3f d4 d3 38 bf
       0.21637528 0.8407477 0.92193484 -0.72198224
000220 ad 2f 6f bf f2 ff 20 3e 09 d3 7a bf 69 c1 ea 3f
       -0.9343212 0.15722635 -0.97978264 1.8340274
000230 80 41 4c bf 79 aa 45 be a0 d1 03 bf d4 4b 1b be
       -0.79787445 -0.19303311 -0.5149174 -0.15165645
000240 3d 35 45 bd 97 36 62 bf ce fd 6f 3e e0 65 95 3f
       -0.048146475 -0.8836455 0.23436663 1.1671715
000250 10 9e 86 bf c3 98 11 bd 9f 4c 64 3f 34 cd 0c bf
       -1.0516987 -0.035546076 0.89179415 -0.55000615
000260 f4 e8 96 bf 11 33 aa 3e 3b 10 11 bf 3d be fd bd
       -1.1789842 0.33242086 -0.5666539 -0.12389801
000270 67 ce 36 3f 39 c4 96 bf 0b f9 b9 bf 5c 2b 7d 3f
       0.71408695 -1.1778632 -1.4529127 0.98894286
000280 40 e8 13 bf 01 95 c8 bf 73 6e df 3f 30 97 ce 3d
       -0.5777626 -1.5670472 1.7455581 0.100874305
000290 1e 03 7f bf c3 52 a5 bd 03 35 39 bf 37 c8 8f be
       -0.9961413 -0.08072426 -0.72346514 -0.2808244
0002a0 38 27 af be e5 90 c8 be 44 f1 92 be a9 65 3a c0
       -0.3420961 -0.39173046 -0.28699696 -2.9124548
0002b0 fa a5 b8 3e f9 91 8a bf 6d 18 2b 3e db 1d 70 3f
       0.3606413 -1.0825797 0.16708536 0.93795556
0002c0 f9 5a 01 bf cb 3d f6 3f 24 95 28 c0 8d 0c 43 3f
       -0.5052944 1.9237608 -2.6341028 0.76191026
0002d0 46 48 d9 bd 38 a3 01 40 67 c6 41 bf be f0 9c bf
       -0.10609488 2.025587 -0.7569336 -1.2260969
0002e0 71 59 ff 3e 08 a2 ba bf 38 54 b0 3e 7e d1 9b bf
       0.49872926 -1.4580698 0.34439254 -1.2173307
0002f0 65 a6 fb 3f c3 8d a8 bf 84 8f 89 bf 87 fb 01 3e
       1.9660155 -1.3168262 -1.0746922 0.12693606
000300 b5 f0 88 bf f9 c2 81 bf 78 84 73 bf e5 d0 39 bf
       -1.0698458 -1.0137626 -0.95124006 -0.7258437
000310 f5 79 d4 be f1 17 04 3f d2 36 00 be ea 63 e0 3e
       -0.41499296 0.5159903 -0.12520912 0.43826228
000320 34 c4 bc bf be ab 21 bf 47 7f 3c 3e dc 20 e4 bf
       -1.4747376 -0.6315268 0.18407927 -1.7822528
000330 c8 50 d4 bf 6b e4 99 3f 3e 47 be be 69 03 7c bf
       -1.6587152 1.2022833 -0.37163728 -0.98442703
000340 f5 d4 41 40 29 70 20 bf 5e 44 dd be 92 10 fb be
       3.0286229 -0.6267114 -0.43216223 -0.4903608
000350 a5 7f 99 3c da 18 e5 3f 49 61 aa 3f 3a b4 23 bc
       0.018737623 1.7898209 1.3310939 -0.0099917
000360 2d a0 cf bd 01 45 40 3f 74 17 ce bc 20 45 6f 3f
       -0.10137973 0.7510529 -0.025157668 0.9346485
000370 85 26 ed be 81 e8 34 3f cd f3 f2 be 81 9b fe 3e
       -0.4631845 0.7066727 -0.4745163 0.49728015
000380 5c 24 93 be 0a e9 52 bf 07 51 e3 bf 82 79 84 be
       -0.28738678 -0.8238684 -1.7759103 -0.25873953
000390 20 97 3e 3f bf 11 2c 3c f4 98 6f bf 94 20 63 bd
       0.7444935 0.010502278 -0.9359276 -0.05545099
0003a0 07 d8 51 bf 1f 56 13 40 11 77 74 bf 94 b8 6a 3f
       -0.81970257 2.3021314 -0.9549418 0.91687894
0003b0 0a de 98 3e d7 13 c5 be a4 f2 e5 bd 0c 07 52 3f
       0.29856902 -0.384917 -0.11227921 0.82042
0003c0 53 0b 9f bf 25 c6 9b 3f f2 9d 3a be b9 cb 62 3f
       -1.2425331 1.2169844 -0.18224314 0.88592106
0003d0 84 9a e7 be e7 1e 42 bf d2 51 bf 3e 27 5d 5c 3e
       -0.45235074 -0.75828403 0.3736711 0.2151991
0003e0 a3 fb 85 3f b3 5d d5 3e 95 c2 38 40 2e 3f c1 3f
       1.0467418 0.4167305 2.8868763 1.5097406
0003f0 16 8b 85 3f 08 f5 19 3f 6d ee 48 bd e5 38 20 3f
       1.0433071 0.60139513 -0.049055506 0.62586814

target_pos_embedding.weight f4 [1024, 8]
000000 2a 6c 4b be 5f 0b 86 3d 33 25 94 be 0a 52 c3 bf
       -0.1986548 0.065451376 -0.2893463 -1.5259411
000010 b8 37 90 3f 29 c5 8f 3e 26 5a cd 3e 36 ce 39 3e
       1.1267004 0.2808011 0.4010784 0.1814507
000020 8c 79 2d bf b3 70 84 3f 07 30 b5 bf b1 d4 86 be
       -0.6776359 1.0346893 -1.4155282 -0.26334146
000030 eb ef aa bf 50 49 ea be 45 96 f9 bf 86 d6 9e 3f
       -1.3354467 -0.45759058 -1.9498984 1.2409217
000040 9c 16 a5 3e f5 0a 19 be 1f 42 ed 3c 52 4d 46 3f
       0.32243812 -0.14945586 0.028962193 0.7746173
000050 ac 69 57 bf 58 a3 af bf ef ae 78 be c9 7a 4a bd
       -0.8414562 -1.3721724 -0.24285482 -0.049433503
000060 1a 30 ec be 12 f4 9e bf e8 46 16 3f f7 b6 6b 3f
       -0.4613045 -1.2418234 0.58701944 0.9207606
000070 10 f2 d3 be 95 44 a3 bf bc 60 1d 3e 03 46 b6 3e
       -0.41395617 -1.2755305 0.15368932 0.3560029
000080 fc b5 ac 3f 47 af 1c 40 f9 1f a1 bf c9 d1 31 3f
       1.3493037 2.448198 -1.2587882 0.6946073
000090 2b cc e8 3e ec 2f d8 bf 79 b8 c7 bf a4 80 b5 3f
       0.45468268 -1.6889625 -1.5603172 1.4179883
0000a0 98 fc ba 3f 89 c9 0a bf 4e 43 d0 bf b9 50 22 3f
       1.4608335 -0.5421377 -1.627054 0.63404423
0000b0 e7 31 6c 3f 9f b7 22 be 05 ab 84 3f 64 21 06 c0
       0.92263645 -0.15890358 1.0364691 -2.095788
0000c0 08 5a 82 3e 24 a3 69 3f 16 cc 6b 3f 4c ad be be
       0.25459313 0.9126456 0.92108285 -0.3724159
0000d0 ab 77 ec 3f 24 15 4c 3e 47 03 dc bd 0a 73 0f c0
       1.847402 0.1992994 -0.107428126 -2.2413964
0000e0 d3 57 d9 3f e1 9c 04 3e f4 82 49 be 5b a3 0f 40
       1.6979927 0.1295047 -0.19678861 2.2443454
0000f0 20 e5 23 3f c9 d8 a0 3e 89 9e c6 3e e3 f7 98 be
       0.6402149 0.31415394 0.38792828 -0.29876623
000100 8c fd d7 3f 69 e8 32 be fe 28 a2 be 97 d7 59 bf
       1.6874251 -0.1747147 -0.316719 -0.8509459
000110 5b 85 56 3f 55 06 c0 3d 4f 6e 34 3f 73 7f 9c bf
       0.83797234 0.09376208 0.7048082 -1.2226394
000120 cd 7c ae 3f 33 3c b9 3e 33 71 38 bf 84 3d 59 be
       1.3631836 0.3617874 -0.7204773 -0.21214873
000130 11 fd 3a bf 07 e7 a5 3f a7 51 58 bf 51 ab d8 bf
       -0.730424 1.2961129 -0.8449959 -1.6927282
000140 06 c0 99 3f de 78 92 3e 93 49 23 be 1e e8 90 bf
       1.2011726 0.2860784 -0.15946035 -1.1320837
000150 a2 66 c9 3f 93 36 a4 3e 13 15 99 bf b9 f5 2d bf
       1.5734446 0.32072887 -1.1959556 -0.6795307
000160 ce 74 89 3e ff 0d 2d 3e 44 68 4d bf 3e 36 27 3e
       0.26846927 0.1689987 -0.8023722 0.16329286
000170 da 7e 07 bd 23 6a 13 3f 1a 4f 7a bf 92 14 e0 be
       -0.03307996 0.57583827 -0.9777695 -0.43765694
000180 59 3b e7 bf 0f 4c fb 3f 2e 09 2d c0 e6 7c 2c 3f
       -1.8064986 1.9632586 -2.7036853 0.6737808
000190 9c cb 51 3e a6 4a fd 3e 04 28 cf 3e 14 f8 80 bf
       0.20487827 0.49471015 0.40460217 -1.0075707
0001a0 d5 63 b5 bf 49 e0 89 3e 73 46 6f bf 4b 5a 41 3f
       -1.4171091 0.26928928 -0.9346687 0.755284
0001b0 0e f5 1f 3e d3 61 d6 be ab 33 10 bf ab 8a a6 3e
       0.15620825 -0.4187151 -0.5632884 0.3252767
0001c0 c3 93 05 3f 95 fc b7 bf 73 5b 86 3f d7 62 4d bf
       0.5217859 -1.4373957 1.0496658 -0.8022894
0001d0 ae bd 2b 3f ab 92 76 bf bf fb 36 bf 3f a6 f1 bf
       0.67086303 -0.9631755 -0.71477884 -1.8878859
0001e0 d0 58 30 be 63 24 cd be b9 ff b9 bf 36 ed 27 3f
       -0.1722138 -0.40066823 -1.4531165 0.6559633
0001f0 78 95 21 bf 23 2c d0 3e c2 73 87 bf c9 cd db 3e
       -0.63118696 0.40658674 -1.0582201 0.4293044
000200 1f 19 79 bf 0a c3 93 3e 40 ff 0e 3f be 5f d3 bd
       -0.97303957 0.2885974 0.5585823 -0.10320996
000210 54 d2 0c bf b9 2c 02 3f d0 c7 3e bf f3 b5 be bf
       -0.55008435 0.5084949 -0.7452364 -1.4899276
000220 60 91 0b 3f 24 a2 f4 3e 98 3f c9 3e 8f a8 83 be
       0.545187 0.47779953 0.3930633 -0.25714538
000230 e0 0a 25 bf c8 02 8a 3f 95 63 2d 3f 38 9a 66 bf
       -0.6446972 1.0782099 0.67730075 -0.9007907
000240 ad 6d 36 bf 9b 8e 48 3f 6f 13 ec 3f f7 a5 a3 3e
       -0.712611 0.783426 1.8443431 0.3196256
000250 ca ba 3e bf b7 6b 2f 3f e6 5d 8e bf 1b 56 1f 3e
       -0.7450377 0.68523735 -1.1122406 0.1556019
000260 f7 c1 83 3f 68 6c 70 3e 68 2d 98 3f d5 30 fa be
       1.0293568 0.23478854 1.1888857 -0.4886538
000270 ed f0 f3 be 22 73 93 be e1 14 64 bf 12 05 8c 3f
       -0.4764475 -0.28798777 -0.8909436 1.0939047
000280 8b 3c 58 3f bf 6d 78 bf 25 1d 6c be 8a 32 f5 be
       0.8446738 -0.9704246 -0.23057993 -0.4789012
000290 4f 16 32 be 1d 26 8b 3f cd d8 3d 3d 99 d9 2a 3f
       -0.17391323 1.0871006 0.046349335 0.6673828
0002a0 55 1d a6 bf e7 e6 04 c0 d7 3d ee bd f0 83 ee 3c
       -1.2977701 -2.0765932 -0.11632889 0.029115647
0002b0 48 de 18 bf 23 cf 97 bf f6 99 4a 3e dc 4c fc 3e
       -0.59714174 -1.1860088 0.19785294 0.4927739
0002c0 8d 83 d7 be 6e 3b 00 c0 40 22 fc 3e 8b c7 87 bf
       -0.42092553 -2.0036273 0.4924488 -1.0607771
0002d0 08 10 7c bf 5c f1 cd be 43 f0 9b be b9 4b 0a 40
       -0.9846196 -0.40223205 -0.30456743 2.1608717
0002e0 ad dd ca 3f 1f 4a f0 bc f8 cc d1 3e 18 93 ba 3e
       1.58489 -0.029332219 0.4097669 0.3644035
0002f0 62 05 9c be 62 3b 6e bf 29 ac 26 bf 91 1a ed be
       -0.30472857 -0.9305936 -0.65106446 -0.4630933
000300 2b 5e 41 3f d4 d3 3b bf a9 22 be be d7 b2 1f 3f
       0.75534314 -0.733701 -0.3713582 0.6238226
000310 05 11 30 3f e4 db 07 c0 88 bd 49 be 36 ec 52 bf
       0.6877597 -2.122796 -0.19701207 -0.8239168
000320 49 e4 97 3f 7a 90 9b 3f 2d 6c f2 3f 77 7c 98 3e
       1.1866542 1.2153466 1.8939263 0.2978246
000330 ad 31 13 40 56 97 1e c0 88 4b 71 bf e0 6e f6 3d
       2.299907 -2.4779868 -0.94255877 0.120328665
000340 d2 75 e6 3f b2 88 a8 3f 27 40 af 3e b6 6c 3d be
       1.8004706 1.3166716 0.34228632 -0.18498501
000350 12 87 1b 3f 69 99 1c 40 21 a3 71 3f 6d a2 43 3e
       0.60752976 2.4468634 0.9438954 0.1910493
000360 05 76 9f 3c 5e e2 fa 3d 38 4e 22 3e d3 62 87 bf
       0.019465456 0.12250207 0.1585015 -1.0577034
000370 5f ab 87 3e aa 18 66 3d 3e 5e b0 bf 19 42 94 3e
       0.26497933 0.056175865 -1.377876 0.28956679
000380 21 07 3d 3f 7e 22 80 3f 34 07 2e 3f 59 c4 88 bf
       0.73839 1.0010526 0.6797974 -1.068492
000390 52 08 03 bf 54 bb a6 bd 7c 28 ca be 7d 43 e0 bf
       -0.5118457 -0.08141199 -0.39484012 -1.7520596
0003a0 ed 72 98 3f f4 1a d1 3e c1 ef 82 3f 8c dc 94 bf
       1.1910073 0.40840876 1.0229417 -1.1629806
0003b0 47 8b 13 bf 5a 9a 31 3f a2 e6 2c bf 0c a3 47 bf
       -0.57634395 0.69376147 -0.6753942 -0.77983165
0003c0 88 1c 95 3f dc d3 dc bf cd d9 e5 3e f7 f6 ab bf
       1.1649332 -1.7252154 0.4489273 -1.3434743
0003d0 fc dc 35 be e2 6e 66 bf ff 69 6a bf a1 09 2f be
       -0.1776008 -0.90012944 -0.9156799 -0.17093517
0003e0 6f 74 34 be 7d c3 73 3f 3d f4 17 3f ed fe 91 3e
       -0.17622541 0.95220166 0.59357053 0.28514805
0003f0 e9 de ac bf 76 1d 88 bf f2 d7 94 bf 32 b8 14 be
       -1.3505527 -1.0633991 -1.1628401 -0.1452339

encoder.layers.0.self_attn.in_proj_weight f4 [24, 8]
000000 c6 40 c9 3e ab 6f 00 3e e1 3c 9c be a9 f2 cf 3e
       0.3930723 0.12542598 -0.30515197 0.40614823
000010 fa 93 dc be c8 86 9d be 00 a6 9d be 3a 02 e8 bd
       -0.43081647 -0.30766892 -0.3079071 -0.1132855
000020 1f 2d 85 be 41 83 56 be 33 db 07 3d 2b 44 3c be
       -0.26010987 -0.20948507 0.03316803 -0.18385379
000030 0a 49 7e 3e b8 66 08 be ab 72 70 be 4c 51 8a be
       0.2483255 -0.13320434 -0.23481242 -0.2701515
000040 23 1a 33 bd 13 3f c3 be 30 89 8a bd e6 0c 76 be
       -0.043726098 -0.3813406 -0.06764448 -0.24028358
000050 2e 5e aa 3e 9b eb 94 3d 98 5f 22 3e fa 86 d2 3e
       0.33274978 0.07271501 0.15856779 0.41118604
000060 5c 68 65 be 28 4b cd be f7 99 26 3e db c8 f8 bd
       -0.22403091 -0.40096402 0.1626967 -0.12147685
000070 fe 20 3c be 22 1f d4 be f0 25 d2 be 31 3f 9e 3e
       -0.1837196 -0.41430002 -0.4104457 0.30907586
000080 d4 13 64 be 08 1a a3 be 2a bc bd 3e 70 f5 cd be
       -0.22273189 -0.31855798 0.3705762 -0.40226316
000090 67 2a a9 3c 73 2a 07 be fd 0a 71 3e 63 71 a2 3c
       0.020650102 -0.13199787 0.23539348 0.019829458
0000a0 a0 ea 6f bd ea 7e 52 3c 40 70 b3 be d9 07 ff bb
       -0.058573365 0.0128476415 -0.35046577 -0.007782918
0000b0 4d eb 6b be b3 a3 dc be ad f2 11 3d 23 0f c6 be
       -0.23038979 -0.43093643 0.035631824 -0.38683423
0000c0 8b a0 88 bd b6 29 65 be 5c e1 ae be 3d 94 73 3e
       -0.06671246 -0.22379193 -0.3415631 0.23787017
0000d0 1c c5 37 be 85 36 c1 3e 60 e6 d4 3e 6c 1b c6 be
       -0.17946285 0.37736908 0.41582012 -0.38692796
0000e0 df b2 a6 3e d1 ed c6 be a7 16 80 be 38 1c b9 bd
       0.32558343 -0.38853315 -0.25017282 -0.090385854
0000f0 31 0f dd bd b2 a0 cd bc 31 9e 48 3e 16 a9 77 be
       -0.10793913 -0.02510104 0.19591595 -0.24185595
000100 5a 96 0c be d4 47 5f be c1 b8 0f be 6f 0a bd 3e
       -0.1372923 -0.21804744 -0.14035322 0.36922023
000110 c0 e5 27 3d 22 a4 d8 3e bc 7d 21 3e 34 4d 9f be
       0.04099059 0.42312723 0.1577062 -0.3111359
000120 3f 74 09 bd 29 0a a8 3e ad 5d a8 bd 78 40 43 be
       -0.033558127 0.32820252 -0.08220992 -0.19067562
000130 2e 08 ca 3e f6 a5 d3 3e ad bd ce 3e 25 1a 5d be
       0.39459366 0.41337556 0.40379086 -0.21592005
000140 07 3a b1 be 9e 63 1b bc 8b 35 10 be 42 22 00 be
       -0.34614584 -0.0094842 -0.14082925 -0.12513068
000150 83 f9 b7 be 30 93 bc 3e 05 40 d3 3e 67 df b8 3e
       -0.3593255 0.36831045 0.4125978 0.36107942
000160 50 0c c2 be ac 0c c4 be 8d a7 eb bd 37 cd 56 3e
       -0.3790002 -0.38290918 -0.11506567 0.20976721
000170 10 43 b7 be 87 b7 a8 3e e8 b0 9c be 63 7f a3 3e
       -0.35793352 0.3295252 -0.3060372 0.31933126
000180 60 b0 72 be 95 68 d2 be 77 07 20 3e 24 cc 97 be
       -0.23700094 -0.41095415 0.15627848 -0.29647934
000190 b5 94 79 be 56 d0 79 be ac 2a 9e 3e b2 0e 89 3d
       -0.24373133 -0.2439588 0.3089193 0.06692256
0001a0 82 3d a2 3e 2e b8 9e be 40 e5 b7 bd a4 b5 78 3e
       0.31687552 -0.30999893 -0.08979273 0.2428804
0001b0 18 7d 33 bc 80 ac 86 3e 85 ee 68 3e 09 85 4f be
       -0.010955118 0.26303482 0.22747238 -0.20265593
0001c0 02 0d 73 be c1 7c 8d 3e f1 85 80 be e4 37 0b bd
       -0.23735431 0.27634242 -0.2510219 -0.03398885
0001d0 74 4b ce bc 8f 86 c9 3e 77 35 8b 3e b3 d2 b3 be
       -0.025182463 0.39360473 0.27189228 -0.35121688
0001e0 a3 40 b4 be 14 98 b8 be 59 d1 74 3d 75 18 47 3c
       -0.35205564 -0.36053526 0.059769962 0.012151827
0001f0 fa d7 cd 3e 84 28 60 3e e0 58 6a 3e d6 b3 00 be
       0.4020384 0.21890455 0.22885466 -0.12568602
000200 c0 98 f9 3d 96 dd 61 be 2b 19 5c be ae 79 d9 be
       0.12187338 -0.22057185 -0.21493976 -0.42475647
000210 c4 b0 b3 3e 50 56 1e bd 04 18 68 be a1 d4 90 be
       0.350958 -0.038656533 -0.22665411 -0.28287223
000220 dd b7 af 3e 3f a8 cf 3d 27 23 cb be 3b b9 1e 3e
       0.34319964 0.10139512 -0.39675257 0.15500347
000230 96 64 40 be 92 f2 78 3e fd f4 3a be a6 1b 1c be
       -0.1878837 0.24311283 -0.18257518 -0.15244922
000240 37 23 e4 be 1d 23 cd 3e 48 dc a3 be 47 b7 83 3e
       -0.44558117 0.40065852 -0.32004 0.25725767
000250 5f e6 95 be 13 ff 3a be 4b bd 3d be 5e f3 65 3e
       -0.29277322 -0.18261366 -0.18529241 0.22456118
000260 22 6a 92 be 1e b6 99 3d d9 6f a8 3e 37 51 3b 3e
       -0.28596598 0.07505439 0.32897833 0.182927
000270 f1 63 14 3e 05 38 37 be f1 36 06 be 03 5c 60 bd
       0.1449125 -0.17892464 -0.13106896 -0.05477525
000280 dc 9f eb 3d 5b 7d 97 3e 5a 03 45 be dc fb ae 3e
       0.115051 0.29587826 -0.1923956 0.34176528
000290 16 ac b1 bd 05 a8 d9 3d 66 c0 96 3e 23 44 bf 3e
       -0.08675401 0.1062775 0.29443663 0.37356672
0002a0 38 e6 c1 be 94 85 9c be 04 aa 7e 3d 6d 62 90 3e
       -0.37870955 -0.30570662 0.06217386 0.28200093
0002b0 ed 02 d1 3e 81 74 21 be 22 3e b8 3d c2 5e b7 3e
       0.40822545 -0.15767099 0.08996226 0.35814482
0002c0 37 ff ab be 12 59 f5 3d 2a 82 b7 be da 89 be 3e
       -0.3359315 0.119798794 -0.35841495 0.37214547
0002d0 31 f4 87 be 05 9d 2c 3e ca 52 8b 3e ac 03 d3 be
       -0.2655349 0.16856773 0.272116 -0.4121374
0002e0 01 b2 2e be 5f b6 89 3e 7f 57 96 3e 8e cb 5c 3c
       -0.1706009 0.2689695 0.2936363 0.013476266
0002f0 6d 74 cb 3e 24 1f 6c 3e 51 f4 d4 3d a6 e2 a2 3e
       0.39737263 0.23058754 0.10398162 0.31813544

encoder.layers.0.self_attn.in_proj_bias f4 [24]
000000 8d 1a 26 3b 23 6d 05 3c 3d 3f a6 bb 79 5f 28 bc
       0.0025345415 0.008143696 -0.0050734566 -0.010276669
000010 bb 40 18 3b cb 11 12 3c 04 3f df 3b 49 2d 8d bb
       0.0023231942 0.008915375 0.006812932 -0.004308377
000020 5f 58 59 ba d1 12 00 bb 9c fe 03 3b f0 2a 08 bb
       -0.00082910614 -0.0019542465 0.0020140773 -0.0020777546
000030 d8 32 c2 3b 0c 59 98 3b 03 71 d1 ba 01 be 77 3b
       0.005926471 0.004649287 -0.0015979115 0.003780246
000040 2b d8 70 3b ec 2a a6 bb 25 ce fc 3a 3a 9f 54 bb
       0.003674994 -0.0050710347 0.001928751 -0.003244354
000050 95 0f 3e ba f1 ae 8e bc 9e b0 c7 3b cc 12 20 bb
       -0.00072502467 -0.017417403 0.0060940525 -0.0024425266

encoder.layers.0.self_attn.out_proj.weight f4 [8, 8]
000000 93 47 2d be cc 5d b3 3e 3d 73 a9 3e 52 97 94 be
       -0.16921835 0.350325 0.33095732 -0.29021698
000010 f0 26 5d 3d cc 26 dd 3a d1 98 8a be a6 19 34 3e
       0.05399221 0.0016872524 -0.27069715 0.17587909
000020 83 31 8f 3e 02 30 9f 3d 35 d0 77 3d 41 2b a6 be
       0.27967462 0.07772829 0.060501296 -0.32454875
000030 75 24 26 3e e4 bd 0e bc d5 ff 91 bc 5d 91 5b 3d
       0.16224845 -0.008712266 -0.017822186 0.053605426
000040 c0 3e 2d 3e ae ea be bd 3a 51 45 bc 62 ee 0e 3d
       0.16918468 -0.09322105 -0.012043292 0.03489531
000050 08 ff 96 be 68 ee 4e 3e df 9f 9f be 8f b5 78 3e
       -0.29491448 0.20208132 -0.3117666 0.24288009
000060 d0 04 b5 bd c9 93 8c 3e 6a 82 c3 3d 68 97 33 be
       -0.088388085 0.274565 0.09546359 -0.17538226
000070 b0 7d 8f 3d f9 70 b3 be 8b 3b 80 3e a3 89 8c 3d
       0.07006395 -0.3504713 0.25045428 0.068621896
000080 07 c0 3e 3e 3f 96 03 be 23 6b c9 3d c2 45 34 bd
       0.1862794 -0.12850283 0.09834888 -0.04401184
000090 93 8e 52 be 42 5a da 3c a2 79 a0 3d 20 de b6 be
       -0.205622 0.026654366 0.078356996 -0.35716343
0000a0 bb 2a 24 3d f8 13 90 3e ba 8a ff 3d 1c bf b1 3c
       0.040079813 0.28140235 0.12477632 0.021697573
0000b0 ff 20 39 3e 0d 4b a2 be 1a 3c 7c bc 69 b7 73 3e
       0.18078993 -0.31697884 -0.015395189 0.23800434
0000c0 d9 84 ec 3d b3 40 ae 3e 10 f7 f7 3d 19 d1 ed 3d
       0.11548776 0.34033737 0.1210767 0.11612148
0000d0 0e 90 47 be d0 92 58 3e 04 53 f0 bd d9 61 34 3e
       -0.19488546 0.21149755 -0.11734584 0.17615451
0000e0 b1 69 e2 3c ab 2d e4 3d 81 c7 8f bd c0 c2 90 3e
       0.027638288 0.11141523 -0.07020474 0.28273582
0000f0 57 ef 76 3e 0f ef 6f 3e ef 4d 9e 3d c6 ad 99 3e
       0.24114738 0.23431037 0.077297084 0.3001539

encoder.layers.0.self_attn.out_proj.bias f4 [8]
000000 0e d8 d5 bb 2f d7 dd ba 2e f2 82 3c 63 61 87 bc
       -0.006526 -0.0016925092 0.01598462 -0.01652593
000010 f3 35 8b 3b 92 66 a2 3c eb 77 6e 3a 39 ed 31 bc
       0.0042483746 0.0198243 0.00090968487 -0.010859781

encoder.layers.0.linear1.weight f4 [32, 8]
000000 12 7b 5e be e8 62 c8 bd 51 2a da 3c a6 db fc 3d
       -0.21726635 -0.0978449 0.026631506 0.12346582
000010 85 c9 0a be d9 ef c2 bd 1d 98 2b be 12 74 63 bd
       -0.13553436 -0.095184036 -0.16757245 -0.055530615
000020 62 3a 36 3e 41 11 44 be 15 95 95 bd be 19 a5 be
       0.17795709 -0.19147207 -0.07303826 -0.32246202
000030 63 a2 73 3e d1 b0 5e 3e da 9e f0 bd 58 b7 9c be
       0.23792414 0.21747138 -0.117490485 -0.3060863
000040 a8 d3 20 3d 47 ee 98 3e ca 3a 95 be 88 19 5b bd
       0.03926435 0.2986929 -0.29146415 -0.053491145
000050 a0 51 e7 bd 30 38 9a 3c a2 d5 b0 be 0c 90 dc 3d
       -0.112948656 0.01882562 -0.3453799 0.10769662
000060 1b be 9b 3e 58 24 17 be fd 19 1d 3b 7e 48 94 bd
       0.30418476 -0.14759958 0.002397179 -0.07240389
000070 c6 30 a7 be b4 dd 7e bd 81 69 5c 3e bc 29 44 be
       -0.326544 -0.06222315 0.21524622 -0.19156545
000080 2b 6b 55 be fe 1a 61 be c6 ff 34 3e c8 82 79 3e
       -0.20841663 -0.21982953 0.17675695 0.24366295
000090 4c 09 a4 bd 80 94 2e 3d 00 96 61 be 04 2b 74 bd
       -0.08009586 0.04262209 -0.22029877 -0.059611335
0000a0 aa 5b 7f bb 61 16 4b be 69 b5 f6 3c 4c 35 47 3e
       -0.0038964548 -0.19832756 0.0301158 0.19453925
0000b0 9f 49 09 3e a7 14 42 3d 33 8c 82 3e 1b 38 aa bc
       0.1340699 0.047382977 0.2549759 -0.020778706
0000c0 42 dd 7a be b5 ab f1 bd 4e 62 95 3e e8 48 24 3e
       -0.24498466 -0.11800329 0.29176563 0.16043437
0000d0 6c 28 6a 3b 4f 9e 0e 3e 29 51 0b be 0d f1 87 3e
       0.003572966 0.13927577 -0.13605179 0.26551095
0000e0 4b 9f af 3e 7c 3c 82 3e d0 55 97 3e ad 6b ad be
       0.34301218 0.2543677 0.29557657 -0.33871213
0000f0 99 7a f9 3d 1e 69 4a be eb 39 06 3e 8f 39 a8 3d
       0.12181587 -0.19766662 0.13108031 0.082141034
000100 f6 72 a4 3e c2 d5 83 3d 76 af 4e 3e 45 e3 95 bc
       0.32118958 0.064372554 0.2018412 -0.018296847
000110 2c 37 ae be 34 db ad be 6c d2 c9 3d 2f b9 41 bd
       -0.34026468 -0.339563 0.09854588 -0.047295745
000120 36 2b 8f be 52 d4 91 be c0 6e 05 3d a0 53 a5 3e
       -0.27962655 -0.284823 0.032576323 0.32290363
000130 8e dd c0 3d 30 e7 f5 3d 81 89 7a 3e b2 69 b4 bc
       0.09417258 0.12006986 0.24466516 -0.022023056
000140 c6 2e 58 be 10 3f e0 3d 6b 8d a8 be ae 9a ec bd
       -0.21111593 0.10949528 -0.32920393 -0.1155294
000150 c0 65 bb 3c 7f d7 5a be 00 b6 55 bd 93 ad 9c 3e
       0.022875667 -0.21371268 -0.05217552 0.30601177
000160 63 d5 da 3d 43 d9 96 be 26 4b 75 3e 1f 56 a3 bd
       0.106852315 -0.29462633 0.23954448 -0.07975411
000170 33 6f a2 be a9 fa 92 3e b7 b4 6d be 03 e5 41 be
       -0.31725463 0.28706864 -0.23213468 -0.18935017
000180 23 93 fb 3d bc 5c 7c be 3e 36 52 3e 3f e0 5e 3c
       0.122839235 -0.2464475 0.20528504 0.013603269
000190 60 5d 39 3e 45 80 b0 3e fe 2f 34 be 8c 8e 90 3e
       0.18102026 0.34472862 -0.17596433 0.28233755
0001a0 7f 63 31 3e 95 a2 8a 3e 14 de 87 3e 29 3c 04 be
       0.17323111 0.27077165 0.2653662 -0.12913574
0001b0 8f c3 91 3d 6a b0 68 bd 4f 1b 40 bc 0d ae 95 3e
       0.07117378 -0.056808867 -0.011725261 0.29234353
0001c0 11 81 84 be c6 c3 4e 3e e4 94 14 be 4f 11 9f be
       -0.2587972 0.20191869 -0.14509922 -0.31067893
0001d0 38 a5 ab be 0a 7c 01 be 79 58 59 3d fd c7 83 bd
       -0.3352449 -0.12644973 0.05306289 -0.06434629
0001e0 4a de f1 bc fb 51 60 3e cc eb 26 bc 59 62 27 be
       -0.029524941 0.21906273 -0.010188054 -0.1634611
0001f0 aa 67 a4 be 75 91 b6 3d bd 73 82 3e f9 7f ad be
       -0.3211034 0.089144625 0.25478926 -0.33886698
000200 de 0d 1a 3d ca 87 eb bc 5a f9 1f 3e 52 34 b9 3e
       0.03761088 -0.028751273 0.15622464 0.3617273
000210 b8 59 1f be e1 b2 ee 3d 62 b0 48 3a 48 71 91 bc
       -0.15561569 0.11655212 0.00076556776 -0.017754212
000220 c9 fa 80 3e fd 39 e8 bb 26 ff 7b 3e 03 ce 65 be
       0.25191334 -0.007086991 0.2460905 -0.22441868
000230 c4 cb 0b be d4 ba 08 3e 09 1b 69 3d 89 b0 b3 be
       -0.13651949 0.1335252 0.05691055 -0.35095623
000240 03 af a0 be 44 9b 7e 3e 26 75 09 3c 26 01 78 be
       -0.31383523 0.24863917 0.008389747 -0.24219188
000250 46 77 10 3e 5b 94 a3 be 93 ad 42 3e eb fe 9d 3d
       0.14107999 -0.31949124 0.19011526 0.07714637
000260 d2 78 2e be 1a fa 1b 3e 3b d1 86 be b7 ea 86 3e
       -0.17038277 0.15232125 -0.26331505 0.26350948
000270 41 2d 93 3e 7a 32 1f 3e 6a bc 43 3e 65 9c 7e be
       0.28745463 0.15546599 0.19114843 -0.24864347
000280 ec 81 b3 3e 15 8e b1 be 24 71 dc bc 82 29 ce 3d
       0.3506006 -0.34678712 -0.026909418 0.10066511
000290 02 b3 ac be 13 fe 56 3d 76 3e a5 be 89 ce 90 3e
       -0.33730322 0.052488398 -0.32274216 0.28282574
0002a0 12 ad 82 3e 4b 34 27 be f6 a8 87 3c b0 17 e7 3b
       0.25522667 -0.16328542 0.016560059 0.0070523843
0002b0 0e 85 94 be 51 6d ee bd 06 8e 25 be 61 52 f2 3c
       -0.29007763 -0.11641944 -0.16167459 0.029580297
0002c0 e0 59 e0 bc 26 e5 4c be d3 eb 4b be dc 65 a7 be
       -0.027386606 -0.20009288 -0.19914179 -0.326949
0002d0 c3 75 55 be 91 e1 a9 3e 34 7f 74 be cc c0 b1 be
       -0.20845704 0.33179906 -0.23876649 -0.34717405
0002e0 ca a1 5f 3e 96 cc 2a be a8 55 3c be 5c 26 99 3d
       0.21839061 -0.16679606 -0.1839205 0.074780196
0002f0 2e 37 18 3e 87 7e 82 3e 4e 2f aa be 8a d9 1e 3e
       0.148648 0.25487158 -0.33239216 0.15512672
000300 b7 4c 39 bd 15 45 1e be 35 2c 24 be 72 f7 72 be
       -0.045239177 -0.1545604 -0.16032489 -0.23727205
000310 6a 64 7c be 10 40 56 3e ae dc 12 bd d2 61 98 bd
       -0.2464768 0.20922875 -0.035854988 -0.07440533
000320 2d 53 5b 3e 2d f2 8a bc 9d f7 56 be 03 56 92 3e
       0.21418448 -0.016961182 -0.20992894 0.28581247
000330 1b f4 5b 3e 08 cb 2c be b5 22 81 3e b1 6b 18 be
       0.21479838 -0.16874325 0.25221792 -0.14884831
000340 7e cc 38 be ac 22 95 3e fb 2b 4f bd ca 41 15 bc
       -0.18046758 0.29128015 -0.050579052 -0.009109924
000350 e9 56 66 3d 06 49 ea 3d ae 1c 81 3d 9c b9 e1 3d
       0.056235228 0.11439709 0.06304298 0.1102173
000360 38 c7 b3 3d c5 44 92 3d ff 49 92 3e 28 39 e4 bc
       0.08778232 0.07142023 0.2857208 -0.027859285
000370 74 5c ae be 96 2e b2 be 65 86 4a 3e 38 a8 0f 3e
       -0.3405491 -0.34801167 0.1977783 0.14029014
000380 67 2d 09 be 03 cc 45 be 4b 16 79 3e f6 38 ab be
       -0.13396226 -0.19316106 0.2432491 -0.33441895
000390 dd aa 76 be 8e ab 47 3e 63 87 d2 3b 0e 97 38 bd
       -0.24088617 0.19499037 0.0064248308 -0.045065932
0003a0 28 65 51 be 09 c8 41 be 1f ed 82 be 38 29 9a 3d
       -0.20448744 -0.18923964 -0.25571534 0.07527393
0003b0 71 d7 14 be ee 89 11 be 3e ab 8b be 20 68 08 be
       -0.1453531 -0.14212772 -0.27279085 -0.1332097
0003c0 af 2a a2 3e 3d a5 ae 3e 80 3a 1c bd ed 9e 87 3e
       0.3167319 0.34110442 -0.038141727 0.26488438
0003d0 ca f6 19 3e a9 5e 91 3e d0 e7 ec bc 40 0a b5 3b
       0.15035549 0.28392532 -0.02891913 0.0055249035
0003e0 9d 0a 92 be 89 a5 ce bd ef b6 84 be 8a 97 d0 3d
       -0.28523722 -0.10090167 -0.25920817 0.10185154
0003f0 5a 0c 9d 3e 74 30 fb bd 49 d7 33 be 45 58 7a be
       0.30673486 -0.12265101 -0.17562594 -0.24447735

encoder.layers.0.linear1.bias f4 [32]
000000 d3 0c b9 be c6 e9 a7 3e 5f a9 b2 3e f8 14 ba 3d
       -0.36142597 0.32795542 0.34894845 0.09086031
000010 7f fe b5 bd 90 e7 b5 be 82 cb aa 3e df 57 ad 3e
       -0.08886432 -0.3552823 0.3335839 0.33856103
000020 b4 cf cb bd ca db 41 3e 15 d4 b0 be f3 ba 9f 3d
       -0.099517256 0.18931499 -0.34536806 0.077993296
000030 62 23 08 be 17 50 93 be 36 61 1a 3e a2 54 98 3e
       -0.13294747 -0.2877204 0.15076146 0.2975207
000040 32 32 b5 3e 2a 42 2b 3e 8d 29 8f 3d c2 65 6e be
       0.35389858 0.16724458 0.06990347 -0.23281005
000050 74 cb b0 bd 08 6e d8 3c 4d 8a a3 be a5 2a a3 3e
       -0.086325556 0.026419654 -0.31941453 0.31868473
000060 a0 cd 8c 3e 4e 41 ed bd 84 05 12 3e 02 3b a5 be
       0.2750063 -0.115847215 0.14259917 -0.32271582
000070 3a e4 96 3e 44 60 f1 3d 20 96 13 bc 35 be 47 be
       0.29470998 0.11785939 -0.009007961 -0.19506152

encoder.layers.0.linear2.weight f4 [8, 32]
000000 cd 93 99 3d 20 d5 f3 3b 5a 65 18 be e7 9b 0c 3e
       0.07498894 0.007441178 -0.14882413 0.13731347
000010 92 e3 3a 3d 31 ac 58 bb b7 46 25 3d e6 3e 90 3d
       0.045627184 -0.0033061618 0.040350642 0.07043247
000020 c2 e9 3a 3e 97 d6 ee 3c 81 81 b6 bd cb 82 50 bc
       0.18253234 0.029155059 -0.0891142 -0.012726496
000030 06 3e 90 bd 24 f7 86 3c 41 3d 43 be d0 ea 16 3d
       -0.0704308 0.016475268 -0.19066335 0.03684503
000040 8a 41 e3 3c 8c 23 06 3d 38 5a cd 3d c0 23 de bc
       0.027741212 0.032748744 0.100269735 -0.027116656
000050 96 f4 9f bd 46 d6 1f 3e 59 42 08 3e 00 2e d5 bb
       -0.07810323 0.15609083 0.1330656 -0.006505728
000060 dc 0f 02 be db 63 b5 bd 86 2b dc bd ee 2e e5 bd
       -0.12701362 -0.088569365 -0.10750489 -0.11190592
000070 00 c3 93 3d 26 11 cb 3d 58 e3 89 bc 76 fa a9 bc
       0.07214928 0.0991538 -0.016832039 -0.020749312
000080 36 e5 19 3d b0 84 96 bd a7 6c 31 3e 83 52 d4 3d
       0.03757211 -0.07349527 0.17326604 0.103673
000090 8f 41 72 3d af 25 c7 3c 67 38 42 3d 13 66 13 3e
       0.059144553 0.024309961 0.04741707 0.14394407
0000a0 a1 d8 2c 3e a6 51 bf 3d 32 b2 86 bd b9 e3 26 bc
       0.16879512 0.09341745 -0.06576957 -0.010186129
0000b0 2f 6b 26 3e 25 9b a7 bd 62 3d 1d bd 44 b5 b6 3c
       0.16251825 -0.08183888 -0.038388617 0.022303231
0000c0 60 78 17 bd 02 29 10 be 47 58 ce bc 31 dd 0a 3e
       -0.036980033 -0.14078143 -0.025188578 0.1356094
0000d0 67 ae a1 bd 99 de 09 3d 3c e5 df bd 5c 89 31 bd
       -0.07894593 0.03365955 -0.10932395 -0.043343887
0000e0 72 ee 69 3d 8a d5 fd 3d be 95 bb bb 85 b9 14 3e
       0.057112165 0.12394245 -0.005724638 0.14523895
0000f0 6f 6b 0f 3e 2d 53 12 be 55 fd 04 3e 71 bf e3 3d
       0.14005826 -0.14289542 0.12987264 0.11120499
000100 97 3f 31 3e 1c 82 01 3e 5c 5f 6e bd f8 a0 84 bb
       0.17309414 0.12647289 -0.05819641 -0.0040475093
000110 bc ad 04 3e 22 d3 85 bd 9f 2b 61 3b 4b 91 a6 3d
       0.129569 -0.06534411 0.0034358276 0.08133181
000120 4b 3c fd bc 5b e5 f4 3d 32 1d b2 bd 7b 7e 90 bd
       -0.030912539 0.119578086 -0.08696975 -0.07055374
000130 3c 34 3b 3d 4f ab 82 bd ed a8 af bd 81 ac f7 bd
       0.04570411 -0.06380331 -0.08577142 -0.120934494
000140 ea 11 c7 3c 1a 66 51 3d 1a e3 02 3e fd b2 12 be
       0.024300534 0.051122762 0.12781945 -0.14326091
000150 c5 be a9 3d 4d 3d c7 bd e4 55 3a 3d 69 6f 31 3e
       0.082883395 -0.09728489 0.045492068 0.17327656
000160 95 1f a5 3d a8 55 75 3b 49 7a 6d bd f2 b6 e3 3c
       0.080626644 0.0037435088 -0.05797795 0.027797196
000170 68 ef 67 bd a5 36 21 3e b0 7f 77 bc 6f 03 84 bd
       -0.0566248 0.15743501 -0.015106127 -0.064459674
000180 67 b6 2d be 6a be 4c be 79 3e 0c be 2d 8a 9a 3b
       -0.16964112 -0.19994512 -0.13695706 0.004716179
000190 4e 7f d8 3d 27 58 aa 3d 37 39 86 3d 20 36 b2 bd
       0.105711564 0.08317595 0.065538816 -0.0870173
0001a0 48 72 84 bd 40 2e d2 3c 31 28 1c be bb 15 2a bd
       -0.0646711 0.02565682 -0.15249707 -0.04152463
0001b0 65 9f 41 bd 71 20 27 bc 67 4e 8e bd 4d 9d f2 bd
       -0.04727115 -0.010200606 -0.06948548 -0.11846409
0001c0 26 ce 1a be e3 50 1d 3d 39 c2 e7 3d c5 f4 c8 bd
       -0.15117702 0.038407218 0.11316342 -0.09812311
0001d0 90 d0 42 3d 5b 1c 5f 3c ac 54 18 be 86 29 f6 bd
       0.047562182 0.0136176 -0.1487605 -0.12019639
0001e0 46 db dd 3d ef 09 40 bb 66 8c 00 be ab da 3f be
       0.10832839 -0.0029302796 -0.12553558 -0.18735759
0001f0 fe 0a 84 3d a5 92 87 bd fc 7e 6d bd ac 37 f2 3d
       0.06447409 -0.06619767 -0.05798243 0.11827025
000200 4b 41 54 bd ea 4b 01 be ad 4b 20 3e e3 78 f2 bd
       -0.05182008 -0.12626615 0.15653868 -0.118394636
000210 b9 d0 07 bd 75 03 30 bd 90 54 01 3d bd bf 0a bd
       -0.033158038 -0.042972047 0.031574786 -0.033874262
000220 ad 19 96 3d ec 7a 1f bc 48 91 c6 bc 89 8e aa 3d
       0.07329116 -0.009733897 -0.024239197 0.08327968
000230 cb 63 04 be 48 a9 06 3e 28 04 1c 3e 75 62 17 be
       -0.12928693 0.13150513 0.1523596 -0.14783652
000240 c6 9a 9b 3c 6d 7f 66 bd 0a 92 25 be 08 1d 41 bd
       0.0189947 -0.056273866 -0.1616899 -0.047146827
000250 89 9d b7 bd e5 41 2b be f1 23 0b 3e 8a 0b 8a 3d
       -0.08965594 -0.16724356 0.1358793 0.06740482
000260 03 0e cd bd ca 1e 16 bd 63 03 be bd f1 a3 be 3d
       -0.10012438 -0.036650456 -0.0927799 0.09308613
000270 f7 17 f6 bd e7 bc 02 3e 08 75 f4 bc 81 20 a2 bd
       -0.1201629 0.12767373 -0.029840961 -0.07916356
000280 24 c7 15 3e 5a 4e af 3d 07 cd 02 3e d8 6d 95 bd
       0.14626747 0.08559866 0.12773524 -0.07296342
000290 23 03 b8 bd 15 16 a8 3d 72 e0 35 3d a3 25 97 bb
       -0.08984973 0.08207337 0.0444035 -0.004612641
0002a0 aa 44 25 bc 14 12 df 3d 17 0a d8 bd 78 9c ed 3d
       -0.010087172 0.1089212 -0.105487995 0.1160211
0002b0 ce b5 20 3e 5e 57 4b bc 50 01 0a 3e d7 18 72 3d
       0.15694353 -0.012410967 0.13477063 0.05910572
0002c0 99 f4 3a bd b7 6f 30 3e d6 24 13 3e 1a c7 c9 bd
       -0.045643423 0.17230116 0.1436952 -0.09852429
0002d0 6b fe 9c 3d 38 e4 f6 3c c6 23 9d 3d 5f cb 8f bd
       0.07665714 0.03013812 0.07672839 -0.07021212
0002e0 b8 53 05 3e df 32 bb bd b6 79 10 be 45 12 62 bd
       0.13020217 -0.09140562 -0.14108929 -0.055193204
0002f0 40 8f a5 bd ab 7b 17 be 32 a2 97 bd 44 43 94 3d
       -0.080839634 -0.1479327 -0.07403983 0.072393924
000300 fd 29 8e 3d 13 cd 94 3d d4 5e a0 bd 5d 7d 0f 3d
       0.069416024 0.07265677 -0.07830587 0.035031665
000310 1c 48 e7 3d 83 99 18 3c 09 b5 e3 3d c1 e4 31 3e
       0.11293051 0.009313944 0.11118514 0.17372419
000320 34 48 3a 3c df ad bb bd 49 55 2e 3e 87 12 af bd
       0.011369754 -0.09164023 0.17024721 -0.08548456
000330 03 3a e7 bd a2 f9 3a 3e 6b 24 c9 bd db dd 09 3e
       -0.11290362 0.1825929 -0.09821399 0.13463537
000340 8a 6d 2b 3e 43 67 b4 bc 26 1d 44 bd 7d 22 19 3e
       0.16741005 -0.022021895 -0.04787936 0.14954562
000350 91 aa dd 3d a7 7c 60 3c 40 33 bc bd 65 c8 94 bd
       0.108235486 0.013701594 -0.09189463 -0.07264785
000360 2b f4 90 bc 45 ff 57 3e 67 0f 01 bd b7 17 f0 3d
       -0.017694553 0.21093471 -0.03150883 0.11723273
000370 96 20 d0 3d 92 cd af 3d c2 16 d8 3d 94 ef 31 be
       0.10162465 0.08584131 0.10551216 -0.17376548
000380 bd 73 5a 3c e0 d6 05 3e 63 7a e3 bd a9 d7 48 bd
       0.013333258 0.1307025 -0.11107328 -0.049033795
000390 0d da 27 be 92 fa ad 3b 8a e6 01 be 10 6b ce 3d
       -0.16391774 0.0053094113 -0.126856 0.10079014
0003a0 9c 47 eb bd 6f 63 cc 3d 93 46 12 3e 1b 6a 22 be
       -0.11488268 0.09979903 0.14284734 -0.15860789
0003b0 c4 4f d0 3d 87 35 cd bb a2 81 8d 3d 70 cd a6 3d
       0.10171464 -0.0062624845 0.06909491 0.08144653
0003c0 83 02 ad bd f8 51 f8 3d 22 0f f7 bd 2b 61 33 3e
       -0.08447745 0.12125009 -0.12063433 0.17517535
0003d0 1b 9c 75 3c 7d 71 34 bd 90 24 7e 3d 25 ed 0a be
       0.014990832 -0.044053543 0.062046587 -0.13567026
0003e0 4d 55 2c 3e 63 9b 74 bd 81 49 ed 3d 8f 7a ac 3d
       0.16829415 -0.0597185 0.115862854 0.08421814
0003f0 a2 7c f0 3d 2d a4 12 be 48 4c 0e 3d cd 03 12 be
       0.11742522 -0.1432044 0.034740716 -0.14259262

encoder.layers.0.linear2.bias f4 [8]
000000 17 97 73 3c 63 59 26 be 1d 7d 0a 3e 35 8e e6 3d
       0.014867566 -0.16245036 0.1352429 0.112575926
000010 ac 3b b3 bc 5f 23 94 bd 8b 77 f7 bb 91 90 21 3d
       -0.02187904 -0.07233309 -0.0075520924 0.03944451

encoder.layers.0.norm1.weight f4 [8]
000000 d7 c4 7f 3f ac 19 7f 3f de 4b 84 3f b5 a2 7d 3f
       0.9990973 0.9964855 1.0335653 0.99076396
000010 58 81 81 3f 86 99 7b 3f 4d f4 80 3f f6 cb 81 3f
       1.0117598 0.98281133 1.0074555 1.0140369

encoder.layers.0.norm1.bias f4 [8]
000000 ef 82 13 3c fb 1c b6 3a cb 8c 0d 3d 41 66 dd bc
       0.009003385 0.0013894135 0.0345581 -0.027026298
000010 ed 34 72 3c c4 76 09 3c 11 fd 4b 3c ab 01 59 bc
       0.014783126 0.008390132 0.012450472 -0.013245027

encoder.layers.0.norm2.weight f4 [8]
000000 1a 5c 7e 3f bb 45 7b 3f 7e fd 82 3f d6 4a 78 3f
       0.99359286 0.98153275 1.023361 0.9698919
000010 59 6a 7f 3f 3a e8 73 3f 24 05 84 3f 32 d7 81 3f
       0.9977165 0.95276225 1.0314069 1.0143797

encoder.layers.0.norm2.bias f4 [8]
000000 3a 35 53 3c 65 11 fc bb cf 4a d9 3c c8 f9 d8 bc
       0.012891108 -0.0076925033 0.02652493 -0.026486292
000010 7a fe 5b bc ee 11 bc 3c ac 6a 25 3d 94 23 93 bc
       -0.013427371 0.022957768 0.040384933 -0.0179613

encoder.layers.1.self_attn.in_proj_weight f4 [24, 8]
000000 aa b1 bf 3e f6 f2 02 3e 9f 16 a0 be 02 39 d4 3e
       0.37440234 0.12787995 -0.3126726 0.41449744
000010 0a 28 dd be 65 a5 97 be 30 76 a5 be 40 ab cf bd
       -0.4319461 -0.29618374 -0.32316732 -0.10140085
000020 d5 8a 82 be ec c7 3f be cc df 56 39 26 c4 22 be
       -0.25496545 -0.18728608 0.00020492001 -0.15895137
000030 4e d4 85 3e ec 79 dd bd b2 7c 88 be 2f e7 72 be
       0.26138538 -0.108142704 -0.26657635 -0.23721002
000040 d1 53 7d bd 58 dc c1 be 26 44 8a bd 30 ab 86 be
       -0.06184751 -0.3786342 -0.067512795 -0.2630248
000050 fa 25 a6 3e cf 2a a7 3d 9f 09 28 3e be 2f d2 3e
       0.3245085 0.08162462 0.1640992 0.4105205
000060 bd e9 6a be 68 37 cf be 9f 91 2c 3e 9c 99 0e be
       -0.22940727 -0.4047196 0.16852425 -0.13925785
000070 9d 44 4e be 74 3d d2 be 68 b7 cd be ca 13 9b 3e
       -0.20143361 -0.4106251 -0.4017899 0.30288535
000080 3d 41 63 be 8c c1 a2 be 01 11 b5 3e a5 2b c4 be
       -0.22192855 -0.3178829 0.35364535 -0.38314548
000090 77 1a a0 3c 2d c6 fd bd e0 90 65 3e d7 a9 be 3c
       0.01954387 -0.12391315 0.22418547 0.023274345
0000a0 67 9a cf bd 93 91 20 3d 56 f9 b7 be 88 3d 5d bb
       -0.10136872 0.03920133 -0.35932416 -0.00337586
0000b0 52 95 51 be 18 aa d2 be d2 e7 a9 3c 80 90 ba be
       -0.20467117 -0.41145396 0.020740423 -0.3643837
0000c0 b2 0e c7 bd 86 6d 4d be 5a 06 af be fe 93 66 3e
       -0.097196 -0.20061311 -0.34184533 0.22517392
0000d0 a3 22 1d be 4e 5d c6 3e bc 93 d6 3e da 19 c3 be
       -0.15345244 0.3874306 0.41909587 -0.3810566
0000e0 ea 83 b5 3e ce 01 cd be 92 aa 84 be 7d 84 bb bd
       0.35452205 -0.4004044 -0.25911385 -0.091561295
0000f0 b5 6a fa bd ce 38 a5 bc 3c d3 46 3e a4 42 79 be
       -0.12227384 -0.020168688 0.19416517 -0.24341828
000100 52 a7 04 be 0e 89 63 be 6e 35 1c be f3 9f bf 3e
       -0.12954453 -0.22220251 -0.15254757 0.3742672
000110 04 b7 7c 3d 7f 47 db 3e f7 d4 06 3e 6e 69 a9 be
       0.061697975 0.42827985 0.13167177 -0.3308825
000120 68 0d 02 bd f2 62 bb 3e e6 c8 a0 bd e6 fe 33 be
       -0.031751066 0.36598927 -0.07850818 -0.17577705
000130 10 d4 b6 3e 0c f8 d1 3e 94 72 cf 3e 37 d9 60 be
       0.35708666 0.41009557 0.40517104 -0.21957861
000140 3c 4c af be 73 ce 50 bd f8 7c 1d be 6e ee 13 be
       -0.3423785 -0.050978135 -0.15379703 -0.14446422
000150 70 f4 a8 be c7 30 c6 3e c7 46 d8 3e 16 44 ba 3e
       -0.3299899 0.3870909 0.422415 0.3638007
000160 6a 81 b6 be 3d 90 b2 be 60 f6 03 be a5 07 67 3e
       -0.3564561 -0.3487567 -0.12886953 0.2256151
000170 06 2e ca be a4 91 ae 3e 6b 78 a0 be 6c c0 93 3e
       -0.39488238 0.3409549 -0.31341872 0.28857744
000180 83 6a 58 be 07 4c bb be 37 1f 21 3e 29 85 a8 be
       -0.21134381 -0.36581442 0.15734564 -0.32914093
000190 86 b7 7e be 42 7c 5d be de 38 ab 3e df 3f 8f 3d
       -0.24874696 -0.21629432 0.33441824 0.06994604
0001a0 a9 12 a2 3e 54 bf 8c be 86 2c 62 bd 9a ba 4b 3e
       0.31654862 -0.27489722 -0.055218242 0.19895402
0001b0 e1 8f 7f 3b 06 ca 89 3e 3c 89 6d 3e ec 8e 30 be
       0.003899567 0.26911944 0.23196882 -0.1724202
0001c0 18 71 7e be a3 f1 8f 3e 02 cd 4f be 3c d4 22 bd
       -0.2484783 0.28114042 -0.20293048 -0.039753184
0001d0 00 88 6e 3c df 35 d1 3e 12 44 94 3e 6e b6 a3 be
       0.014558792 0.40861413 0.28958184 -0.3197512
0001e0 67 77 b5 be 6f a0 ab be c6 cd c6 3d 34 27 16 bd
       -0.3544266 -0.3352084 0.09707217 -0.03665848
0001f0 87 31 d8 3e ec 46 5d 3e ce 12 6a 3e 9c 89 b2 bd
       0.42225286 0.21609086 0.22858736 -0.08717653
000200 dd 54 d1 3d 8d 09 5d be aa 89 77 be c3 06 c7 be
       0.102212645 -0.21585675 -0.24173608 -0.38872346
000210 c4 e8 b9 3e b1 f1 73 bc c2 66 82 be c1 ad 81 be
       0.363104 -0.014889167 -0.25469023 -0.25327876
000220 3a dd be 3e 50 58 98 3d c0 d2 c1 be 3e cf 05 3e
       0.37278157 0.07438719 -0.37856102 0.13067338
000230 ae 15 16 be da 0e 65 3e 16 a4 26 be 1c 62 2d be
       -0.14656708 0.22368947 -0.16273531 -0.16931957
000240 e4 c6 ca be 1d df bd 3e e9 e8 9d be 31 1a 7c 3e
       -0.39604867 0.37084284 -0.3084176 0.24619366
000250 c6 03 69 be 7a cc 47 be 3a 1d 2f be 9b d1 5c 3e
       -0.22755346 -0.19511595 -0.17100993 0.21564333
000260 c8 bb 99 be 3b 38 c5 3d 2c 1e aa 3e 84 2e 37 3e
       -0.30026078 0.09629866 0.33226144 0.17888838
000270 53 39 d4 3d 9b da 39 be c8 86 04 be 0d 0f 7f bd
       0.10362496 -0.18149798 -0.1294204 -0.062270213
000280 4b 97 b9 3d c5 b8 82 3e 04 78 3c be 5d fa ac 3e
       0.0906206 0.25531593 -0.18405157 0.33784762
000290 3c 81 e2 bd 3e 5e cb 3d ba 72 97 3e f9 11 bd 3e
       -0.11059806 0.09930085 0.29579717 0.36927775
0002a0 4e 1d b6 be 52 6c 99 be 7c 94 7f 3d 9f b4 8a 3e
       -0.35569233 -0.29965454 0.062397465 0.27090928
0002b0 45 84 b4 3e af 9d 22 be f5 41 ba 3d ec 54 b5 3e
       0.35257164 -0.15880464 0.090946116 0.35416353
0002c0 1e 96 c1 be f8 f6 1f 3e bc 52 c1 be 6b 1a cb 3e
       -0.37809843 0.15621555 -0.37758434 0.39668593
0002d0 30 b3 88 be 6b 62 3e 3e 38 a4 81 3e 93 f0 c9 be
       -0.2669921 0.18592231 0.253206 -0.39441356
0002e0 98 95 eb bd 37 99 81 3e 68 74 a5 3e 7a 92 dc bc
       -0.11503142 0.25312206 0.32315373 -0.026925314
0002f0 8f dc ca 3e 93 d4 50 3e b8 7b 0b 3e a9 8f 92 3e
       0.39621398 0.2039359 0.13621414 0.2862523

encoder.layers.1.self_attn.in_proj_bias f4 [24]
000000 86 ca 0a bc db 6a aa bc 0a 69 fb bb a7 7f df bb
       -0.008471137 -0.020802906 -0.0076724337 -0.0068206373
000010 ed 8b 90 ba 47 9a 9c ba 66 8e 26 3b 3a 59 23 bc
       -0.0011028029 -0.0011947834 0.0025414466 -0.009970004
000020 1e 50 16 36 a9 91 1d b6 f2 57 25 36 df 6b 9a b5
       2.2398376e-06 -2.3479608e-06 2.4638107e-06 -1.1505289e-06
000030 73 49 89 34 df 91 ce b4 01 01 00 35 3f 87 b7 b5
       2.557168e-07 -3.8476625e-07 4.7685177e-07 -1.3673924e-06
000040 a3 04 33 bc ca 37 04 3c 68 ef 88 3c 97 8f 69 bb
       -0.010926398 0.008069942 0.01671572 -0.0035638565
000050 98 8c 0d bc b3 67 08 bd f8 aa c8 bb 94 5a b5 3c
       -0.008639477 -0.03330202 -0.0061238967 0.022137918

encoder.layers.1.self_attn.out_proj.weight f4 [8, 8]
000000 08 6e 1b be 89 13 ad 3e 54 96 a0 3e b3 d4 8f be
       -0.15178692 0.33803967 0.3136469 -0.28091964
000010 c4 f4 07 3d 70 7b 0d bd 63 b4 9a be 3e 3a 55 3e
       0.03319241 -0.034541547 -0.3021575 0.20822999
000020 ca d4 86 3e b4 18 ce 3d 68 76 ab 3d 68 2c b2 be
       0.2633422 0.100633055 0.083721936 -0.34799504
000030 f0 28 3b 3e 32 cf cc 3c aa 12 24 bc c9 5d 86 3d
       0.18277335 0.025001142 -0.0100142155 0.06560857
000040 45 d6 06 3e c6 32 cb bd 4f fd aa bc a9 35 2f 3d
       0.13167675 -0.09921794 -0.02087274 0.042775784
000050 30 68 a5 be 68 c0 12 3e 8f 16 a4 be c5 0c 58 3e
       -0.3230605 0.1433121 -0.3204846 0.21098621
000060 2f 63 6f bd 02 2a 8b 3e cb be c1 3d d4 f8 31 be
       -0.0584442 0.27180487 0.09460219 -0.17380077
000070 ac c8 94 3d 40 a0 bf be 8d 08 83 3e 5e 32 ab 3d
       0.072648376 -0.3742695 0.2559246 0.08359216
000080 e1 54 28 3e d3 b4 db bd c6 b6 ff 3d 8b 62 80 bd
       0.16438629 -0.10727849 0.12486033 -0.062687956
000090 22 d3 35 be 1d ce a8 3d 63 81 d2 3d f6 a0 bc be
       -0.17756322 0.08242438 0.10278585 -0.36841553
0000a0 b0 bb bc 3c c1 f4 89 3e 07 2f e8 3d 1a f6 0d 3d
       0.023038715 0.26944545 0.11337095 0.03465853
0000b0 0b ed 2c 3e 4c 24 8c be d8 f6 e7 bc 0b b6 5f 3e
       0.168873 -0.27371442 -0.028315946 0.21846788
0000c0 02 c1 27 3e cd 1e a8 3e 73 bc db 3d e2 b3 fe 3d
       0.1638222 0.32836 0.10729303 0.12436654
0000d0 9a 8b 43 be fd 0d 8b 3e b9 29 03 be 81 12 4f 3e
       -0.19096223 0.2715911 -0.12808885 0.20221902
0000e0 fe ac 91 3c b3 ea f9 3d 02 39 7b bd dc 32 8c 3e
       0.017782684 0.122029684 -0.061333664 0.27382553
0000f0 8e b2 73 3e 73 23 28 3e 66 85 c0 3d a1 44 8a 3e
       0.23798582 0.16419773 0.09400444 0.27005485

encoder.layers.1.self_attn.out_proj.bias f4 [8]
000000 98 d6 35 3b ed de 9f bc a9 6a 16 3d 9e b9 95 bb
       0.0027746316 -0.019515479 0.036722813 -0.0045692464
000010 84 b8 4e bc ca 11 12 3d 4a ba 62 3b 61 bf 5d bc
       -0.012617234 0.035661496 0.00345959 -0.013534398
