models/ts_views_models/ts-v4.ckpt (torch, 328080 bytes, 201 tensors)

input_pos_embedding.weight f4 [1024, 8]
-0.98055416 -0.050960485 -0.029414186 1.3091286 0.18581706 -1.0700532 0.11232345 -1.3980381
-0.95876855 1.7685027 -0.5486621 0.5745923 -0.8448615 -0.37437138 1.2278786 -0.14666039
1.2116406 -0.09916744 0.3915783 0.1018521 0.6296281 0.11726559 0.21073261 -0.34686396
-0.89948505 0.29063556 0.9119705 -1.6002253 -0.4357098 0.6829402 -2.7469165 -0.8784912
-0.90987766 0.58851916 1.4504838 -0.3576694 1.3697848 1.0356972 -0.112287275 -0.5753727
-0.63502735 1.1927674 -0.5264323 0.80300367 -0.6962629 1.3705679 0.40945515 -0.8864963
-1.943907 -1.1161984 -1.6193053 1.4929198 0.30404684 -2.058105 0.26097968 0.80835575
1.3887128 0.59314495 -0.29415938 0.38869768 0.09070316 -0.78757423 -0.6596903 -0.5005525
-1.031505 1.7272614 -0.9639178 -1.4130408 -0.45470998 -0.80471 1.4126468 0.641044
-0.7691866 -1.5280956 -0.1498587 -0.38901561 -0.47977325 0.033958606 -1.3596076 -0.417504
1.8082706 -0.33286723 0.21768999 -0.59618956 -0.29340217 0.57743704 0.90379924 0.19239938
0.7133897 -0.2359183 -0.7366002 -0.34729445 0.6323756 -0.75708157 1.4547151 0.9518922
2.445864 0.21200016 -1.0434934 0.8977295 -0.8340163 -1.1575334 0.6964293 0.45993546
0.9374957 0.41370732 -0.859194 -0.8100578 0.69762564 -1.34742 -0.47097778 -0.5556646
0.8924334 -0.09834302 -0.36045828 1.2664566 -0.8864648 -0.64288557 0.28312695 -0.4117562
0.36799398 0.47103533 1.0328126 2.6852894 0.7108786 -0.92604333 1.3112239 -0.35577667
-0.43368965 0.10140603 1.5159523 0.78716874 0.71533275 1.6056582 -0.3080021 0.24596982
1.2259811 1.8748839 -0.79876167 -0.011185109 0.7379706 -1.276298 -1.6016625 -1.0511498
0.0065697324 0.7511771 -0.4721708 -1.4974477 -0.012672362 0.41242602 0.05919375 1.3260862
-0.13416006 0.91078824 -1.6645925 -0.94967717 0.96012855 0.67348284 -1.0930152 0.09697226
0.1580496 0.47651082 1.0394826 -2.8589964 0.5748075 -0.40811417 0.56318665 -0.8695713
0.6482661 0.39861593 0.37178075 -1.9816283 0.5133073 -0.36769482 0.24133444 -0.5205442
-1.3408219 -0.36997592 0.44704157 -0.024078468 0.39281717 -1.5133489 0.24968074 -1.7208357
0.012818574 1.1673764 -0.03710714 1.1583563 0.8681597 -0.027432874 1.3850247 -0.15230921
-0.9051122 0.39369756 2.243733 0.31899697 -0.7397212 0.6635869 0.9014508 -0.03526912
0.18116602 0.8190692 0.25389275 -0.27020776 -0.82651 1.2982153 0.15499198 -1.3370435
0.33771142 1.2018198 -0.5145205 -0.21569878 -1.3463589 -0.65831804 0.3563943 -0.05801873
-1.1924688 1.350977 -0.7803629 -1.3029807 -2.481182 0.030379608 -0.88774115 0.6197597
-0.07951181 1.5162879 -1.5299007 -1.2305738 0.7560253 0.6531407 2.092427 -0.99883103
0.03954154 -0.9806597 -0.44852656 -0.3555861 0.4651053 -0.6605374 -0.31558606 0.7811753
-0.5928756 1.331266 1.6972922 -0.77374554 0.87282705 0.37559375 -1.2075741 0.0796318
0.088771574 -1.527117 -0.5446326 -0.35375887 1.5928648 0.54593176 0.45735285 -0.49988794
00000000: 9905 7bbf f1bb 50bd 05f6 f0bc 8791 a73f
00000010: d446 3e3e 81f7 88bf d609 e63d eaf2 b2bf
00000020: db71 75bf 4c5e e23f 1f75 0cbf 7b18 133f
00000030: d848 58bf 9bad bfbe 202b 9d3f 242e 16be
00000040: 0a17 9b3f 4c18 cbbd f37c c83e d597 d03d
00000050: 4f2f 213f f128 f03d 4aca 573e 2798 b1be
00000060: a744 66bf 2fce 943e e676 693f 2fd4 ccbf
00000070: 5b15 dfbe 2bd5 2e3f 7bcd 2fc0 cde4 60bf
00000080: beed 68bf 31a9 163f 74a9 b93f 7220 b7be
00000090: 1c55 af3f ba91 843f dff6 e5bd a04b 13bf
000000a0: 2791 22bf 9aac 983f 44c4 06bf a691 4d3f
000000b0: 493e 32bf c56e af3f 1ba4 d13e 6cf1 62bf
000000c0: f2d1 f8bf 97df 8ebf 6545 cfbf ff17 bf3f
000000d0: 07ac 9b3e feb7 03c0 219f 853e 67f0 4e3f
000000e0: 57c1 b13f 59d8 173f 0f9c 96be 6203 c73e
000000f0: 94c2 b93d 779e 49bf 77e1 28bf 3524 00bf
00000100: 5b08 84bf e716 dd3f 51c3 76bf 85de b4bf
00000110: bfcf e8be 7901 4ebf 9cd1 b43f 761b 243f
00000120: 6ae9 44bf a398 c3bf 8f74 19be 0e2d c7be
00000130: d7a4 f5be 2e18 0b3d 9f07 aebf 16c3 d5be
00000140: 6975 e73f 936d aabe 20ea 5e3e e19f 18bf
00000150: cf38 96be ead2 133f 635f 673f 5804 453e
00000160: b5a0 363f 9194 71be d591 3cbf 94d0 b1be
00000170: 5ee3 213f 19d0 41bf 1b34 ba3f 35af 733f
00000180: 0989 1c40 9216 593e 3191 85bf 9ad1 653f
00000190: 1882 55bf 0e2a 94bf 3149 323f a97c eb3e
000001a0: b8ff 6f3f 72d1 d33e 23f4 5bbf f35f 4fbf
000001b0: 9897 323f 4278 acbf 0024 f1be 0940 0ebf
000001c0: 8476 643f 1168 c9bd fd8d b8be 401b a23f
000001d0: 5bef 62bf 2694 24bf 04f6 903e b5d1 d2be
000001e0: b569 bc3e 8b2b f13e 3433 843f c8db 2b40
000001f0: 24fc 353f 2d11 6dbf 2fd6 a73f 5c28 b6be
00000200: 920c debe f7ad cf3d ba0a c23f e483 493f
00000210: 0c20 373f 3586 cd3f 74b2 9dbe 83df 7b3e
00000220: f3ec 9c3f 32fc ef3f a57b 4cbf bf41 37bc
00000230: a4eb 3c3f bc5d a3bf 4703 cdbf 148c 86bf
00000240: e946 d73b 244d 403f 5fc0 f1be 5eac bfbf
00000250: bd9f 4fbc 8129 d33e 2575 723d 31bd a93f
00000260: 4161 09be 6b29 693f 5e11 d5bf 0b1e 73bf
00000270: fcca 753f 5f69 2c3f ece7 8bbf 6499 c63d
00000280: c1d7 213e 3af9 f33e c40d 853f ccf9 36c0
00000290: 9626 133f 57f4 d0be 002d 103f 3a9c 5ebf
000002a0: c4f4 253f 6317 cc3e 0c5a be3e ffa5 fdbf
000002b0: 1b68 033f 7f42 bcbe 6020 773e 6242 05bf
000002c0: 0da0 abbf 7c6d bdbe a2e2 e43e 3540 c5bc
000002d0: 551f c93e 6bb5 c1bf 4fac 7f3e 5844 dcbf
000002e0: ff04 523c 976c 953f a8fd 17bd 0545 943f
000002f0: b73f 5e3f e8ba e0bc 7d48 b13f f2f6 1bbe
00000300: 6fb5 67bf ba92 c93e 5299 0f40 9253 a33e
00000310: 5e5e 3dbf d5e0 293f 7bc5 663f 5a76 10bd
00000320: 9683 393e 85ae 513f 3bfe 813e ac58 8abe
00000330: 2996 53bf eb2b a63f 38b6 1e3e 3e24 abbf
00000340: 83e8 ac3e 3bd5 993f 9eb7 03bf 24e0 5cbe
00000350: 7d55 acbf 8887 28bf 5079 b63e 0ca5 6dbd
00000360: d1a2 98bf d0ec ac3f ddc5 47bf 12c8 a6bf
00000370: b0cb 1ec0 a8de f83c 0143 63bf 92a8 1e3f
00000380: 16d7 a2bd b915 c23f c9d3 c3bf 7183 9dbf
00000390: e08a 413f 3b34 273f 53ea 0540 64b3 7fbf
000003a0: 4ff6 213d 840c 7bbf 46a5 e5be 620f b6be
000003b0: 4822 ee3e fb18 29bf 7f94 a1be 1bfb 473f
000003c0: b2c6 17bf ed66 aa3f df40 d93f 3014 46bf
000003d0: 9871 5f3f d34d c03e ca91 9abf ff15 a33d
000003e0: dfcd b53d 9278 c3bf 0b6d 0bbf e21f b5be
000003f0: fee2 cb3f 2fc2 0b3f 272a ea3e 50f1 ffbe

target_pos_embedding.weight f4 [1024, 8]
-1.8857225 1.1972941 0.64290416 -2.2110527 -0.023188982 -0.16791552 -1.3531867 -2.251985
0.34845048 -0.26671922 1.5935502 0.6387564 2.6283393 0.3685731 -0.61182094 -0.29853818
1.3361531 -0.69248587 1.1668866 0.36957824 -0.6232349 0.7063256 -0.49546897 0.23297234
-0.03603893 -0.14689487 0.26339483 -0.70665056 -0.6043578 -0.92985713 0.0392094 0.061074536
-0.9317553 0.30479237 -0.5488687 1.6191233 0.04738299 -0.63391584 -1.2278593 -1.0449389
0.6168058 1.1453025 -0.92762834 1.1092933 -0.067237586 -0.810936 -0.83149624 -0.7137541
-0.46444884 -1.3195795 -1.7611188 1.2495729 -1.3611287 -0.08516349 0.53130645 -0.5006582
0.64777017 -0.17723969 0.5387764 -0.21637525 -0.5571915 -1.1726207 1.0107311 -0.02760046
-0.291215 0.98411673 0.2568031 0.0893674 0.44878465 -0.6775724 -0.43653524 -0.585742
-0.75627905 -0.16023538 -1.000585 -1.4615401 0.5793779 0.5196571 0.032175235 0.28434855
0.21096824 0.8867384 3.034736 1.8425821 -1.3960758 -1.7370722 1.8505057 -0.025034536
1.3543286 0.30909848 0.4677128 0.46267378 -1.3819156 0.27503788 0.9583041 -0.7607771
-0.56050575 0.57869095 -0.14529388 -2.2268429 -0.8014157 -1.0177951 -0.5448696 0.6883737
0.05831651 1.912634 -1.7163272 -0.74790674 -1.4377596 0.035102133 -0.15753418 -0.44378263
-0.09373503 -0.77089715 2.2375653 0.8975092 0.94990027 -1.6228245 1.1386181 0.48247984
0.49527663 -1.0479802 -0.3442872 -1.1384786 0.033587225 -0.9606934 -0.8348246 -0.33800808
-0.06032117 -0.4358045 -1.1340247 -0.4663655 -1.189499 -0.81874 -0.63167936 0.4496447
-0.10254147 -1.3276663 2.203539 -0.803129 0.3354433 0.3163589 0.1147481 0.4567956
0.9523697 -1.4364386 0.27340698 1.8206675 0.3114886 1.1761416 -2.375535 1.0716982
0.006533119 -0.011288954 -0.77747685 0.035640463 1.7931625 -0.5906834 -0.18299356 1.4942647
-1.1196799 0.017676767 -2.2248087 0.7858843 1.6302058 -0.15136406 0.08307992 -2.8945336
-1.011643 -0.08506072 -0.28706467 -0.30229756 0.3263627 0.9870757 -1.0252274 0.39243603
0.12431303 0.83810765 1.7137634 2.5894222 0.9883732 -1.8681462 -1.0644983 -1.8523532
-1.4312721 1.6179904 -0.93054163 0.4577198 -0.04289608 -1.2119123 -0.14482044 0.7982288
0.40507805 -0.10174781 -0.48016948 -1.0464956 -0.66945434 2.0927572 0.4978556 -0.24977204
-0.123823956 1.1203711 -0.22133474 -0.87550455 -1.4693319 0.9851439 1.2940238 0.74214363
0.2285936 0.9016521 0.14663097 -0.44470215 -0.047741815 0.55184716 1.390797 -1.3532802
-0.20230351 -0.54106736 0.75056267 -0.7149558 0.34118143 -0.6330044 -2.2261233 -0.10093415
-0.5572179 0.12351103 -1.5290395 1.207951 -1.641663 -1.1007597 1.3321197 -0.5019119
2.28045 0.48661524 -0.08483198 0.31265393 -1.4076993 0.553966 -1.9657724 0.2806681
-1.0698739 -0.04779092 0.3882233 -0.6250128 0.07220761 -0.09977091 -0.122527115 0.05929443
0.024744315 0.02317237 -1.4665589 -0.25724003 -0.2076205 -1.825083 -0.94881994 -0.40728366
00000000: 5b5f f1bf ef40 993f 5e95 243f e381 0dc0
00000010: d2f6 bdbc 0cf2 2bbe 3935 adbf 8620 10c0
00000020: 1a68 b23e 6c8f 88be 74f9 cb3f 8a85 233f
00000030: b636 2840 9db5 bc3e 4ca0 1cbf ffd9 98be
00000040: 1107 ab3f c146 31bf 8a5c 953f 5c39 bd3e
00000050: 538c 1fbf c1d1 343f 1cae fdbe 4d90 6e3e
00000060: 8f9d 13bd 9c6b 16be b0db 863e 0de7 34bf
00000070: 31b7 1abf 1e0b 6ebf 099a 203d 4b29 7a3d
00000080: 8487 6ebf bf0d 9c3e a982 0cbf 6f3f cf3f
00000090: ab14 423d 4f48 22bf 7e2a 9dbf 8fc0 85bf
000000a0: fce6 1d3f 4699 923f 0d79 6dbf 53fd 8d3f
000000b0: dcb3 89bd 8099 4fbf f0dc 54bf 97b8 36bf
000000c0: 3dcc edbe fbe7 a8bf 576c e1bf 01f2 9f3f
000000d0: 7739 aebf 326a aebd b303 083f 232b 00bf
000000e0: 44d4 253f 527e 35be 40ed 093f 7991 5dbe
000000f0: 1aa4 0ebf 6f18 96bf a35f 813f 5c1a e2bc
00000100: 221a 95be 13ef 7b3f b27b 833e 4106 b73d
00000110: 1ac7 e53e 6375 2dbf 8c81 dfbe 30f3 15bf
00000120: 819b 41bf be14 24be 2b13 80bf bf13 bbbf
00000130: 1c52 143f 3f08 053f 2eca 033d 2296 913e
00000140: 0f08 583e 4a01 633f 1d39 4240 bbd9 eb3f
00000150: 9db2 b2bf 6258 debf 5fdd ec3f 3a15 cdbc
00000160: a45a ad3f 2842 9e3e 0d78 ef3e 94e3 ec3e
00000170: 9ce2 b0bf c4d1 8c3e 6b53 753f 4ac2 42bf
00000180: 4e7d 0fbf 1725 143f ebc7 14be 9884 0ec0
00000190: 9429 4dbf 1c47 82bf 937c 0bbf 4239 303f
000001a0: 4bdd 6e3d 31d1 f43f 9cb0 dbbf d176 3fbf
000001b0: 8208 b8bf 41c7 0f3d a450 21be 7a37 e3be
000001c0: 27f8 bfbd 8459 45bf 4534 0f40 2ac3 653f
000001d0: aa2c 733f b7b8 cfbf 3dbe 913f 9907 f73e
000001e0: e694 fd3e 3724 86bf 6946 b0be abb9 91bf
000001f0: c292 093d 01f0 75bf 11b7 55bf 650f adbe
00000200: 5513 77bd c421 dfbe b927 91bf 75c7 eebe
00000210: 8141 98bf f298 51bf bdb5 21bf d537 e63e
00000220: 4301 d2bd f8f0 a9bf c806 0d40 dd99 4dbf
00000230: 39bf ab3e cbf9 a13e 0d01 eb3d 1de1 e93e
00000240: 80ce 733f 38dd b7bf 00fc 8b3e a20b e93f
00000250: 6f7b 9f3e cf8b 963f c408 18c0 682d 893f
00000260: c613 d63b 4ef5 38bc b908 47bf bcfb 113d
00000270: 5986 e53f 0737 17bf aa62 3bbe 1144 bf3f
00000280: ac51 8fbf dece 903c 4463 0ec0 b72f 493f
00000290: 95aa d03f 2eff 1abe ce25 aa3d 0a40 39c0
000002a0: 857d 81bf 5134 aebd 24fa 92be bfc6 9abe
000002b0: 0319 a73e feb0 7c3f a73a 83bf 60ed c83e
000002c0: d497 fe3d 398e 563f 995c db3f 18b9 2540
000002d0: 0706 7d3f 6a1f efbf 7b41 88bf e919 edbf
000002e0: ed33 b7bf 4f1a cf3f fa37 6ebf 405a ea3e
000002f0: cdb3 2fbd f11f 9bbf cf4b 14be b958 4c3f
00000300: 6466 cf3e 2861 d0bd c6d8 f5be 91f3 85bf
00000310: 5c61 2bbf bcef 0540 eee6 fe3e 3ec4 7fbe
00000320: 6a97 fdbd 5268 8f3f 93a5 62be 1121 60bf
00000330: 1113 bcbf 6432 7c3f 92a2 a53f 20fd 3d3f
00000340: 7114 6a3e acd2 663f 6e26 163e 00b0 e3be
00000350: ec8c 43bd db45 0d3f a305 b23f 4938 adbf
00000360: a728 4fbe 6483 0abf e024 403f 5807 37bf
00000370: 55af ae3e 940c 22bf ce78 0ec0 90b6 cebd
00000380: d5a5 0ebf 5af3 fc3d 91b7 c3bf 239e 9a3f
00000390: 0322 d2bf b2e5 8cbf e682 aa3f 4c7d 00bf
000003a0: e5f2 1140 a225 f93e 64bc adbd 2d14 a03e
000003b0: 7e2f b4bf b7d0 0d3f 6e9e fbbf bbb3 8f3e
000003c0: a1f1 88bf 69c0 43bd 34c5 c63e d700 20bf
000003d0: 95e1 933d b154 ccbd 7fef fabd b7de 723d
000003e0: 97b4 ca3c fbd3 bd3c 34b8 bbbf f7b4 83be
000003f0: 789a 54be 529c e9bf dde5 72bf 7c87 d0be

encoder.layers.0.self_attn.in_proj_weight f4 [24, 8]
-0.42859653 -0.038031906 0.24212657 0.18947095 -0.14242695 -0.33544284 0.32236034 0.24844475
0.22445469 0.057641685 -0.34417146 -0.19772658 -0.12050411 -0.35008863 0.17563768 -0.351861
0.10325718 -0.15530382 -0.07505956 -0.349182 0.42019984 0.13278861 -0.10348603 -0.40703934
0.32228914 0.38086408 -0.403445 0.21167745 -0.08936237 -0.2758734 0.2416515 -0.30399224
0.3683532 0.2216337 0.28699803 0.31837732 -0.15675575 -0.10607141 0.30346426 0.24139285
-0.32586935 0.1285846 -0.19241823 -0.0053065037 -0.21852037 -0.06865858 -0.34832478 -0.3654465
0.3205572 0.24165636 0.2063695 0.24534112 -0.15734401 -0.24664393 0.025350034 0.34061447
-0.37000394 -0.38839403 -0.25493056 -0.41941407 -0.34565574 0.26830325 0.1571572 -0.40863132
0.123289675 -0.10729125 -0.15740447 -0.069701396 -0.10939223 -0.35590214 0.35480705 -0.41338685
0.10258399 -0.010441407 -0.24755332 -0.40617117 -0.19517164 -0.38131955 0.17181623 0.19991277
0.08215541 -0.08535249 -0.19094576 0.17674738 0.33766073 0.43160743 -0.30803102 0.19907907
0.22784522 0.28947687 -0.091325484 -0.4212007 -0.24517627 -0.12104591 -0.048897926 0.0032269293
0.1145907 0.22161326 0.3253026 0.37997714 -0.40597734 0.35630268 0.13026366 -0.3150931
0.24419422 0.32176885 0.250729 -0.20599288 0.17508966 -0.30378187 -0.08745651 -0.18061374
-0.08870182 -0.113152266 -0.015141129 0.09915214 0.4083547 -0.10616563 0.42472062 0.40853682
-0.11049622 -0.39120588 -0.37889025 -0.05094954 -0.0026701079 0.18986396 -0.3763192 -0.33359012
0.30849737 0.25149566 -0.2074565 -0.38909164 -0.22589673 -0.32456818 -0.06703569 0.20125669
0.37829807 0.015886245 -0.3826897 0.1726176 0.26404107 0.26776916 -0.36786124 0.4017147
0.197201 0.21172236 -0.20921527 0.13821542 -0.3664955 -0.14060968 -0.17126931 -0.19663152
-0.3506956 -0.3809162 -0.3979499 -0.20666909 0.25535873 -0.351311 -0.2871804 -0.11057222
-0.3494122 -0.21102196 0.3118639 0.14311893 -0.0051795244 0.1120161 0.33867338 0.25769645
-0.24388899 0.06788775 0.114071034 0.33460128 -0.05127111 0.013810307 0.32203004 0.32353526
-0.16782556 -0.32600486 -0.24833442 -0.3836904 -0.29718536 -0.1702309 -0.08233499 0.2250297
0.14953884 -0.09411673 -0.19212455 -0.30832073 0.20456867 0.17926036 0.0063709533 0.21779814
00000000: 0171 dbbe 58c7 1bbd 07f0 773e ac04 423e
00000010: 5fd8 11be 2abf abbe 6a0c a53e 4d68 7e3e
00000020: 73d7 653e b019 6c3d 3e37 b0be d678 4abe
00000030: dcca f6bd d13e b3be 5dda 333e 2027 b4be
00000040: 8078 d33d f707 1fbe d4b8 99bd fcc7 b2be
00000050: 6f24 d73e bdf9 073e 7cf0 d3bd 7667 d0be
00000060: 1503 a53e 9e00 c33e 5890 cebe f9c1 583e
00000070: 9e03 b7bd 473f 8dbe 7e73 773e dfa4 9bbe
00000080: ca98 bc3e f2f3 623e 68f1 923e 5a02 a33e
00000090: 9484 20be f83b d9bd ab5f 9b3e b02f 773e
000000a0: 59d8 a6be aeab 033e 4909 45be 2ee2 adbb
000000b0: cec3 5fbe df9c 8cbd a057 b2be ce1b bbbe
000000c0: 1320 a43e c474 773e 8752 533e b43a 7b3e
000000d0: ca1e 21be 3a90 7cbe e0aa cf3c 0565 ae3e
000000e0: 2871 bdbe 95db c6be 4286 82be 71bd d6be
000000f0: caf9 b0be 0b5f 893e d1ed 203e 2038 d1be
00000100: 4c7f fc3d 84bb dbbd a32e 21be 9bbf 8ebd
00000110: 0909 e0bd ce38 b6be 45a9 b53e 71a7 d3be
00000120: 8e17 d23d 6f12 2bbc 9e7e 7dbe abf5 cfbe
00000130: 13db 47be 513c c3be 98f0 2f3e efb5 4c3e
00000140: 1841 a83d 49cd aebd 4987 43be 44fd 343e
00000150: dee1 ac3e a6fb dc3e 3eb6 9dbe 62db 4b3e
00000160: 4250 693e 5036 943e db08 bbbd 9ea7 d7be
00000170: 7d0f 7bbe ebe6 f7bd 3149 48bd e47a 533b
00000180: 87ae ea3d 96ee 623e 108e a63e 5d8c c23e
00000190: 43dc cfbe 4e6d b63e d663 053e e253 a1be
000001a0: 0d0e 7a3e e3be a43e 8d5f 803e ccef 52be
000001b0: b44a 333e 4c89 9bbe 661c b3bd cff2 38be
000001c0: 4da9 b5bd 60bc e7bd 7f12 78bc 4710 cb3d
000001d0: de13 d13e 5e6d d9bd fb74 d93e bd2b d13e
000001e0: d84b e2bd 234c c8be e7fd c1be 77b0 50bd
000001f0: fafc 2ebb b36b 423e e9ac c0be 53cc aabe
00000200: 5ef3 9d3e 0ac4 803e 7a6f 54be 0537 c7be
00000210: 7951 67be cd2d a6be 024a 89bd 3c16 4e3e
00000220: 49b0 c13e df23 823c e8ef c3be abc2 303e
00000230: 6430 873e 0a19 893e 4f58 bcbe 8dad cd3e
00000240: 0fef 493e bfcd 583e 873c 56be 5888 0d3e
00000250: 4ca5 bbbe fcfb 0fbe 3961 2fbe c659 49be
00000260: 608e b3be 7307 c3be 17c0 cbbe 10a1 53be
00000270: 61be 823e 09df b3be 4f09 93be b073 e2bd
00000280: 28e6 b2be 2416 58be a0ac 9f3e c58d 123e
00000290: 00b9 a9bb b268 e53d 9966 ad3e caf0 833e
000002a0: 09be 79be bc08 8b3d 139e e93d dc50 ab3e
000002b0: a801 52bd a044 623c 1fe1 a43e 6aa6 a53e
000002c0: 77da 2bbe 1cea a6be 614b 7ebe 1173 c4be
000002d0: ae28 98be 0251 2ebe 3f9f a8bd 306e 663e
000002e0: b620 193e 46c0 c0bd 4cbc 44be 37dc 9dbe
000002f0: 737a 513e 0790 373e 6ec3 d03b 7a06 5f3e

encoder.layers.0.self_attn.in_proj_bias f4 [24]
-0.0045638373 -0.002846539 0.00092019024 -0.002649864 -0.0030346622 -0.0021692251 -0.0025427102 0.0030214444
8.59836e-05 -9.42769e-05 -3.4628254e-05 -0.00013647767 -0.00019937857 8.5448606e-05 -0.00017226144 0.00019611117
-0.0022788662 -0.0010190894 -0.0035085634 -0.0037140218 -0.0023547965 -0.0025861238 0.0027001298 0.0004855099
00000000: 3e8c 95bb 008d 3abb ec38 713a 57a9 2dbb
00000010: 2fe1 46bb 8f29 0ebb 99a3 26bb 6d03 463b
00000020: 1852 b438 86b6 c5b8 ce3d 11b8 721b 0fb9
00000030: 4710 51b9 df32 b338 14a1 34b9 31a3 4d39
00000040: 0859 15bb f792 85ba edef 65bb f266 73bb
00000050: ee52 1abb f57b 29bb a9f4 303b 098c fe39

encoder.layers.0.self_attn.out_proj.weight f4 [8, 8]
-0.16362868 -0.25807402 0.2912486 0.33799553 -0.33632258 -0.14183271 0.13799499 -0.14674018
0.20208438 -0.2289575 0.11913908 0.075152 -0.029834427 -0.058186524 0.19109084 0.0078325
0.26664713 0.12853701 -0.14756563 0.19991599 -0.2060353 -0.22869761 -0.27296793 0.12315215
0.25478715 0.14812626 0.3308133 0.30876395 -0.04572998 0.06974119 -0.25104854 -0.1899701
-0.12675661 -0.2920065 0.2018037 0.13754582 0.17475116 0.30523622 -0.10868794 0.25864804
-0.18325974 0.01604784 0.22237164 -0.3005941 -0.15452114 0.28465047 0.31850648 0.12936929
-0.27234372 0.2965957 -0.3084722 0.15369472 -0.22997238 -0.34512344 0.25896063 -0.24811006
0.07175778 0.15572499 0.11017438 -0.2333443 0.07915674 0.07377213 0.12644252 0.33430445
00000000: 478e 27be 4722 84be 891e 953e c00d ad3e
00000010: 7932 acbe 983c 11be 8f4e 0d3e 0f43 16be
00000020: 35ef 4e3e d673 6abe 31ff f33d 4be9 993d
00000030: 5467 f4bc fe54 6ebd 51ad 433e e353 003c
00000040: f985 883e 359f 033e 721b 17be c7b6 4c3e
00000050: ebfa 52be b52f 6abe 74c2 8bbe 3237 fc3d
00000060: 7673 823e 69ae 173e 5c60 a93e 4f16 9e3e
00000070: 5c4f 3bbd 78d4 8e3d 6f89 80be 8687 42be
00000080: 7ccc 01be e081 95be a1a5 4e3e d0d8 0c3e
00000090: f8f1 323e ec47 9c3e c897 debd 846d 843e
000000a0: 71a8 3bbe c276 833c 64b5 633e 78e7 99be
000000b0: ca3a 1ebe b5bd 913e 4813 a33e 6279 043e
000000c0: a370 8bbe 64db 973e 11f0 9dbe 2662 1d3e
000000d0: e17d 6bbe 05b4 b0be 7d96 843e 9010 7ebe
000000e0: bef5 923d 5f76 1f3e 1ba3 e13d cff1 6ebe
000000f0: ee1c a23d d815 973d 267a 013e f429 ab3e

encoder.layers.0.self_attn.out_proj.bias f4 [8]
0.0018584059 0.0027149878 0.0034683426 -0.0029248262 -0.0026491724 0.0029927096 0.0028041992 0.00348656
00000000: c195 f33a f0ed 313b 224d 633b 71ae 3fbb
00000010: bd9d 2dbb 5621 443b a8c6 373b c57e 643b

encoder.layers.0.linear1.weight f4 [32, 8]
0.118041165 0.17093302 0.08683081 0.05419233 -0.2755273 -0.12119377 -0.22673848 0.29504213
-0.32282406 -0.20699893 -0.07213806 0.20442349 0.16275266 0.060554244 0.004440109 -0.034443963
-0.047387484 0.17431857 -0.15019436 0.17056745 0.05626705 -0.05903418 0.082018405 -0.27631968
-0.2775097 0.06859648 0.026804531 -0.1334922 -0.32101348 -0.32502404 0.103159055 0.2955563
-0.068003185 0.035873897 -0.038700823 0.17509027 0.19311626 -0.04041255 -0.24323143 -0.030154254
-0.095252596 0.29620528 -0.109666646 0.07048246 0.2292622 0.27242476 0.22626092 -0.14535272
-0.11542006 0.07276405 -0.18205595 0.27699673 0.31807268 -0.049455933 0.20787841 0.26885927
-0.07144924 0.3103681 0.2750711 0.01644038 -0.2639011 0.2878076 -0.05085551 0.017032806
-0.008930479 -0.2756861 -0.19686747 -0.23818079 0.12046316 0.02943523 -0.27923915 0.20635416
-0.18225291 0.21490297 -0.015892614 0.09977605 -0.19235615 0.31675246 -0.053215608 0.12265576
-0.32554904 0.3570286 -0.28380695 0.13366497 0.32030204 -0.038395528 -0.14453976 -0.013662187
-0.19514728 0.13015707 -0.3232426 -0.14464648 0.25229508 0.28820372 0.22431155 -0.22623478
-0.32609355 -0.10785434 -0.27468884 -0.2242983 0.26256025 -0.114732005 -0.28027606 -0.06941931
0.30543745 0.23646957 -0.19023381 -0.24883033 -0.21236767 -0.10339157 -0.10422368 -0.23367697
-0.34316078 -0.28263977 0.21807024 0.33431396 -0.31787047 -0.24066147 -0.17530471 0.18680811
0.040564075 -0.08905811 -0.06727217 0.2062188 0.25134727 0.07295776 0.34434175 0.09390691
-0.19592555 -0.018508041 0.1281418 0.17069136 0.14813757 0.11206004 0.29947484 0.014994769
-0.13906269 0.00048919336 0.10478534 -0.20932974 0.13957202 -0.20741054 0.04958995 0.123823784
-0.22409804 0.23605064 -0.14060386 -0.32662818 -0.113446094 0.19120824 -0.058770664 0.12420815
-0.17479287 0.30875537 -0.12923783 -0.29889372 -0.21395326 0.060625292 -0.15481965 -0.33278403
-0.040640034 0.21657889 -0.33728763 -0.0004916895 -0.0717123 0.269222 0.019424068 -0.082240246
0.29578573 0.093877204 0.33636642 0.33211824 -0.22795969 0.26248592 -0.23485452 -0.17965168
0.12493901 0.033318702 0.16609672 -0.051774338 0.2132173 -0.20492549 0.21949358 0.17440145
-0.028631764 0.3374862 -0.06399383 -0.11151157 0.29025397 -0.20343845 0.062006615 -0.33628303
-0.013841818 -0.038894683 0.010607686 -0.25422433 -0.1362606 -0.09626875 0.21329242 0.013049742
0.32235146 0.15864326 0.33522987 -0.22531761 -0.14563704 -0.039659515 -0.10058465 -0.2457232
0.2109393 0.18348558 0.05958502 -0.00074545114 0.23997751 0.10827915 -0.073917195 -0.08447057
-0.033830643 0.037215207 -0.10900813 0.09686673 -0.14124474 0.15312178 0.3022262 -0.07546747
-0.18668067 -0.29075015 0.25314984 -0.16833937 0.3197223 0.11066017 -0.19927897 0.22890818
0.07537093 0.08379445 0.04577184 0.22957048 0.22152136 0.17277387 -0.12240153 -0.12739088
0.31952766 -0.24151514 -0.20489337 -0.34880897 -0.35015973 0.24478717 0.29020238 0.08145205
-0.21827234 0.19881423 -0.06278928 -0.17481302 -0.1459265 -0.30226302 -0.011887782 -0.18205073
00000000: 91bf f13d 1109 2f3e 5ad4 b13d c7f8 5d3d
00000010: ea11 8dbe 7034 f8bd 222e 68be c30f 973e
00000020: 3249 a5be 87f7 53be 1fbd 93bd 6454 513e
00000030: a2a8 263e ba07 783d 557e 913b 1d15 0dbd
00000040: 6119 42bd 9180 323e 8dcc 19be 3ca9 2e3e
00000050: 4778 663d d3cd 71bd 44f9 a73d c679 8dbe
00000060: c015 8ebe 507c 8c3d 2d95 db3c 2eb2 08be
00000070: e15b a4be 8d69 a6be 0e45 d33d 2853 973e
00000080: 4145 8bbd 82f0 123d c184 1ebd dd4a 333e
00000090: 45c0 453e a187 25bd a911 79be 0e06 f7bc
000000a0: cb13 c3bd 38a8 973e e898 e0bd 1c59 903d
000000b0: b6c3 6a3e 427b 8b3e f1b0 673e 58d7 14be
000000c0: 5a61 ecbd 5105 953d e06c 3abe 84d2 8d3e
000000d0: 6cda a23e 4e92 4abd 14de 543e eca7 893e
000000e0: fb53 92bd 91e8 9e3e 1fd6 8c3e faad 863c
000000f0: 0c1e 87be 855b 933e de4d 50bd 6288 8b3c
00000100: 2551 12bc ba26 8dbe a097 49be aae5 73be
00000110: 64b5 f63d 2722 f13c 6ff8 8ebe 814e 533e
00000120: 82a0 3abe 860f 5c3e 3a31 82bc 6357 cc3d
00000130: 03f9 44be 612d a23e 9cf8 59bd f132 fb3d
00000140: 5dae a6be 74cc b63e 254f 91be 78df 083e
00000150: a1fe a33e a144 1dbd 3b02 14be 5ed7 5fbc
00000160: b0d4 47be e547 053e 0e80 a5be 351e 14be
00000170: d22c 813e 708f 933e edb1 653e 17aa 67be
00000180: bcf5 a6be bce2 dcbd 04a4 8cbe 74ae 65be
00000190: 4c6e 863e 9df8 eabd 5880 8fbe b62b 8ebd
000001a0: 4c62 9c3e 1425 723e a7cc 42be 61cd 7ebe
000001b0: e976 59be f6be d3bd 3a73 d5bd 0449 6fbe
000001c0: c5b2 afbe 29b6 90be ce4d 5f3e 332b ab3e
000001d0: ebbf a2be f66f 76be 1483 33be a04a 3f3e
000001e0: 8426 263d 1964 b6bd fec5 89bd 052b 533e
000001f0: 97b0 803e e16a 953d 904d b03e 4452 c03d
00000200: b5a0 48be 2d9e 97bc 9b37 033e b7c9 2e3e
00000210: 60b1 173e bc7f e53d c454 993e 9fac 753c
00000220: 7366 0ebe 363d 003a b299 d63d 895a 56be
00000230: f8eb 0e3e 6e63 54be d51e 4b3d 5397 fd3d
00000240: f579 65be 42b7 713e 75fa 0fbe cf3b a7be
00000250: 6d56 e8bd 18cc 433e 82b9 70bd d860 fe3d
00000260: e7fc 32be 2f15 9e3e ec56 04be 9908 99be
00000270: 9016 5bbe 3a52 783d 0b89 1ebe ab62 aabe
00000280: 2a76 26bd dbc6 5d3e f7b0 acbe b9e4 00ba
00000290: e6dd 92bd 77d7 893e 391f 9f3c 936d a8bd
000002a0: 3a71 973e b142 c03d 3838 ac3e 670b aa3e
000002b0: 446e 69be 8e64 863e b47d 70be 9cf6 37be
000002c0: 06e0 ff3d 3179 083d 4215 2a3e 5411 54bd
000002d0: a355 5a3e fdd7 51be edc2 603e 4b96 323e
000002e0: 298d eabc feca ac3e 320f 83bd 2e60 e4bd
000002f0: 2b9c 943e 2b52 50be a6fa 7d3d 4a2d acbe
00000300: cbc8 62bc 0850 1fbd dccb 2d3c b129 82be
00000310: e687 0bbe 8d28 c5bd 5469 5a3e 96ce 553c
00000320: 400b a53e 6173 223e 40a3 ab3e a9b9 66be
00000330: e021 15be 0472 22bd 53ff cdbd dd9e 7bbe
00000340: 7900 583e a5e3 3b3e 6c0f 743d 616a 43ba
00000350: aabc 753e 76c1 dd3d e661 97bd e8fe acbd
00000360: 0092 0abd f96e 183d a83f dfbd 1062 c63d
00000370: 76a2 10be f5cb 1c3e 64bd 9a3e b08e 9abd
00000380: 3829 3fbe 34dd 94be db9c 813e 2861 2cbe
00000390: a4b2 a33e cda1 e23d c90f 4cbe e866 6a3e
000003a0: 135c 9a3d 6d9c ab3d 417b 3b3d 8614 6b3e
000003b0: 7fd6 623e a2eb 303e a7ad fabd c172 02be
000003c0: 2199 a33e bf4f 77be 91cf 51be 1797 b2be
000003d0: 2348 b3be 7da9 7a3e 6895 943e 55d0 a63d
000003e0: c982 5fbe f595 4b3e ab97 80bd 2f02 33be
000003f0: c26d 15be 38c2 9abe f9c4 42bc 826b 3abe

encoder.layers.0.linear1.bias f4 [32]
0.19630143 -0.32002336 0.291818 -0.2783408 -0.08533649 -0.29713178 0.2544184 -0.12643784
0.07178478 0.28641358 0.056092765 0.27144638 -0.16966316 0.08534276 0.036510255 0.012088003
0.016444068 0.28297177 0.0078065745 -0.011378696 -0.15738428 0.12499281 0.083204895 0.08693891
-0.27252463 -0.06770213 0.31469342 -0.22051041 0.22718309 0.34588006 -0.24958852 -0.072146535
00000000: 3e03 493e 1ada a3be 2b69 953e af82 8ebe
00000010: e6c4 aebd a821 98be 2143 823e ec78 01be
00000020: e603 933d cda4 923e 87c1 653d 05fb 8a3e
00000030: 2ebc 2dbe 2fc8 ae3d c78b 153d c20c 463c
00000040: b6b5 863c ade1 903e 4bce ff3b b66d 3abc
00000050: 5829 21be 3bfc ff3d 5467 aa3d 070d b23d
00000060: 5988 8bbe 6aa7 8abd 7f1f a13e 7bcd 61be
00000070: afa2 683e 3117 b13e 2294 7fbe 90c1 93bd

encoder.layers.0.linear2.weight f4 [8, 32]
0.11534773 0.13235514 0.081889406 -0.17666236 0.018069772 0.13440248 -0.023713376 -0.04430868
0.07720736 -0.043180633 -0.08575298 0.053186387 0.07925262 0.10268165 0.003187719 0.12311251
0.1126315 -0.14113988 0.139382 -0.14793046 0.15934362 -0.1275542 -0.07029538 -0.06114833
0.08120233 -0.1459923 0.14308399 0.17330378 -0.0021771614 0.14880355 0.01842478 -0.09787463
0.04531108 0.1106922 0.16818433 0.17065746 -0.07175942 -0.04076481 0.17431164 -0.06045431
-0.059997104 0.007116231 -0.11846711 0.015295488 -0.15779012 -0.04635432 0.13044117 0.16213815
-0.13952659 -0.04784741 -0.170487 0.113227196 -0.04099015 0.12475518 0.060133275 -0.02543371
-0.12571879 0.17379028 -0.16713208 0.0118339835 -0.17236683 -0.03732838 0.073246226 -0.074432835
0.16637026 -0.15584846 -0.04120807 -0.031942554 0.107438326 0.068089165 0.0663436 0.13548966
0.06342518 -0.019353207 0.09208828 0.11147048 0.023050712 0.1584298 -0.16206136 -0.09121351
-0.02402944 -0.11003217 -0.07312969 -0.09790277 -0.13866524 0.025256097 -0.12724641 0.060844194
0.12539397 0.077592805 -0.09345323 -0.012828947 0.14985228 0.10723402 0.055318795 0.037947897
-0.13488242 -0.06320825 -0.015377277 0.044873796 -0.16219328 0.17404845 -0.054395873 0.13108191
0.14815044 -0.113561064 -0.12365814 0.012130363 0.15220682 -0.043452825 0.12689361 -0.14167762
-0.09533547 -0.17464617 -0.059217207 0.13283704 -0.10826061 -0.14036752 0.12512966 0.16761926
-0.0038523437 -0.04181658 0.10223036 0.07582705 0.10139573 0.11633377 0.068391375 -0.16751692
0.0784032 -0.1311344 -0.06698234 0.16373049 0.13594134 0.06820789 0.07989002 -0.1286932
0.0066646202 -0.044149794 -0.036137678 -0.034451578 0.11888898 -0.08364428 -0.11640026 0.12330007
0.073538885 -0.0012548388 -0.01238296 0.07405686 -0.057927523 0.10040554 -0.08880373 0.062165465
0.044946395 -0.1772085 -0.08309853 -0.13136883 -0.15939888 -0.017696297 0.13107197 0.03835536
0.1718479 0.00963642 -0.0637582 -0.032460764 -0.022114152 -0.10935972 0.040804543 -0.04657179
0.1518944 -0.12782143 -0.1102473 -0.1084047 0.1114619 0.1535481 -0.09389252 0.1100675
-0.13757932 0.038062096 -0.16214228 -0.08176462 -0.14224555 -0.12837912 0.11856807 -0.07505181
0.006412626 0.12597793 -0.07795195 -0.11760546 -0.1712626 -0.12121802 -0.0856085 0.11877929
-0.10151728 -0.1657616 0.14362021 -0.051721953 -0.10886584 0.14817245 -0.030378617 -0.13465683
-0.13823734 -0.08029442 -0.005376104 -0.16176872 -0.16261195 0.16128771 -0.12734243 0.00042991823
-0.16610384 0.08558609 -0.061095092 -0.091160074 -0.089145765 -0.110605225 -0.049182568 0.10745562
0.06890944 -0.16344967 -0.16963254 0.021105321 -0.17029405 -0.013821678 0.14250955 0.046381544
0.0011078607 0.09246723 0.035797186 -0.086423784 0.14322245 -0.14689913 0.0016331779 0.062159736
0.05207112 0.11648529 0.10373674 -0.11942868 -0.030728435 -0.1595054 -0.14031029 0.03448182
0.117841154 -0.088430375 0.09253631 0.12488301 -0.10461299 -0.060485475 0.08328893 0.015556721
0.02889677 -0.16577934 0.1484266 0.04850689 -0.055091828 0.058902856 -0.15737014 0.08094696
00000000: 6e3b ec3d 1b88 073e a2b5 a73d fae6 34be
00000010: 0f07 943c cea0 093e 8e42 c2bc 057d 35bd
00000020: e41e 9e3d 2dde 30bd 429f afbd f8d9 593d
00000030: 334f a23d c24a d23d 0de9 503b 6922 fc3d
00000040: 58ab e63d f986 10be 28ba 0e3e 157b 17be
00000050: f92a 233e 919d 02be 06f7 8fbd ac76 7abd
00000060: 684d a63d 017f 15be 9c84 123e 8c76 313e
00000070: b5ae 0ebb f55f 183e 90ef 963c 7e72 c8bd
00000080: 1c98 393d 98b2 e23d 8338 2c3e d4c0 2e3e
00000090: 9af6 92bd 00f9 26bd c07e 323e f09e 77bd
000000a0: 86bf 75bd 462f e93b e29e f2bd ed99 7a3c
000000b0: bc93 21be 07de 3dbd 5f92 053e 8b07 263e
000000c0: 0fe0 0ebe a5fb 43bd 2594 2ebe a9e3 e73d
000000d0: 4ae5 27bd a57f ff3d 4f4e 763d 5b5a d0bc
000000e0: 6dbc 00be 14f6 313e ac24 2bbe 53e3 413c
000000f0: ee80 30be a5e5 18bd 1e02 963d 3e70 98bd
00000100: f75c 2a3e bd96 1fbe cbc9 28bd 32d6 02bd
00000110: a008 dc3d 5572 8b3d 27df 873d cdbd 0a3e
00000120: 10e5 813d 9e8a 9ebc c898 bc3d a34a e43d
00000130: d9d4 bc3c 6c3b 223e 6af3 25be 26ce babd
00000140: 63d9 c4bc 8c58 e1bd 05c5 95bd 3f81 c8bd
00000150: 43fe 0dbe e0e5 ce3c e24c 02be c337 793d
00000160: 4767 003e fae8 9e3d 6864 bfbd 8130 52bc
00000170: e072 193e 839d db3d f695 623d 416f 1b3d
00000180: 9e1e 0abe 5473 81bd f9f0 7bbc 96cd 373d
00000190: ff15 26be c239 323e 35ce 5ebd 563a 063e
000001a0: c0b4 173e b492 e8bd 7b40 fdbd 6ebe 463c
000001b0: 1bdc 1b3e 97fb 31bd 66f0 013e f013 11be
000001c0: 3e3f c3bd 72d6 32be be8d 72bd 6f06 083e
000001d0: bdb7 ddbd 81bc 0fbe fd21 003e 62a4 2b3e
000001e0: 9a77 7cbb dd47 2bbd 275e d13d 364b 9b3d
000001f0: 91a8 cf3d 6640 ee3d c710 8c3d 8e89 2bbe
00000200: db91 a03d 1948 06be 092e 89bd f7a8 273e
00000210: 3534 0b3e 94b0 8b3d 619d a33d 26c8 03be
00000220: e362 da3b 6ad6 34bd 1a05 14bd 191d 0dbd
00000230: 117c f33d b14d abbd 4263 eebd bf84 fc3d
00000240: 8e9b 963d 6779 a4ba e6e1 4abc 1fab 973d
00000250: 6945 6dbd 6ba1 cd3d bbde b5bd 37a1 7e3d
00000260: b619 383d 2576 35be 902f aabd 8d85 06be
00000270: 7639 23be d3f7 90bc bb37 063e 831a 1d3d
00000280: e5f8 2f3e 13e2 1d3c a993 82bd 94f5 04bd
00000290: bd28 b5bc fdf7 dfbd aa22 273d 10c2 3ebd
000002a0: 358a 1b3e 9fe3 02be 56c9 e1bd 4903 debd
000002b0: 2346 e43d b73b 1d3e b94a c0bd 126b e13d
000002c0: 98e1 0cbe 00e7 1b3d a008 26be 3674 a7bd
000002d0: d1a8 11be d175 03be d1d3 f23d c3b4 99bd
000002e0: 0121 d23b 5c00 013e 46a5 9fbd 22db f0bd
000002f0: 775f 2fbe 2741 f8bd 8253 afbd 8e42 f33d
00000300: 4be8 cfbd 69bd 29be 2d11 133e 66da 53bd
00000310: 0ef5 debd 85ba 173e 94dc f8bc 7be3 09be
00000320: 178e 0dbe 6771 a4bd 072a b0bb b3a6 25be
00000330: bf83 26be 9b28 253e 0e66 02be a666 e139
00000340: 2017 2abe c347 af3d d93e 7abd 22b2 babd
00000350: 0e92 b6bd fe84 e2bd a973 49bd b111 dc3d
00000360: 6420 8d3d 5a5f 27be 27b4 2dbe 11e5 ac3c
00000370: 9061 2ebe 5274 62bc 06ee 113e 93fa 3d3d
00000380: a335 913a 765f bd3d 12a0 123d f4fe b0bd
00000390: e8a8 123e ba6c 16be 5b10 d63a 359b 7e3d
000003a0: 8748 553d d78f ee3d ee73 d43d 0697 f4bd
000003b0: 33ba fbbc 6255 23be 80ad 0fbe cf3c 0d3d
000003c0: b456 f13d fc1a b5bd ad83 bd3d aac2 ff3d
000003d0: 563f d6bd 9ebf 77bd 6393 aa3d 9ee1 7e3c
000003e0: ebb8 ec3c 0fc2 29be 25fd 173e 29af 463d
000003f0: f8a7 61bd 1f44 713d a325 21be 85c7 a53d

encoder.layers.0.linear2.bias f4 [8]
-0.14917581 0.036325164 0.10380545 -0.17006236 0.16717133 -0.07535653 -0.14292343 -0.015432558
00000000: 8bc1 18be b2c9 143d f497 d43d d424 2ebe
00000010: f62e 2b3e 8654 9abd 855a 12be d7d8 7cbc

encoder.layers.0.norm1.weight f4 [8]
1.0031276 0.9955535 0.9964912 0.9961671 0.9977857 0.99725634 1.0001111 1.0039982
00000000: 7c66 803f 98dc 7e3f 0c1a 7f3f cf04 7f3f
00000010: e26e 7f3f 314c 7f3f a403 803f 0383 803f

encoder.layers.0.norm1.bias f4 [8]
0.0014556055 0.002673693 0.0034815937 -0.0029349902 -0.0025988366 0.002919163 0.0029095681 0.003568093
00000000: 04ca be3a 2039 2f3b 732b 643b f758 40bb
00000010: 3e51 2abb 6e4f 3f3b 74ae 3e3b abd6 693b

encoder.layers.0.norm2.weight f4 [8]
1.0029262 0.9972068 0.99694484 0.9995881 0.99749607 0.99626935 0.99766874 1.004429
00000000: e35f 803f f248 7f3f c737 7f3f 01e5 7f3f
00000010: e75b 7f3f 820b 7f3f 3867 7f3f 2191 803f

encoder.layers.0.norm2.bias f4 [8]
0.0011694161 0.0026030438 0.003815099 -0.0027355219 -0.0022780285 0.003678153 0.0042225784 0.00041455583
00000000: 1847 993a d497 2a3b bd06 7a3b 7146 33bb
00000010: fa4a 15bb 2b0d 713b 8e5d 8a3b be58 d939

encoder.layers.1.self_attn.in_proj_weight f4 [24, 8]
-0.42896077 -0.03898889 0.2379837 0.18517727 -0.14425687 -0.33044857 0.3228845 0.24532613
0.22380859 0.058307756 -0.34950435 -0.19808276 -0.120314874 -0.35035557 0.1771087 -0.35254756
0.103493944 -0.1507669 -0.06611697 -0.34448946 0.42509905 0.12858674 -0.10550888 -0.39966786
0.32160252 0.38046357 -0.40891343 0.21144187 -0.088720836 -0.2761467 0.24474674 -0.30527171
0.36822343 0.22067931 0.28672442 0.31325027 -0.15455484 -0.10382998 0.30378935 0.2368616
-0.32622412 0.128774 -0.19204436 -0.0078564035 -0.2188941 -0.06469021 -0.34533536 -0.36495253
0.32026914 0.24090628 0.20537575 0.2437096 -0.15365385 -0.24385777 0.024547644 0.33747762
-0.36949652 -0.38738045 -0.25443262 -0.41355821 -0.34978068 0.26267752 0.15714423 -0.40234134
0.12274883 -0.107200004 -0.15719561 -0.06402945 -0.109177805 -0.35584432 0.35590318 -0.41343954
0.101909265 -0.005256788 -0.2465846 -0.4099393 -0.19873035 -0.38820392 0.17279784 0.19948353
0.083265364 -0.07852086 -0.19076319 0.17828277 0.33378553 0.4266045 -0.3072497 0.19624376
0.22629364 0.2886839 -0.09044646 -0.4264175 -0.24912164 -0.1273461 -0.048019443 0.0030722113
0.12091688 0.21912706 0.31862047 0.37832522 -0.40508842 0.35858345 0.1232745 -0.3158523
0.24316172 0.32232526 0.25088033 -0.20888239 0.17571287 -0.30384573 -0.08741751 -0.1793055
-0.08302087 -0.1140319 -0.018305132 0.0981895 0.41046318 -0.104984224 0.41769487 0.40829113
-0.11211545 -0.3850745 -0.3759325 -0.04986722 -0.008911096 0.18457714 -0.3703372 -0.33580813
0.30824563 0.25251645 -0.21051808 -0.3901082 -0.22567213 -0.32437584 -0.06853598 0.2016411
0.3795838 0.020202078 -0.38132367 0.17026904 0.26268855 0.2635663 -0.3733156 0.4033059
0.1969704 0.21224931 -0.21538629 0.13767402 -0.3674446 -0.13927637 -0.17149936 -0.19670464
-0.35060394 -0.38102585 -0.40478987 -0.20650795 0.25550056 -0.3507655 -0.28575435 -0.11116087
-0.34985524 -0.21065655 0.30729023 0.14182518 -0.0045691477 0.11358719 0.3366066 0.25791538
-0.24430959 0.0681698 0.1089974 0.33326247 -0.050595313 0.015247931 0.32015002 0.32334283
-0.16761874 -0.32619703 -0.2429416 -0.38298887 -0.2975232 -0.17154005 -0.08105335 0.22499536
0.14694092 -0.09451515 -0.1926445 -0.30846292 0.20487899 0.18357474 0.0020271554 0.2191722
00000000: bfa0 dbbe d0b2 1fbd 00b2 733e 1c9f 3d3e
00000010: 13b8 13be 8e30 a9be 1e51 a53e c636 7b3e
00000020: 142e 653e 1dd4 6e3d 3cf2 b2be 35d6 4abe
00000030: a567 f6bd ce61 b3be fc5b 353e 1d81 b4be
00000040: a2f4 d33d a362 1abe 5568 87bd ec60 b0be
00000050: 95a6 d93e 3eac 033e 0a15 d8bd 44a1 ccbe
00000060: 16a9 a43e 1fcc c23e 1a5d d1be 3884 583e
00000070: 45b3 b5bd 1a63 8dbe e49e 7a3e 934c 9cbe
00000080: c887 bc3e c2f9 613e 8bcd 923e 5762 a03e
00000090: a043 1ebe d0a4 d4bd 478a 9b3e d98b 723e
000000a0: d906 a7be 55dd 033e 47a7 44be 25b8 00bc
000000b0: c625 60be 4d7c 84bd cccf b0be 0fdb babe
000000c0: 51fa a33e 23b0 763e 054e 523e 028f 793e
000000d0: 6f57 1dbe dab5 79be 2418 c93c dec9 ac3e
000000e0: a62e bdbe bb56 c6be fe44 82be e7bd d3be
000000f0: 7416 b3be ab7d 863e 6bea 203e afff cdbe
00000100: bd63 fb3d ad8b dbbd e3f7 20be df21 83bd
00000110: 9d98 dfbd 3a31 b6be f138 b63e 59ae d3be
00000120: ceb5 d03d 2241 acbb ac80 7cbe 90e3 d1be
00000130: f87f 4bbe aac2 c6be ebf1 303e 6945 4c3e
00000140: 0887 aa3d 8bcf a0bd 6d57 43be c28f 363e
00000150: f0e5 aa3e e86b da3e d54f 9dbe 20f4 483e
00000160: 85b9 673e 60ce 933e fe3b b9bd 6553 dabe
00000170: be19 7fbe 0467 02be 09b0 44bd 2757 493b
00000180: 45a3 f73d d862 603e 3922 a33e d8b3 c13e
00000190: c067 cfbe 4098 b73e 5777 fc3d 65b7 a1be
000001a0: 63ff 783e d107 a53e 6373 803e 44e5 55be
000001b0: 13ee 333e ab91 9bbe f407 b3bd dc9b 37be
000001c0: d906 aabd 8f89 e9bd a5f4 95bc 9417 c93d
000001d0: 3b28 d23e f801 d7bd 1adc d53e 890b d13e
000001e0: c99c e5bd 7c28 c5be 3a7a c0be 9241 4cbd
000001f0: d8ff 11bc ca01 3d3e d69c bdbe 0bef abbe
00000200: 5fd2 9d3e d649 813e 0d92 57be 43bc c7be
00000210: 9816 67be 9714 a6be 985c 8cbd 017b 4e3e
00000220: cf58 c23e d47e a53c db3c c3be 025b 2e3e
00000230: 1d7f 863e 29f2 863e 3923 bfbe 1c7e ce3e
00000240: 9cb2 493e e257 593e 398e 5cbe 6bfa 0c3e
00000250: b321 bcbe 779e 0ebe 879d 2fbe f16c 49be
00000260: 5c82 b3be d215 c3be 9e40 cfbe d276 53be
00000270: f8d0 823e 8997 b3be 654e 92be 4fa8 e3bd
00000280: 3a20 b3be 5ab6 57be 2555 9d3e 9f3a 113e
00000290: cab8 95bb 67a0 e83d b357 ac3e 7c0d 843e
000002a0: 4b2c 7abe 9c9c 8b3d 073a df3d 61a1 aa3e
000002b0: 083d 4fbd 75d2 793c b4ea a33e 318d a53e
000002c0: 3fa4 2bbe 4c03 a7be afc5 78be 1e17 c4be
000002d0: f654 98be 32a8 2fbe 4cff a5bd 2f65 663e
000002e0: ae77 163e 2991 c1bd 9a44 45be daee 9dbe
000002f0: cccb 513e 04fb 3b3e 06da 043b ad6e 603e

encoder.layers.1.self_attn.in_proj_bias f4 [24]
-0.0043204725 -0.002022799 0.004544809 -0.0022735642 -0.0034690218 0.00049497245 -0.0022148339 0.0031151397
2.4658279e-05 -9.582777e-05 -2.655154e-05 -0.00011516636 8.977366e-06 -7.2562852e-06 1.4562795e-05 -1.8421604e-05
-0.0018408749 0.0040730005 -0.0032200594 -0.0038422912 -0.0019956902 -0.0022618123 0.0024875049 2.8940444e-06
00000000: c092 8dbb f090 04bb 9fec 943b 1400 15bb
00000010: 8758 63bb 0ac1 013a bf26 11bb 5f27 4c3b
00000020: 40d9 ce37 24f7 c8b8 ffba deb7 7885 f1b8
00000030: 7e9d 1637 047b f3b6 ba52 7437 1888 9ab7
00000040: 8349 f1ba ce76 853b a207 53bb f3ce 7bbb
00000050: 20ca 02bb ea3a 14bb 6805 233b 4e37 4236

encoder.layers.1.self_attn.out_proj.weight f4 [8, 8]
-0.16494425 -0.25803468 0.289907 0.33794132 -0.33458826 -0.14005958 0.13588047 -0.14969486
0.20213518 -0.2297812 0.119221 0.07442733 -0.02956167 -0.05771507 0.18580507 0.0015905509
0.26663962 0.12856862 -0.14759365 0.19934341 -0.20601165 -0.2286769 -0.2779079 0.11619906
0.25507358 0.14795883 0.33117154 0.30947185 -0.046245668 0.06910947 -0.24533947 -0.18417244
-0.12638298 -0.29183495 0.20214699 0.13838291 0.17399247 0.30417728 -0.10345608 0.2641165
-0.18297626 0.015888646 0.22265288 -0.30137196 -0.1547995 0.28436446 0.31393567 0.122929424
-0.27261013 0.2972405 -0.30879408 0.14972077 -0.2293526 -0.34443998 0.25330284 -0.25303933
0.07136855 0.15577964 0.109972976 -0.23274654 0.07894872 0.07491741 0.12879366 0.33459902
00000000: 25e7 28be 1f1d 84be b16e 943e a506 ad3e
00000010: 274f abbe c76b 0fbe 4024 0b3e 9c49 19be
00000020: 86fc 4e3e c34b 6bbe 242a f43d 5b6d 983d
00000030: 512b f2bc a366 6cbd af43 3e3e 087a d03a
00000040: fd84 883e 7ea7 033e ca22 17be ae20 4c3e
00000050: b8f4 52be 472a 6abe f249 8ebe c6f9 ed3d
00000060: 0199 823e 8582 173e 518f a93e 1873 9e3e
00000070: 196c 3dbd 4489 8d3d 453a 7bbe b397 3cbe
00000080: 8a6a 01be 646b 95be 9fff 4e3e 40b4 0d3e
00000090: 152b 323e 20bd 9b3e c8e0 d3bd 473a 873e
000000a0: 215e 3bbe e828 823c 1eff 633e 6d4d 9abe
000000b0: c383 1ebe 3898 913e 2dbc a03e 6cc2 fb3d
000000c0: 8e93 8bbe e82f 983e 421a 9ebe 6750 193e
000000d0: 68db 6abe 705a b0be e9b0 813e 5f8e 81be
000000e0: ad29 923d b384 1f3e 8339 e13d 1c55 6ebe
000000f0: deaf a13d 4d6e 993d 7ce2 033e 9050 ab3e

encoder.layers.1.self_attn.out_proj.bias f4 [8]
0.0007782261 0.0027380157 0.0035076682 -0.0026922585 -0.0024104924 0.003267926 0.0026842584 0.0032112482
00000000: df01 4c3a 4870 333b e8e0 653b 9a70 30bb
00000010: 5af9 1dbb b32a 563b 62ea 2f3b ce73 523b

encoder.layers.1.linear1.weight f4 [32, 8]
0.117980905 0.17080614 0.08696472 0.054375615 -0.27519563 -0.12106311 -0.22668767 0.29463777
-0.32362852 -0.20767036 -0.07534663 0.20349504 0.16372585 0.06669588 0.004759744 -0.033340964
-0.047363944 0.1740605 -0.15014581 0.1701224 0.053200804 -0.05781016 0.07880166 -0.2764511
-0.27637282 0.0689537 0.023019357 -0.13366486 -0.32144898 -0.32557067 0.10504126 0.29591617
-0.06723385 0.036344722 -0.03547706 0.17487156 0.19040197 -0.040618066 -0.2437788 -0.029268097
-0.09639134 0.29871666 -0.10873032 0.068180755 0.22367111 0.27383807 0.2261328 -0.14505339
-0.114888 0.07256176 -0.18295722 0.27704453 0.31252235 -0.048748374 0.20722057 0.2710184
-0.07186666 0.3101348 0.27593115 0.016376872 -0.26356754 0.29269472 -0.05080523 0.01921677
-0.009234903 -0.27661544 -0.19807604 -0.23862192 0.12040344 0.028539132 -0.27847964 0.20610955
-0.18239564 0.21336663 -0.015468257 0.10001524 -0.18647225 0.31096533 -0.053012524 0.122827455
-0.32154447 0.35689023 -0.28158218 0.13401347 0.32005224 -0.040461246 -0.1443738 -0.014498835
-0.19469936 0.13004342 -0.3187846 -0.1464027 0.2509139 0.2896665 0.2241013 -0.22568046
-0.32646865 -0.10773386 -0.27438438 -0.22881806 0.2623907 -0.112515874 -0.28055966 -0.0692692
0.30524123 0.23688889 -0.18945375 -0.24834457 -0.21247669 -0.10302153 -0.104130514 -0.23731138
-0.34425908 -0.28260592 0.21788216 0.3341879 -0.317841 -0.23425268 -0.17483968 0.18634294
0.040389735 -0.08867624 -0.067887515 0.20157476 0.25059992 0.07351745 0.3441787 0.09408498
-0.19703038 -0.019867688 0.12071888 0.16973253 0.15572818 0.1123247 0.29917905 0.015330427
-0.1396478 -0.00026213253 0.10492307 -0.20891783 0.13994688 -0.20649356 0.050241984 0.12449683
-0.22451712 0.23530646 -0.14702557 -0.32661027 -0.109240435 0.19284622 -0.0581928 0.1249085
-0.17465007 0.30900258 -0.13250212 -0.29958427 -0.21384208 0.06564504 -0.15555501 -0.33375236
-0.04130893 0.21658418 -0.3316221 -0.0028198725 -0.07277675 0.2705986 0.021459099 -0.08529325
0.3011617 0.09430764 0.3336126 0.32841733 -0.22813727 0.26375553 -0.23762019 -0.17841765
0.12408535 0.033245955 0.16741356 -0.052587032 0.213255 -0.20501745 0.2211699 0.17410417
-0.028359896 0.337859 -0.06408073 -0.112792745 0.29087716 -0.20278452 0.061307814 -0.342135
-0.013931876 -0.03925359 0.0057302564 -0.25399247 -0.13664551 -0.096107505 0.21216688 0.017190762
0.32209405 0.1598034 0.33759886 -0.22405191 -0.15010813 -0.039897494 -0.10065236 -0.24850157
0.21095362 0.1832379 0.05293022 -0.0021970342 0.2401838 0.113070585 -0.073312394 -0.08493599
-0.03829785 0.037817113 -0.10767998 0.10234894 -0.14362428 0.15789741 0.29781026 -0.07568255
-0.18807994 -0.2947642 0.25412837 -0.16884294 0.3188785 0.1104895 -0.19929631 0.22933006
0.07526497 0.08400862 0.038886875 0.22921915 0.22161965 0.17961223 -0.12279664 -0.12736273
0.3248126 -0.23491791 -0.2047276 -0.3492595 -0.35719264 0.2452963 0.291241 0.081312865
-0.22081377 0.1988172 -0.056322932 -0.17468731 -0.1459627 -0.30236885 -0.011435038 -0.18163782
00000000: f99f f13d cee7 2e3e 8f1a b23d f7b8 5e3d
00000010: 71e6 8cbe f0ef f7bd d020 68be c3da 963e
00000020: a3b2 a5be 8aa7 54be 554f 9abd 0161 503e
00000030: c0a7 273e d997 883d a0f7 9b3b 8990 08bd
00000040: b200 42bd ea3c 323e d3bf 19be 9134 2e3e
00000050: 16e9 593d 59ca 6cbd c462 a13d 008b 8dbe
00000060: bd80 8dbe 9937 8d3d 1793 bc3c 71df 08be
00000070: f694 a4be 33b1 a6be df1f d73d 5382 973e
00000080: e7b1 89bd 34de 143d 6550 11bd 8811 333e
00000090: bcf8 423e 215f 26bd 26a1 79be a6c3 efbc
000000a0: d368 c5bd 64f1 983e 01ae debd 5aa2 8b3d
000000b0: 0a0a 653e 8134 8c3e 5b8f 673e e088 14be
000000c0: 664a ebbd 439b 943d 2359 3bbe c8d8 8d3e
000000d0: ee02 a03e 60ac 47bd a131 543e ecc2 8a3e
000000e0: d42e 93bd fdc9 9e3e d946 8d3e ca28 863c
000000f0: 53f2 86be 15dc 953e 2519 50bd 7d6c 9d3c
00000100: fe4d 17bc 8aa0 8dbe 72d4 4abe 4e59 74be
00000110: 1496 f63d e6ca e93c e294 8ebe 620e 533e
00000120: ecc5 3abe c87c 5a3e 926e 7dbc cad4 cc3d
00000130: 95f2 3ebe d936 9f3e a923 59bd f68c fb3d
00000140: 7aa1 a4be 51ba b63e 8a2b 90be d43a 093e
00000150: e3dd a33e b1ba 25bd bad6 13be 868c 6dbc
00000160: 455f 47be 1a2a 053e bc37 a3be 97ea 15be
00000170: c977 803e 2b4f 943e d07a 653e c718 67be
00000180: e626 a7be 92a3 dcbd 1c7c 8cbe 484f 6abe
00000190: 1358 863e b96e e6bd 84a5 8fbe 03dd 8dbd
000001a0: 9448 9c3e 0093 723e 2a00 42be 0a4e 7ebe
000001b0: 7d93 59be f4fc d2bd 6142 d5bd c101 73be
000001c0: ba42 b0be b9b1 90be 801c 5f3e ad1a ab3e
000001d0: 0ebc a2be efdf 6fbe 2c09 33be afd0 3e3e
000001e0: b56f 253d e39b b5bd 9c08 8bbd 9d69 4e3e
000001f0: a24e 803e 5190 963d 3138 b03e a0af c03d
00000200: 55c2 49be 90c1 a2bc 763b f73d 5dce 2d3e
00000210: 3577 1f3e 7e0a e63d ff2d 993e 792c 7b3c
00000220: d5ff 0ebe d56e 89b9 e8e1 d63d 8eee 55be
00000230: 3c4e 0f3e 0c73 53be 8aca 4d3d 32f8 fe3d
00000240: d1e7 65be 2df4 703e df8d 16be 7639 a7be
00000250: 73b9 dfbd 7b79 453e 935b 6ebd 07d0 ff3d
00000260: 78d7 32be 9635 9e3e a3ae 07be 1c63 99be
00000270: 6bf9 5abe e870 863d d049 1fbe 97e1 aabe
00000280: 8d33 29bd 3ec8 5d3e 5fca a9be 9ccd 38bb
00000290: fa0b 95bd e68b 8a3e feca af3c 3aae aebd
000002a0: de31 9a3e 5d24 c13d 45cf aa3e 5126 a83e
000002b0: d19c 69be f70a 873e b552 73be 1eb3 36be
000002c0: 7620 fe3d e92c 083d 766e 2b3e 8065 57bd
000002d0: 855f 5a3e 18f0 51be 5d7a 623e 5d48 323e
000002e0: 0353 e8bc dbfb ac3e c23c 83bd e2ff e6bd
000002f0: daed 943e bfa6 4fbe e71d 7b3d 522c afbe
00000300: 8642 64bc 5fc8 20bd e0c4 bb3b 4d0b 82be
00000310: cdec 0bbe 03d4 c4bd 4642 593e a4d3 8c3c
00000320: 83e9 a43e 81a3 233e c2d9 ac3e dd6d 65be
00000330: f2b5 19be 8e6b 23bd d322 cebd 3277 7ebe
00000340: 3a04 583e b7a2 3b3e 5ccd 583d 1efc 0fbb
00000350: bef2 753e 8d91 e73d cf24 96bd ecf2 adbd
00000360: 35de 1cbd 1ee6 1a3d 5287 dcbd 529c d13d
00000370: 3e12 13be dcaf 213e 967a 983e 74ff 9abd
00000380: 0798 40be 55eb 96be 1d1d 823e 2ae5 2cbe
00000390: 0b44 a33e 5248 e23d 5514 4cbe 80d5 6a3e
000003a0: 8524 9a3d b60c ac3d d847 1f3d 6db8 6a3e
000003b0: 43f0 623e 45ec 373e ce7c fbbd 606b 02be
000003c0: d64d a63e 528e 70be 1da4 51be 24d2 b2be
000003d0: f4e1 b6be f42e 7b3e 8a1d 953e 5c87 a63d
000003e0: 011d 62be bc96 4b3e e0b2 66bd 3be1 32be
000003f0: 3f77 15be 17d0 9abe 075a 3bbc 44ff 39be

encoder.layers.1.linear1.bias f4 [32]
0.19622248 -0.31893924 0.29129937 -0.27777427 -0.084812075 -0.29687116 0.2542823 -0.12649204
0.07175954 0.2860905 0.055853322 0.2718671 -0.1695356 0.085131176 0.036289327 0.012284749
0.015482867 0.2828559 0.007448099 -0.010930119 -0.15809701 0.12861432 0.083131246 0.08733653
-0.27291575 -0.06801867 0.3146342 -0.21748847 0.22754034 0.34583732 -0.24829373 -0.07211408
00000000: 8cee 483e 014c a3be 3125 953e 6e38 8ebe
00000010: f4b1 adbd 7fff 97be 4a31 823e 2187 01be
00000020: aaf6 923d 747a 923e 74c6 643d 2a32 8b3e
00000030: be9a 2dbe 4159 ae3d 1ea4 143d f945 493c
00000040: daab 7d3c 7dd2 903e 2f0f f43b 3e14 33bc
00000050: 2fe4 21be 79b3 033e b740 aa3d 7fdd b23d
00000060: 9dbb 8bbe 5f4d 8bbd bc17 a13e 4cb5 5ebe
00000070: 5600 693e 9711 b13e b640 7ebe 8cb0 93bd
