models/ts_views_models/ts-v9.ckpt (torch, 328080 bytes, 201 tensors)

input_pos_embedding.weight f4 [1024, 8]
00000000: a02b 943e 604e 7cbf 93c8 0ec0 8a13 3f3f
00000010: a8e0 30bf 6b39 2c3d 1bd4 d9bf 77b7 b43e
00000020: db4f 9b3e 6d32 bcbf 1aa0 c23d 8307 8abf
00000030: 8d1a 1b3f 79ef d53e 735d 51bf 5a7e fcbf
00000040: 83de 393f e782 0a3e 940a 3abf 52a6 86bf
00000050: f8c3 f0bd 0219 a0be 3fbc 163f ca87 8dbf
00000060: 079f 1bbf 7769 d5bf 3b51 28c0 932f 993a
00000070: cc56 a23f edc8 303c 3dd9 9cbf 7f36 873f
00000080: e4fb 95be bf85 223f 85b4 0f3f 820f 0e3f
00000090: 2c5d b5bf fd0a 25be 488f 02c0 173f 40bf
000000a0: 0072 3ebf 70e0 f83e 8006 a23e 95d7 3f3e
000000b0: cb60 6a3f af8d e33e c510 be3e b2c9 843e
000000c0: 1dab 20bf 5659 a53f a77b 5a3e 4d59 893e
000000d0: 7ee1 21be 8cf5 9d3c f8e8 903f 196d 74bf
000000e0: e0c7 1f3f 081b 0ac0 5aa3 313f 8b8c e23e
000000f0: 7712 1a3d 494b 013f c5af 423f aca0 81bf
00000100: 754b 9dbf 0d02 a63f 67c0 c33e 90f8 ae3e
00000110: 924e 8ebf ee85 073f f3da d53e d302 923f
00000120: 48dc fe3f 55cc c6bc 4f58 3dbe 0993 a9bf
00000130: 98f7 6cbe 7077 d33f 0045 b8bf 3404 b23f
00000140: ee15 853f 785f a8be ac12 87bf 3c05 853f
00000150: f77a 0c3f 166a 82bd 07ce bcbe 4a47 f13e
00000160: 079f 613f f97c 2c3f 58d0 65bf 9084 bdbf
00000170: ffb7 ab3f 67dd 9ebe c103 12be 459a b9be
00000180: c7e9 c73e 7679 8b3f 04f1 c93e 6908 a23e
00000190: 00a1 1ac0 834c 573f fd4d 7bbf c10e fcbf
000001a0: d2b9 b3bf 86c2 d8bd 4665 40bf 36e4 23be
000001b0: 8164 febf a7ac ccbe 3583 333f c820 28bf
000001c0: 3825 7bbf ba80 4cbd c116 84be 6b77 ea3e
000001d0: bbb6 aa3e c788 c3bf e3cb a83f 391c f6bf
000001e0: 2288 84bf b8b3 7f3e 866c 84bf bbe8 52bf
000001f0: cf80 b9bf 90eb 0240 300b a53e 0cf7 053f
00000200: ea01 7d3d 25b8 78bf 4fed bb3e cb99 0ebf
00000210: 704c c63f f305 e23e a2fc ab3c 6391 98bf
00000220: d915 b53e d12a a9be 568a febe 6e60 a3bc
00000230: 389d 783f a01a 323f b14c f5bf d8b5 76bf
00000240: 142c 8e3f 1272 123e d26e 9c3f 473c f9bf
00000250: c7d3 573e d3a3 d4bf 2ba5 43be 3676 c13e
00000260: 317c 83bc df65 05bf 9e2a 47bf 3530 083c
00000270: 6219 6c3f 8841 883f 21c8 a13e 189b 583e
00000280: 8728 70bf d09c dabe c915 b3be 1c03 a6bf
00000290: c972 3dbf c987 12c0 8bff 8fbd 10b7 82bd
000002a0: 8071 c43f cd6d d9bf eee9 cbbe 0fe8 4b3f
000002b0: 40d2 0bc0 1195 03bf 3a25 88bf 6278 cdbf
000002c0: e33f 96be 9491 85bf b0e5 68bf d4d1 9fbf
000002d0: 32e3 f63e c512 e13e 17ef 91bf 83e9 c53d
000002e0: f4d2 6cbf 518b c43f 6a33 3c3e f8b4 1a3c
000002f0: b7e7 3ebf 0246 b7be cbe8 dcbe c26a 9c3d
00000300: cde9 b5be d1aa eabf eb2a 633f 1c4e ac3f
00000310: 7fbe a23f dece 9ebf 4c78 ea3f 50f0 65be
00000320: 6386 973f 97e7 8ebc 9d79 bc3e 08d4 fa3e
00000330: 32d9 503e ff0d 4c3f 7bd1 7bbf 04fd 4fbd
00000340: ca80 48be 675d b03f a1eb 9fbc 65d3 1e3e
00000350: 2f50 71be 88d8 85bf 8e25 993e f78f 07c0
00000360: 8918 05bf b80b ccbd f9c9 60bf 7a82 ca3e
00000370: af65 933f c591 85be 669d d03d 0c5d 35bf
00000380: e9d1 f63e 4edf 8bbf c018 cb3f 6dad 6ebe
00000390: 9f59 813e fce3 773e 37ef cb3d 59f1 19be
000003a0: 5e3c 7e3e 4a09 a7bf 18d1 c83f 2952 873f
000003b0: cf2c 67be 088e ecbe af5c ce3f 5cbd 0740
000003c0: 929f e4bf 5eaf 4d3d 0f98 6f3f 0e0e 563f
000003d0: 6828 eebe c4a0 3dbf 6812 293f c77d 34bf
000003e0: 6f90 8bbf 8bcf 943e 1c1e 42bf 2713 b0bf
000003f0: c77e c9bf 89b5 c43e af3c 933f 044f 0bc0
0.28939533 -0.9855709 -2.230992 0.7463919 -0.690928 0.042046946 -1.7017854 0.35296223
0.30334362 -1.4702889 0.09503193 -1.0783542 0.6058739 0.41784266 -0.8178322 -1.972606
0.7260515 0.13526498 -0.7267239 -1.0519507 -0.11756128 -0.3126908 0.5888099 -1.1057065
-0.6078953 -1.667281 -2.629958 0.0011687152 1.2682738 0.010790092 -1.2253796 1.0563506
-0.2929374 0.6348533 0.56134826 0.55492413 -1.4169059 -0.16117473 -2.0399952 -0.7509627
-0.743927 0.48608732 0.31645584 0.18734582 0.91553944 0.44444034 0.3712217 0.2593513
-0.627611 1.2917888 0.21336232 0.26825944 -0.15808675 0.019282125 1.1321096 -0.9547897
0.6241436 -2.1578999 0.6938988 0.4424785 0.037615266 0.505055 0.76049453 -1.0127158
-1.2288653 1.2969376 0.3823273 0.34174013 -1.1117728 0.52938735 0.41768607 1.1407112
1.9910975 -0.024267355 -0.18490718 -1.3247997 -0.23141325 1.6520824 -1.4396057 1.3907533
1.0397317 -0.32885337 -1.0552573 1.0392222 0.5487513 -0.063678905 -0.36875936 0.47124702
0.8813328 0.67378193 -0.8977103 -1.480608 1.3415526 -0.31028292 -0.14259245 -0.3625051
0.39045545 1.0896442 0.39441693 0.3164704 -2.4160767 0.8410112 -0.98165876 -1.9692003
-1.4041083 -0.105839774 -0.7515453 -0.16005024 -1.9874421 -0.39975473 0.7012208 -0.6567502
-0.98103666 -0.04992745 -0.2579861 0.45794234 0.33342537 -1.5276116 1.3187221 -1.9227363
-1.0354044 0.24970901 -1.0345619 -0.8238637 -1.4492434 2.0456276 0.32235098 0.5233009
0.061769404 -0.9715598 0.3670449 -0.5570342 1.5492077 0.44145164 0.020994488 -1.1919369
0.3536823 -0.3304048 -0.49714917 -0.019943442 0.97114897 0.69571877 -1.9164029 -0.9637122
1.1107202 0.14301327 1.222132 -1.947152 0.2107688 -1.6612495 -0.19105975 0.377855
-0.01605043 -0.5210857 -0.77799404 0.008312275 0.9222623 1.0644999 0.31598 0.21152914
-0.9381184 -0.42697763 -0.34977558 -1.2969699 -0.74003273 -2.2895377 -0.07031163 -0.06382573
1.5347137 -1.6986634 -0.39826912 0.7965097 -2.1847076 -0.5139933 -1.0636361 -1.6052363
-0.29345617 -1.0435052 -0.90975475 -1.248591 0.4822021 0.43959633 -1.140109 0.096636795
-0.9250939 1.5355016 0.18378988 0.00944256 -0.7457232 -0.357956 -0.43146357 0.0763755
-0.35529938 -1.8333379 0.8873736 1.3461337 1.2714385 -1.2406881 1.8317962 -0.22454953
1.1837887 -0.017444415 0.36811534 0.48989892 0.20395353 0.79708856 -0.98366517 -0.050778404
-0.19580379 1.3778504 -0.019521536 0.15510328 -0.23565744 -1.0456705 0.29911464 -2.118162
-0.5199056 -0.09963173 -0.87808186 0.3955267 1.1515406 -0.26087776 0.10186271 -0.70845103
0.48207024 -1.0927522 1.5866928 -0.23308344 0.25263688 0.24208063 0.09957736 -0.15033473
0.24827716 -1.304971 1.568881 1.0571948 -0.22575687 -0.4620211 1.6122035 2.1209326
-1.7861197 0.05021607 0.935914 0.83615196 -0.46515203 -0.74073434 0.6604371 -0.7050442
-1.0903453 0.29064593 -0.75827193 -1.3755845 -1.5741814 0.3841975 1.1502894 -2.1766977

target_pos_embedding.weight f4 [1024, 8]
00000000: fdd1 4fbe 8747 803f 7109 1bbe add1 3abe
00000010: efb5 963e cfb7 97be 86ef 90bf dbe6 f73e
00000020: 040d d33b a12c 4d3e b266 c73e c9da 0340
00000030: ea49 303f da54 6ebf c69a c7bf 4a15 d3be
00000040: 8438 69bf 6f26 89bf 6ab4 a13f 7c17 95bd
00000050: a7a8 fb3d 435e 51bf 51bc 593f 404a 11be
00000060: 2bd8 bc3e 826e 393f 3a93 53bf d0cc d23e
00000070: f6d6 6d3e 4db4 353f e19c 9fbf a961 78bf
00000080: fd4e e8be d2cf 94bd 1cd8 dabf 033e 8f3f
00000090: 71c9 263f 9df7 0e3d 09d9 cbbe 60e5 4cbe
000000a0: 6ad4 d0bf 2484 593f ce60 2fbd f11b 403f
000000b0: 5936 053f 4669 83bf e568 833f 45fa 0ec0
000000c0: 201a ed3d fb5f e0bf 5d59 333f b4e0 3f3f
000000d0: 0133 20bf 7115 443e f2eb cf3f 5a45 d13e
000000e0: 6db7 733f 948d 693f 2d8e b3be b3ff babe
000000f0: 9a80 853d 3c39 a4be 3b19 b0bd 6c93 0ebf
00000100: 94a1 9a3f 0885 ffbe 51ab 613f 5001 103f
00000110: 59df 763f 7601 593f 81dc 4cbf bc01 393f
00000120: 233a 3e3e fd7e ba3c ffcd 9ebf 1f98 debe
00000130: b2a6 aa3f 4378 423f d8a7 d73e 383f 46bf
00000140: c0f9 9cbf 572e bb3e 4461 503f b42e cc3f
00000150: e9fa f8be f176 1fbe ab3a f23e 1690 193f
00000160: 35f6 ed3e 9d2a 67bf 0262 133f 6699 b03c
00000170: 6e76 18bf 838c bebe a13e fcbe 400c 4bbe
00000180: 12ec 413f 8a4f a5bf 7aa1 db3c 9407 3cbe
00000190: 63b3 153f 8e13 ba3f 5f79 4a3f 8199 7e3d
000001a0: 789a a53b 69ef de3d 8098 9bbe 248f 40be
000001b0: 94bd adbf 86e7 183f 739e acbf cd6d 1140
000001c0: c7bf 873e 9087 c3be ed0e a1be b11b 223f
000001d0: b8b9 ccbf f16b f23e 93a3 1dbf 6cf0 b23f
000001e0: 2c60 46be 3077 4e3f 1a27 543e 1ace 93bf
000001f0: 6eed 82be 4087 bebf 3869 e83f b917 14be
00000200: 83e6 b03e 4eb0 59bc 62fb 0c3f fba7 80bf
00000210: 7a15 52be d3dc 463f 67d6 25bf 096f 08bf
00000220: 15c1 683e 08ce c2bf 0ac6 77bf c132 4ebd
00000230: f78f 05c0 e325 863f 587f 03bf 6cc8 593f
00000240: 90ac 753f 3bd2 af3f cf92 0040 e0ba 42bf
00000250: 9f37 bdbe f97e cd3d ba60 8bbf f8fd 04c0
00000260: 4787 32bf 8bc3 39bf 1660 b6be 1dce 6dbf
00000270: 7eb0 20c0 69a9 82bf 1bce 333f 4835 dabd
00000280: 49ea 03bf 8755 b83f 6d63 cc3d 2eb9 ae3e
00000290: 16af 313e a712 e1be f6e9 613f 3adf 9abf
000002a0: b33e 7dbd 2e6a 0240 5ff6 4dbe 1f7d 16bf
000002b0: 474d 8b3f 6fcd 5fbd f05e c73f 962d 963f
000002c0: 8a06 77bf 80d2 553f d4f1 13bf 2713 343e
000002d0: 3fc8 9d3f 0894 863f 2a7b 483e 81c4 493e
000002e0: 3d8a 78bf 7c9d 02bf c1b5 623f df25 903f
000002f0: d0e2 d03f cae9 f8be 4450 043e 03b7 853e
00000300: 0110 da3f 772d 563f f0ce 97bf 8543 1b3e
00000310: 4321 fb3f 1df8 a0bf 37f8 d3be 73b7 85bf
00000320: 8643 59bf 2c2a e83f 446b fcbf 6a3f a0be
00000330: d820 d2bf 1154 4d3f 7767 0e3f bd39 08bf
00000340: 16e6 45bf 4233 0ebf cd0b 9b3f fe59 dcbe
00000350: 7239 1c3f b40f 2bbd 5b20 90bf 844c a2bf
00000360: 25fc dabe 5508 81bd 7f03 8ebf 94a5 32bf
00000370: 2161 d93d 0cd2 ccbe f7e3 8b3f 9c3c dc3d
00000380: 6556 b73f ad48 c93e f8c3 e7be 5b3b e83f
00000390: 677f 433f 35f2 093f 72c0 093e 1d64 e43e
000003a0: aa74 9abf b7c0 42be 52ae 373d 3269 3cbf
000003b0: bb47 c7bf 26e7 b7bf d1bd e73f 9c71 aa3f
000003c0: a43f 0dc0 4fbd 72bf 5854 5c3e fdc3 cebe
000003d0: 1247 e93d 6af9 62bf 6f6f c2bf d39d 103f
000003e0: 93d0 343f 8aee acbf 3c9b d7be 1eb3 9dbf
000003f0: bb32 89bf 6379 223f 5229 f2bf a531 8a3e
-0.20294948 1.0021828 -0.1514032 -0.18244047 0.2943568 -0.29632422 -1.1323097 0.48418316
0.0064407606 0.20036556 0.38945538 2.0602286 0.68862784 -0.93098223 -1.5594108 -0.4122718
-0.9110186 -1.0714854 1.2633183 -0.0727987 0.12288027 -0.81784457 0.85052973 -0.1418848
0.36883673 0.72434247 -0.82646525 0.41171885 0.23226532 0.7097824 -1.2469751 -0.9702402
-0.45372763 -0.07266201 -1.7097201 1.11908 0.65151125 0.03490411 -0.39814022 -0.20009375
-1.6314824 0.84967256 -0.04281693 0.75042635 0.5203605 -1.0266502 1.0266386 -2.2340252
0.115772486 -1.7529291 0.7005823 0.74952245 -0.62577826 0.19148804 1.624388 0.40873224
0.9520176 0.91231656 -0.3506941 -0.36523208 0.065186694 -0.32074916 -0.08598562 -0.556937
1.208056 -0.49906182 0.88152033 0.56252 0.9643455 0.84767854 -0.8002396 0.7226827
0.18576865 0.02276563 -1.2406615 -0.43475434 1.3332121 0.75964755 0.42120242 -0.77440214
-1.2263718 0.36558792 0.81398416 1.5951753 -0.4862893 -0.15572716 0.47310385 0.5998548
0.46476904 -0.902994 0.57571423 0.021557521 -0.5955571 -0.37216577 -0.49266532 -0.19828892
0.7575084 -1.2914898 0.026810396 -0.18362266 0.5847685 1.4537218 0.7909145 0.06215811
0.0050538145 0.108855076 -0.30389786 -0.18804604 -1.357348 0.59728277 -1.3485855 2.2723267
0.26513502 -0.38189363 -0.314567 0.63323504 -1.5994177 0.47347978 -0.6157772 1.3979621
-0.19372624 0.80650616 0.20718041 -1.1547272 -0.2557177 -1.4885025 1.815711 -0.14462174
0.34550866 -0.013286663 0.5507108 -1.0051264 -0.20516005 0.776807 -0.64780277 -0.53294426
0.22729905 -1.5219126 -0.9678656 -0.05034137 -2.086912 1.0480312 -0.51366186 0.85071445
0.95966434 1.3736032 2.0089605 -0.760664 -0.36956498 0.10033984 -1.0888894 -2.078001
-0.69737667 -0.72564 -0.35620183 -0.9289263 -2.5107722 -1.020795 0.70236367 -0.10654694
-0.51529366 1.4401101 0.099799015 0.34125656 0.17351946 -0.43959543 0.8824762 -1.2099373
-0.061827373 2.0377307 -0.20113514 -0.5878467 1.0882958 -0.054639276 1.5575848 1.1732662
-0.9649435 0.8352432 -0.57790875 0.17585431 1.2326735 1.0513926 0.19578233 0.19703867
-0.97085935 -0.5102155 0.88558584 1.1261557 1.6319218 -0.48615867 0.12921244 0.2611619
1.7036134 0.83663124 -1.1860027 0.15162475 1.9619526 -1.2575718 -0.4140031 -1.0446609
-0.8486866 1.813787 -1.9720235 -0.3129838 -1.6416273 0.802064 0.55626625 -0.532131
-0.7730421 -0.55546963 1.2112976 -0.4303741 0.61025155 -0.041763023 -1.1259874 -1.2679601
-0.42770496 -0.06300417 -1.1094817 -0.697839 0.10614229 -0.40004003 1.0928944 0.10753748
1.432324 0.3931326 -0.452667 1.8143114 0.76366276 0.53885204 0.13452318 0.4460763
-1.2066853 -0.19018827 0.04484398 -0.73598015 -1.5568765 -1.4367416 1.8104802 1.3315921
-2.2070093 -0.9482011 0.2151655 -0.40383902 0.11390509 -0.88661826 -1.5190257 0.5649082
0.7063076 -1.3510296 -0.42110622 -1.2320287 -1.0718607 0.6346647 -1.891886 0.26991

encoder.layers.0.self_attn.in_proj_weight f4 [24, 8]
00000000: fc88 b53e e2fa d3bd 6166 a83e cfae d5be
00000010: d0a0 c5be 1208 6a3e c99f 4e3e 1b8c ad3e
00000020: 29f2 13be aff2 99bd 210b c0be 86bc ddbd
00000030: 2afa 1f3e 0c68 7a3d 07f1 ffbd 9e88 903c
00000040: 8570 a7be 8ba4 a03e ea04 563e c1c0 513d
00000050: ef0e 673e 9b96 003e 9d3d ba3e ac6d da3d
00000060: 51ad bdbd d2f6 1abe aad5 253d be7b 6dbe
00000070: 46e1 77bd be27 99be 1f3b cebd 40aa 233e
00000080: 4bba 083d 77b6 a4be d22d 3fbe a2ea 663e
00000090: 36c8 06be d44a b3be 81a4 47be 2552 ae3e
000000a0: 5def 813e b9c1 86be da96 c53e 1eea 893d
000000b0: afb4 09be 3595 6cbe 1d1c 373e 4c5d c1be
000000c0: 73a1 483e f284 83be 00a5 21be c125 9bbe
000000d0: 04da 9fbe 5a08 0c3d 0207 8c3e 6995 85be
000000e0: 2e70 44be fdba 54be cdff b33d 4b72 aa3c
000000f0: 0737 abbe c668 7f3d e0a5 c6bd 0588 15be
00000100: b374 76be 434c 063e 0360 abbe 2245 43bc
00000110: 3116 813d de42 5fbc 228c 6cbe 4e03 fa3d
00000120: 49ad d6be 724d 42be 5a89 d8be 2e19 3a3e
00000130: 5ba0 aebe e5ea 96be 6998 bf3d 7bb0 a1bd
00000140: 65a3 adbe 3e68 7e3e 2b68 2bbe d040 6ebe
00000150: 7ead 55be c87b ccbd fff0 e43d 4376 c1be
00000160: ba81 f83d a80c f4bd 5119 21b9 a2a2 dbbe
00000170: 7185 a63e 73a4 dbbd ea9b 21bd 2ae5 a9be
00000180: 1fb4 d63e 7c1e 19be 6177 a0bd 2b2b c6bd
00000190: 130e ae3e f9bd 8c3e f492 443e 6620 b8bd
000001a0: 235e dcbe 7ede 2fbe deb2 c8be facf d9be
000001b0: 94b9 afbe a385 383e d3ad 6fbd a0c6 89be
000001c0: 16c8 d4be ef60 63be ad4f c8bd ede1 cc3c
000001d0: 620a 8f3e 86a0 35be 2747 c03c fbb7 763d
000001e0: 96cc d93d c5ad 90be 3fc0 4bbe 74d2 8b3e
000001f0: 6b48 4ebd e4e4 493e 0519 b93c 69bd b63e
00000200: 2eac b73e 0c8f 003e 1213 133d 3f9b 073b
00000210: 30d7 26be e922 7d3e df52 1fbe f23e a4be
00000220: 1e34 963e 663b 293e f1d5 b63e 707f 7bbe
00000230: 7d1b 253c 8e4d 743e 254a c1be 0536 be3d
00000240: f759 a83e 957c 943e 53bf 813d f037 8abe
00000250: fc9c 8fbe 12a6 6ebd 15bd d6be 71ef ff3d
00000260: 6e52 7f3d 96ad c6bd d2e0 fdbc ee35 11be
00000270: 057e 923d e011 093e 1a2e 97be 118d 803e
00000280: 0a9f 9f3b f20e 5d3d 2a9e 4b3c 737c a7be
00000290: f0c6 08be 3d35 7bbe 2bd9 56be eaff 003e
000002a0: d7c6 5f3e 6a93 0c3e 6e6b 29bd 4959 b03e
000002b0: 8a12 353e 5750 bd3e 007c d33d b37c 0abe
000002c0: 7d19 213e 0536 1bbe d0e9 cf3e 4b20 1e3d
000002d0: a58d 9abe a88e 293e 12a4 563d 6b49 0cbe
000002e0: 6f2c b23e 443e 623e 1b2f e23c 7d39 e33d
000002f0: ce87 c9be 391d 99bc 0c54 4dbe 2a30 963d
0.35456073 -0.103505865 0.3289061 -0.4173493 -0.38599253 0.22854641 0.2017814 0.33895954
-0.14447846 -0.07516991 -0.3750849 -0.108269736 0.15622774 0.061134383 -0.12497144 0.01764327
-0.32703033 0.31375536 0.20900312 0.051209215 0.2256429 0.12557451 0.36375132 0.106654495
-0.09261573 -0.15133217 0.04048697 -0.23191735 -0.060517572 -0.29913133 -0.1006987 0.15982914
0.033380788 -0.3217046 -0.18669823 0.22550443 -0.13162312 -0.35018027 -0.19496347 0.34047046
0.25377932 -0.26319674 0.38591653 0.067341074 -0.13447832 -0.23103793 0.17881818 -0.37766492
0.19592838 -0.25687367 -0.15785599 -0.3030224 -0.3122102 0.034187652 0.27349097 -0.26090553
-0.19183418 -0.20774455 0.087890245 0.020806452 -0.3344042 0.06235578 -0.09699607 -0.14602669
-0.24067955 0.13115029 -0.3347169 -0.011918338 0.06303061 -0.013626782 -0.23100331 0.122076616
-0.4192908 -0.18974856 -0.4229229 0.18173668 -0.34106717 -0.29476085 0.09355242 -0.07894989
-0.33913723 0.24844453 -0.16738956 -0.23266912 -0.20866963 -0.09984547 0.11178779 -0.3778554
0.121341184 -0.119164765 -0.00015363588 -0.42897516 0.32523683 -0.107247256 -0.03945533 -0.3318265
0.41934296 -0.14953035 -0.0783527 -0.096762024 0.33995113 0.27488688 0.19196683 -0.089905545
-0.4304057 -0.17174718 -0.39198965 -0.42541486 -0.34321272 0.18019728 -0.05851538 -0.2690935
-0.41558903 -0.22204946 -0.09780822 0.025010074 0.2793761 -0.17737016 0.023471428 0.06023405
0.10634725 -0.28257576 -0.19897555 0.27309 -0.050362032 0.19716221 0.022594938 0.35691383
0.3587355 0.12554568 0.03590686 0.00206919 -0.16293025 0.24720348 -0.15558957 -0.32079273
0.29336637 0.16526565 0.357101 -0.24560332 0.0100773545 0.2385771 -0.3775188 0.09287647
0.32881138 0.290013 0.0633532 -0.26995802 -0.28049457 -0.058263846 -0.41941133 0.12496842
0.06233447 -0.09701078 -0.030990992 -0.14180729 0.071529426 0.13385725 -0.2952736 0.25107625
0.004871254 0.05396933 0.012427846 -0.32712135 -0.13357139 -0.24532028 -0.2098128 0.12597623
0.21853195 0.13728109 -0.04136222 0.3444312 0.17682853 0.36975357 0.103263855 -0.13524131
0.1573238 -0.15157326 0.40608072 0.038605016 -0.3018619 0.16558325 0.052402563 -0.13699882
0.34799525 0.22094065 0.027610352 0.110949494 -0.39361423 -0.018690692 -0.20051593 0.07333405

encoder.layers.0.self_attn.in_proj_bias f4 [24]
00000000: 0726 56bb 3b0e d9ba 7ed3 d7ba a7bb 3a3b
00000010: 3a7c 503a c7ba 843a 89b6 553a 1649 87ba
00000020: 9656 4e37 a82d f836 72c9 3635 ad7c 6535
00000030: b8f6 b837 5205 0138 5e38 64b7 5fe1 c5b2
00000040: b073 143b 0c7c 3b3b e9a7 5bbb 00db c43a
00000050: b6eb b83a feea ca3a 5d0a 32bb 58e6 4bba
-0.0032676475 -0.0016560027 -0.0016466228 0.0028493197 0.00079530815 0.0010126465 0.0008152505 -0.0010321464
1.2298717e-05 7.396291e-06 6.8093425e-07 8.5490575e-07 2.2049397e-05 3.076095e-05 -1.3602983e-05 -2.3036305e-08
0.0022651963 0.0028607873 -0.003351683 0.001501888 0.0014108333 0.001548141 -0.0027166822 -0.00077781593

encoder.layers.0.self_attn.out_proj.weight f4 [8, 8]
00000000: 9a0b b5bd 2b02 973d bb94 a43e ea6a 973e
00000010: df17 543e e990 9bbe f2b3 b2bd a609 69be
00000020: 4336 313e 15ae 9f3e e9c8 da3d 2f3e d7bd
00000030: cd86 063d 8f9d a6bd 8d18 a03e 0225 19be
00000040: 9ce7 783e 4069 b23e 27d0 113e 1323 213e
00000050: 716e 47be 0587 313e c372 fe3d 64dd 30be
00000060: c352 8fbe e61e 9d3e b082 d53d 4854 56be
00000070: 156a bfbd f60a 623e c9f3 d43d 1000 a63e
00000080: ce11 993e c550 f43d 82af 363e 3e10 75be
00000090: 0d36 0cbe 1d43 33be c6b6 7f3e 334b 9e3d
000000a0: 0486 443e 61a2 8a3e 4ea9 9bbe 4575 563e
000000b0: 9e6c abbe bebf 2bbc b00e 57be 21bb 333e
000000c0: f700 323d c134 b13e 4278 70be 5a3b b93d
000000d0: 4629 663c 8cd8 4fbe 6c92 02be cf0d 20be
000000e0: 16c3 bd3d fa0d 4f3e ccd7 ac3e c496 46be
000000f0: f137 a2be e1b7 08be 7408 343e 36ed 05be
-0.088401034 0.073734604 0.32144722 0.29573756 0.20712231 -0.30383995 -0.08725728 -0.22757587
0.17305855 0.31187502 0.10682852 -0.105099075 0.0328434 -0.08135521 0.3126873 -0.14955524
0.24307102 0.34845924 0.1423956 0.15736036 -0.19475724 0.17336662 0.12424233 -0.17271954
-0.2799283 0.30687636 0.10425317 -0.20930588 -0.093464054 0.22074494 0.10398061 0.32421923
0.29896396 0.11929468 0.17840388 -0.23931977 -0.13692494 -0.1750607 0.24972066 0.07729187
0.19191748 0.2707701 -0.30402607 0.20943172 -0.33481306 -0.010482727 -0.21001697 0.17551853
0.04345795 0.3461056 -0.23483375 0.090445235 0.014047926 -0.2029745 -0.12751168 -0.15630268
0.09265725 0.20220175 0.3375839 -0.1939345 -0.31683305 -0.13351394 0.1758135 -0.1307877

encoder.layers.0.self_attn.out_proj.bias f4 [8]
00000000: 3823 11bb 0654 13bb 9e27 1f3b fe23 a4ba
00000010: fa7f 5f3b 577e 8dba eb8a 363b 4c3d 33bb
-0.0022146236 -0.0022480502 0.0024285088 -0.0012522934 0.003410338 -0.0010795098 0.0027853798 -0.0027349768

encoder.layers.0.linear1.weight f4 [32, 8]
00000000: 53c5 0e3e ace1 4dbe 2f8c 27be 4683 82be
00000010: e32f 3abe 981b abbc 3c2f 6a3d ab18 afbe
00000020: e0e3 bd3d d99e 53bc eea6 e8bc 6587 07bd
00000030: 4a2d 3f3e 3ca3 9d3e a366 3b3e ee8d a63e
00000040: a460 d7bd 27e2 983d 12bf 843e 584a b13e
00000050: ff8a 58be e9cf b23e a264 a43d bf01 6ebe
00000060: bfda 3b3e 55bd ddbd d240 843e 466a c83d
00000070: 012a 893d b4b6 68bc e10b 3b3e 09b1 46be
00000080: b83b 60be c687 a7be ffaa a43d a349 a33e
00000090: fab3 4b3e 3718 7a3e 2c5c ca3d 8e73 9cbd
000000a0: de70 973e aeed 993e e35c 1d3e 9701 32be
000000b0: 1a4a a43d 4270 b23e 1463 813e 9300 90bd
000000c0: fdf0 983e 1209 373e 9613 653e a91c 0fbe
000000d0: 284b 0bbe 1232 193d 0702 8b3d 7cce 87bc
000000e0: ee2f 473e c896 6c3e 61a6 893e 1829 47be
000000f0: 4879 6abd 0433 56be d75a 22bd a5f3 95be
00000100: 7ddd 613e 4075 143e d579 7ebe 6f53 a7be
00000110: 43fa 973e f7af 873e f0b9 443e 9cec 2ebe
00000120: dfae 8e3d eb4b 84bd 8e6b de3d e8d1 abbe
00000130: 429f 59be 980a a6be 406a aabd aef7 a63e
00000140: dbb9 aa3c fde9 cb3d 0d73 e93d b766 5ebe
00000150: edbb 05be d74f 823e a128 dd3d 2a87 59be
00000160: 41a8 87bd 3be0 83be a4f1 ad3e 0648 9d3e
00000170: e5c9 9dbe 0fe2 33be 0b7e 93be bc3b 95be
00000180: 8904 ddbd a45f 79be 75b9 90bc 225c a53e
00000190: 7d6e 673e 05a9 053c feed 503e f78f 403e
000001a0: 509c 26be 6e0b 0bbd 371f 8d3e 2d94 a5be
000001b0: b847 94be 8f9f 93bd 643a 5a3e 0ea1 7b3e
000001c0: a556 99be 37df 1ebe 47dc 8fbe 6b67 443d
000001d0: 55d4 193e be67 1dbe 3ee2 3b3e 9409 3abe
000001e0: 7519 1bbe 5661 eebd d70d a63e a89c 2cbc
000001f0: b44d 0bbe 9231 da3d befc b4be 52b9 923e
00000200: 5593 abbe 5172 923d ef18 ecbd 9ab6 84be
00000210: 847f 3a3e a62f c8bd ec44 b3be facc 893d
00000220: b5a4 97be 188d e4bc 6136 923c 965f ab3d
00000230: b6a7 b43d 808b 313e 5788 123e 1d4c 103e
00000240: 74c4 5dbe fc3f 2e3e 6fb7 89bd d16d 083e
00000250: 340c 84bd 2500 e93d 5fc5 443e 89ee 853d
00000260: 9178 bebc 98f7 08be 7ae6 2b3e ae21 a93e
00000270: ea81 13be 6d0d 913d d3a0 933e 3e06 b33e
00000280: 4fd4 c9bd 7d49 7d3e a479 363e b1c7 9b3e
00000290: cbf7 a83b d8fa 92be 8f34 5abe d465 e83d
000002a0: 2a44 41be 3a56 8dbe 7b0d 533e 5985 97be
000002b0: bd27 94bd 18f7 ef3d 74b9 963e 6922 463e
000002c0: e330 e53d e309 43be 8eff 243e 1b0d 953d
000002d0: c523 d4bd 6951 0ebe 2307 863e 4f90 5a3c
000002e0: b6ab 953e 2a16 ae3e 00eb 2cbe 8035 353e
000002f0: a9f4 163e 9b54 943c 9de6 5a3d 71af 8fbe
00000300: 3aa3 bb3d 0cdf 8b3e 9034 0e3e b62c 24be
00000310: 699a f4bd a046 a43d fd98 84be a951 6cbe
00000320: a11b a53e ef0c 7dbe b4de a23e 800e 913e
00000330: 0fd6 9fbe 6092 9c3c c5c0 5bbc 945d 62be
00000340: af74 2ebc e741 50be 00bd 7dbe 8853 923e
00000350: 1c11 553e 46f9 25be 2c39 5d3e 8b4e 50be
00000360: 62e1 91be 8c92 483e 76f5 92be 9662 f63c
00000370: 52e3 a43e 650d 9cbe bcae a23d db94 6f3d
00000380: 120f 8d3e ca14 36be c863 103e ec42 803e
00000390: f34f c6bd d49c 6a3d 202e 8e3e d560 1e3d
000003a0: 43ab b0be 4210 14be d97e 8d3e c29e 163e
000003b0: 08de 82be 553f 813e 08a7 933e 39b2 663d
000003c0: a7c7 103e 3ab1 25be 871f 88be 2249 96be
000003d0: 769c c8bd 5426 093d 3e81 82be b8a0 273e
000003e0: 6cbf 56bd 73f1 393e 3317 903d 2ffe d3bc
000003f0: b41d 4fbe 4149 333e 95f2 16be 657a 8bbe
0.1394246 -0.20105618 -0.1636207 -0.2549078 -0.1818233 -0.020887181 0.057173952 -0.34198508
0.09271979 -0.01291629 -0.02839991 -0.033088107 0.1866962 0.307886 0.18300872 0.3253016
-0.105164796 0.0746501 0.25927025 0.34627032 -0.21146773 0.34924248 0.08027007 -0.23242854
0.18345164 -0.10827128 0.25830704 0.09785895 0.06697465 -0.014203716 0.1826625 -0.19403471
-0.21897781 -0.32720774 0.080404274 0.31892118 0.19892874 0.244233 0.09880862 -0.07639228
0.29578298 0.30064148 0.15367465 -0.17383419 0.08021946 0.3485127 0.25270903 -0.070313595
0.2987136 0.17874554 0.22370753 -0.13975777 -0.13602889 0.037401266 0.06787496 -0.016577952
0.19451877 0.23104393 0.2688475 -0.1944927 -0.05724457 -0.20917898 -0.039637413 -0.2928745
0.22057147 0.14497852 -0.24851163 -0.32680842 0.29683122 0.26501438 0.19211555 -0.17082447
0.06966948 -0.06459793 0.10860358 -0.33558583 -0.21252158 -0.32429957 -0.08321047 0.3261084
0.020840576 0.09956739 0.11398897 -0.2171887 -0.13059969 0.25451538 0.10798765 -0.21242967
-0.06623889 -0.25757012 0.3397342 0.30719012 -0.30818096 -0.17566703 -0.288071 -0.29147136
-0.10791881 -0.2435289 -0.017666558 0.32296854 0.22600742 0.008157973 0.20403287 0.18804918
-0.16270566 -0.033946447 0.27562878 -0.32339612 -0.28960967 -0.07208168 0.21311337 0.24573156
-0.29948917 -0.15514837 -0.28097746 0.04795019 0.15022404 -0.15371606 0.18348023 -0.18167716
-0.1514643 -0.11639659 0.32432434 -0.010535397 -0.1360386 0.10653986 -0.35349077 0.28657013
-0.33510843 0.071507104 -0.11528193 -0.25920564 0.18212706 -0.09774713 -0.3501352 0.06728549
-0.2961785 -0.02789931 0.017848196 0.08367841 0.08821051 0.17338371 0.14309822 0.14091535
-0.21656972 0.17016596 -0.0672444 0.13323142 -0.0644764 0.11376981 0.19215916 0.065396376
-0.02325085 -0.133757 0.16787139 0.33033508 -0.14405027 0.07082639 0.28833637 0.349657
-0.09854948 0.24735065 0.1781984 0.3042579 0.0051564923 -0.28707004 -0.21309112 0.11347547
-0.18873659 -0.27604848 0.20610611 -0.29593924 -0.07234142 0.11717051 0.29438365 0.19349064
0.11190965 -0.1904674 0.16113111 0.0727789 -0.10358385 -0.13898243 0.2617732 0.01334007
0.29232568 0.34001285 -0.1688652 0.1769619 0.14741768 0.01810675 0.053442586 -0.2806354
0.09161992 0.2731861 0.13887239 -0.16032681 -0.11943514 0.08021283 -0.2589797 -0.23078026
0.32247642 -0.24711965 0.31810534 0.28331375 -0.31218 0.019112766 -0.013412659 -0.2210601
-0.010647937 -0.2033764 -0.24779129 0.28579354 0.20807308 -0.16208372 0.2160384 -0.20342462
-0.28492266 0.19587153 -0.28702897 0.030076306 0.32204682 -0.3047897 0.07943484 0.05849157
0.2755056 -0.17781368 0.14100564 0.25051057 -0.09683218 0.05727847 0.27769566 0.038666565
-0.34505662 -0.14459327 0.2763584 0.14708999 -0.2556002 0.2524363 0.28838372 0.05632231
0.14138661 -0.16180888 -0.26586553 -0.2935267 -0.097954676 0.03348382 -0.2548923 0.16369903
-0.052428648 0.18158512 0.07035675 -0.02587804 -0.20226175 0.17508413 -0.14740975 -0.27241817

encoder.layers.0.linear1.bias f4 [32]
00000000: 1bf4 c0bd 78ff 433b 3126 96be e4a3 913e
00000010: 9fcf 3a3e 76fc 2fbe b167 1e3e 118b 873e
00000020: e3af d53d c36e 5f3e 20c0 013e 3934 9c3e
00000030: b55e 0f3e 37e0 9abe a294 b03e ebeb 763d
00000040: 8980 43be 3d1e 5c3e 1070 51be c3a1 5f3d
00000050: c9f2 49bb 449b 213d 6b96 b23c 90e5 713e
00000060: bdc5 19bd 019a 8bbe 309c 9d3e 60ea 133e
00000070: e364 a13e 0cf8 303d f3b5 97be f902 8f3e
-0.094215594 0.002990691 -0.29326013 0.2844535 0.18243264 -0.1718615 0.15469243 0.26473287
0.10433938 0.21819596 0.12670946 0.30508593 0.14000972 -0.30249187 0.34488398 0.060283583
-0.19092001 0.2149591 -0.20452905 0.054597627 -0.0030814877 0.039454713 0.02180024 0.23622727
-0.037542094 -0.27265933 0.30783224 0.14444876 0.31522283 0.043205306 -0.29631004 0.27931955

encoder.layers.0.linear2.weight f4 [8, 32]
00000000: 9254 49bc c348 1c3e 7eef 3dbd 90a6 17bd
00000010: 4f24 283d 0f88 bf3d 6ead 083d e111 c1bc
00000020: 71f6 e63c 772a 123e d10a d5bd 55c4 b33b
00000030: dbaf 2cbd 3c6d f03d 7fb0 71bc fdcd c1bd
00000040: ff42 64bc bcdb 1abd 98d1 db3d 057c e3bd
00000050: 062e ff3d a529 46bd a228 1bbe 9878 d43c
00000060: 0734 efbd 77cd 90bd a711 9dbd 0c50 f7bd
00000070: 491b 72bc 744e cf3d 317c 03be cdeb 5b3d
00000080: 98ae 8bbd 813b ca3d 21a7 dc3d 9fc7 893d
00000090: 7d8d adbd e5fa 2a3e 9b8c 05be 387f 523d
000000a0: 8386 c63c 2775 c1bd 05d8 87bd 73d0 98bc
000000b0: 19e1 28be 6a73 3e3c 3589 fd3d bc30 cbbd
000000c0: 840f f2bd 9ffe 93bd fae0 283d fe93 92bd
000000d0: debd d33d 39bd c03c 1379 db3d d502 06bd
000000e0: 8b6a 003e c08f 663d 2757 91bd 04d6 b9bd
000000f0: 677a a83d 57b8 cbbd 33f2 0bbd 8b91 1d3e
00000100: fc16 15bd d669 203e f1a0 1bbe 7efd 683d
00000110: 901d 0b3e 4ee9 143e c250 2abd 3f5e 213e
00000120: 2685 ab3a baaa 76bd e91f ee3d 54d5 c13d
00000130: cf07 b13d 7b59 9fbd be8b da3d c70c 08be
00000140: f353 52bd 1d0b 2bbe 1513 0ebd e30b d73d
00000150: 9736 38bd 2bf3 16be 66a7 00be d161 a0bd
00000160: 3d7d a23d 27cd 4b3d ac83 74bb 477a ce3d
00000170: 0527 56bd 848d 5a3d de53 7e3d 4e25 b6bc
00000180: c900 813b 548e 0d3e d7e4 1f3e 6e52 033e
00000190: f9c0 ea3d f554 58bd ba84 2abe f2d1 5e3b
000001a0: aac3 2cbd f8a9 723d ae41 513d fab6 a93d
000001b0: c63e b03d 281f f43d 2c72 a83d 3433 d33d
000001c0: bbad 123e 30f0 19be 23b6 0bbd 67c5 1e3e
000001d0: f95b ad3c 3027 2ebe 0abf b03d 4fe2 c53b
000001e0: 66ec f9bd 7b56 dfbc 0ffb 18be 02a4 f83d
000001f0: 7e16 e8bd adb8 80bd 1f45 28be d2d9 fd3b
00000200: 6ede 363e 2f62 2bbe 41d2 98bd 7797 06bd
00000210: 25e7 6bbd 76fb dabd 697d 863c ea0b ca3d
00000220: c2af 56bc 73e1 f7bd d258 a63d 989c 8cbd
00000230: 9898 323e 3ea7 373e c9ab 203e a11d 873d
00000240: e254 b73d 9fda 84bd 792c 4c3d ee24 9d3d
00000250: 2e91 1cbe 8430 b23d 2496 123e a517 823d
00000260: 4fed d8bd ed8e 85bd 79d7 d23d 8655 d8bd
00000270: 909d 133e 29df 093e 1025 9f3b a5e8 e83d
00000280: 8a42 283e 44b3 053e 7eb8 11be f1db edbc
00000290: 268c 003e 1adc 913d 1703 1dbe 7d6a aabd
000002a0: ef21 d0bc 876f 903d 8e16 09be 3f7a 973d
000002b0: 2a8c f43d b5e9 18be a0b8 ff3d 8422 1e3e
000002c0: 8980 00bd 26d6 983c e6e7 053e 93b6 1abc
000002d0: e57d 543d 5d03 b63a 54b9 2d3e 03af 893d
000002e0: e8bd 8e3a 4557 293e 7738 123e 1c83 1e3e
000002f0: 3eae 1ebe a98a bc3d 0c7b 9cbc 2389 4abd
00000300: a7cf 6c3d 4b6d 123d 3d7e c83d 511b 3b3d
00000310: 1c26 02be 3259 1fbe a0cf ecbd f0f0 f23d
00000320: 4489 b13b 418e 263b 705b b93d 06cf 0b3e
00000330: a15c b23d d81f eb3d 5153 b93d d449 17be
00000340: cef9 023e f8ed f4bd 8120 4d3b 3f8d 233b
00000350: a2cb 54bd 5215 16bd 8f6d 29be 71c2 c83d
00000360: 2c2c 89bb 5edf 383c 5ed5 eb3d 9a58 27be
00000370: 6342 08be 148d 23bd 7f90 28bd 0c04 e33c
00000380: 021c b23c 6c29 bebd d5f2 dabd d3f9 f2bd
00000390: 1c79 13be 06b5 9d3c 2fda 003e 9553 24be
000003a0: 1399 253e d5e4 93bd de1c 493b 555e 2f3e
000003b0: e689 65bb dcb3 1fbe d0a4 b8bd 0f9b 613d
000003c0: 6028 12bd 1778 34be ef89 17be 0e63 2fbe
000003d0: 483f c93c f6fb c7bd 68be 51bd 068e 063e
000003e0: f1b7 f3bd 86b4 973d 1e08 3b3d 55ef 1f3d
000003f0: be41 08be 1039 f4bd 127a e83d 6ed7 0b3e
-0.01228823 0.15262131 -0.046370976 -0.03702408 0.04105025 0.09352123 0.03336852 -0.023568096
0.028193684 0.14274012 -0.10402454 0.005486051 -0.042159896 0.11739585 -0.014751553 -0.09463117
-0.013931989 -0.03780721 0.10733336 -0.11107639 0.1245995 -0.04837956 -0.15152219 0.02593641
-0.11679845 -0.07070439 -0.076693825 -0.120758146 -0.014777013 0.101223856 -0.12840344 0.053691674
-0.068204105 0.09874631 0.10774065 0.06727528 -0.084742524 0.16697271 -0.13041918 0.051390857
0.024234062 -0.09446173 -0.06632999 -0.018654084 -0.16492118 0.011624197 0.12379686 -0.09921405
-0.118193656 -0.072262995 0.04123018 -0.071571335 0.10338949 0.023527728 0.107164524 -0.032717545
0.12540643 0.056289434 -0.07096701 -0.09074023 0.082264714 -0.099472694 -0.034166526 0.15387551
-0.036398873 0.15665373 -0.15198113 0.056882374 0.13585496 0.14542124 -0.041580923 0.15758608
0.0013085946 -0.06022141 0.1162718 0.09464517 0.086440675 -0.07780739 0.10671185 -0.13286124
-0.05134959 -0.16703458 -0.034686167 0.10500314 -0.044973936 -0.14741199 -0.12563857 -0.07831157
0.079340436 0.049756195 -0.0037309928 0.10081916 -0.052283306 0.053357616 0.0620917 -0.022234585
0.003936861 0.13823825 0.15614639 0.12824413 0.11462588 -0.052815396 -0.16652194 0.003399965
-0.042178787 0.059244126 0.051088028 0.08286853 0.08605723 0.11920005 0.082249016 0.103125006
0.14324085 -0.1503303 -0.034109246 0.1550499 0.02116202 -0.17007136 0.08630188 0.006038941
-0.122032925 -0.027262917 -0.14939521 0.12140657 -0.11332415 -0.06285224 -0.16432618 0.0077469135
0.17858288 -0.16736673 -0.07461978 -0.032859292 -0.057593483 -0.106924936 0.016417222 0.09865554
-0.013103427 -0.12103548 0.0812241 -0.068658054 0.17441022 0.17934892 0.15690531 0.06597448
0.08951737 -0.06487011 0.0498471 0.076730594 -0.15289757 0.0870066 0.14315087 0.06352166
-0.10592138 -0.065214016 0.102950044 -0.10563187 0.14415574 0.13464035 0.004856713 0.113724984
0.16431633 0.13056666 -0.14230534 -0.02903554 0.12553462 0.07122059 -0.1533321 -0.08321092
-0.025406806 0.07052522 -0.1338751 0.073963635 0.11940797 -0.14932902 0.12486386 0.15442854
-0.03137258 0.018656801 0.13076743 -0.009442943 0.051877875 0.00138865 0.16965228 0.06722834
0.0010890337 0.16537197 0.14279352 0.15479702 -0.15496156 0.09206135 -0.019101642 -0.04944719
0.05781522 0.03574876 0.09789703 0.045680348 -0.1270985 -0.15561369 -0.11563039 0.118623614
0.0054179747 0.002541438 0.090506434 0.13653192 0.08709074 0.11480683 0.090490945 -0.14774257
0.12790605 -0.119594514 0.0031299891 0.0024956015 -0.051952012 -0.036641426 -0.165457 0.09802712
-0.004186174 0.011283724 0.11515306 -0.16342393 -0.13306575 -0.039929464 -0.041153427 0.02771189
0.02174187 -0.09285244 -0.10690848 -0.118640564 -0.14401668 0.019251358 0.1258323 -0.16047509
0.16171674 -0.072213806 0.0030687372 0.17125829 -0.003502482 -0.15595955 -0.090158105 0.055079516
-0.035683036 -0.17623936 -0.14798711 -0.1712763 0.024566308 -0.097648546 -0.051206976 0.13140115
-0.119003184 0.07407479 0.045662038 0.039046604 -0.13306329 -0.11924946 0.11351408 0.13656399

encoder.layers.0.linear2.bias f4 [8]
00000000: 3823 1a3e 486f f0bd fb19 16be b2e3 db3d
00000010: d243 023e 160f 55bd d9e4 433c 749a f1bc
0.15052497 -0.11739975 -0.14658348 0.10736789 0.12721184 -0.05201634 0.011956417 -0.029492594

encoder.layers.0.norm1.weight f4 [8]
00000000: c242 803f d94b 803f 057c 803f 6e55 7f3f
00000010: 562b 7f3f 8b49 803f 7164 7f3f 946e 7f3f
1.0020373 1.0023147 1.0037848 0.9973973 0.996755 1.0022444 0.99762636 0.99778104

encoder.layers.0.norm1.bias f4 [8]
00000000: 68f7 06bb f4e9 0abb 7092 0c3b aeed acba
00000010: ff50 573b a474 d73a 8650 3a3b 59b1 38bb
-0.0020594243 -0.0021196576 0.0021449588 -0.0013193393 0.0032854674 0.001643796 0.0028429343 -0.002818188

encoder.layers.0.norm2.weight f4 [8]
00000000: 8d79 7f3f 8741 803f 9f76 803f 91ff 7e3f
00000010: 608a 7f3f fb3f 803f 4f5f 7f3f 1024 803f
0.99794847 1.0019997 1.00362 0.99608713 0.9982052 1.0019525 0.99754804 1.0011005

encoder.layers.0.norm2.bias f4 [8]
00000000: 0865 063a 2c81 d3ba 5981 1b3b acd9 bfba
00000010: f558 553b 686e 60ba ff48 433b df70 2fbb
0.0005126749 -0.0016136519 0.002372822 -0.0014637015 0.0032554243 -0.00085613737 0.0029798148 -0.0026770157

encoder.layers.1.self_attn.in_proj_weight f4 [24, 8]
00000000: 8141 b53e 2fa5 d3bd 219d a83e 259b d5be
00000010: 7aef c5be 414f 6a3e c141 4d3e 5989 ad3e
00000020: 2b07 14be 4214 98bd 3033 bebe 6d56 debd
00000030: 03df 1d3e c0f1 823d 3043 01be 9b82 913c
00000040: 55de a7be 3cd0 a03e 1ffc 563e 32b7 513d
00000050: fbba 653e b301 013e a2f9 b93e fb50 db3d
00000060: ed30 bebd b11e 1bbe b6ea 263d 1df5 6bbe
00000070: 481c 72bd 06c8 98be d9cb cfbd c9e5 1d3e
00000080: 6a50 003d d4a9 a7be bf58 3fbe 4be7 673e
00000090: 85ae 05be b361 b3be cf25 49be 6712 af3e
000000a0: c421 823e 111a 84be 9bcd c43e 87a5 843d
000000b0: 0a4e 09be b87c 6ebe 006b 3a3e f106 c4be
000000c0: e38c 483e b6a3 83be 022a 24be c3d8 9abe
000000d0: 774c 9fbe b7db 0d3d eab2 8b3e 2304 86be
000000e0: 03b1 44be e3a1 55be 58fc b33d 6a57 a43c
000000f0: d9ec aabe c2f4 7c3d 4cb8 c3bd e2de 12be
00000100: ac90 76be ea57 0a3e 96ca a9be fab9 47bc
00000110: 17a6 803d 1e27 6fbc 8070 6cbe e305 fc3d
00000120: 2f88 d6be dba6 44be f0c7 d8be cfed 393e
00000130: cb21 aebe 5188 96be f748 bf3d a1f1 9fbd
00000140: 476f adbe e3ee 813e 7083 2abe bcc5 6fbe
00000150: 4541 5bbe 192f cebd fee8 e33d 696a c1be
00000160: 4151 f23d ee98 f1bd b213 533b be02 dcbe
00000170: 52b8 a43e 0090 e6bd 2f5e 1cbd 2f67 a7be
00000180: 01f1 d63e f378 18be 7828 9abd 8a31 c5bd
00000190: 13e4 ad3e 0de4 8c3e ebad 4a3e 8e5d afbd
000001a0: a1cb dcbe fcf6 2fbe dd6c cbbe 98b3 d8be
000001b0: ed83 aebe f7e8 3a3e 0156 6bbd 5a33 8bbe
000001c0: 70bb d6be 636b 63be 397f cbbd 7aaf ca3c
000001d0: f0de 8e3e 0d83 35be 14f9 903c 94f6 6e3d
000001e0: f30a dc3d 067b 90be bcf1 4abe 041a 8a3e
000001f0: 7734 54bd e620 493e 4a28 c63c 2f2c b63e
00000200: 2230 b83e 2352 003e d269 123d 696e a03b
00000210: 3aa2 24be 12d5 7d3e 02c7 1ebe 1b09 a6be
00000220: a5a5 953e bc92 273e b9ee b63e edfb 7abe
00000230: 300b 633c 4329 753e 7fae bfbe e6b0 b73d
00000240: 434e a83e e67a 943e bc2c 823d 7837 8dbe
00000250: 4889 92be 6efd 6fbd 63db d6be be0a 063e
00000260: d097 813d f41c c7bd b8d9 ffbc a4c7 0ebe
00000270: bbb2 953d 3c9c 093e 23ca 96be 1afd 7f3e
00000280: a74d ad3b 180e 5c3d 525b 2b3c 106d a5be
00000290: 231f 07be ef15 7bbe 15c3 57be 976f fb3d
000002a0: 5ba6 5f3e fc2e 0d3e 653c 21bd ad2a b03e
000002b0: 9be5 353e ce39 bd3e dd92 d63d bace 0bbe
000002c0: 920e 213e 0ec7 1bbe ea75 d03e 0709 1f3d
000002d0: 965e 9bbe 49b1 293e a2fb 543d 4f65 09be
000002e0: 3efc b13e 33b5 623e 3ccc e83c 0f27 dc3d
000002f0: 5341 cabe 5d98 9bbc 1410 4cbe 35d3 973d
0.35401538 -0.10334241 0.3293238 -0.41719928 -0.3865927 0.22881795 0.20044614 0.3389385
-0.1445586 -0.07425739 -0.37148428 -0.10856328 0.15417103 0.063937664 -0.12623286 0.017762473
-0.32786813 0.3140887 0.20994614 0.0512001 0.22434609 0.12598304 0.36323267 0.10708805
-0.092866756 -0.15148427 0.04075118 -0.23042722 -0.059109002 -0.29840106 -0.10146303 0.15419687
0.03132669 -0.32746756 -0.18686198 0.22646825 -0.13054855 -0.35035476 -0.19643329 0.34193727
0.25416386 -0.25801137 0.38438115 0.06476884 -0.13408676 -0.23289764 0.1820488 -0.38286546
0.19584994 -0.2571084 -0.1603165 -0.302435 -0.31113026 0.034633365 0.27284938 -0.2617503
-0.1920815 -0.20862536 0.08788365 0.020061214 -0.33383825 0.061756857 -0.09556636 -0.14342836
-0.24078625 0.13510099 -0.33162373 -0.012190336 0.06281679 -0.014596729 -0.2308979 0.1230581
-0.41900775 -0.19204275 -0.4234004 0.18157123 -0.34010157 -0.29400876 0.09340089 -0.07809759
-0.3387396 0.2537757 -0.16651702 -0.23415273 -0.21411617 -0.10067577 0.11128424 -0.37776497
0.11831904 -0.11796747 0.0032207784 -0.42970842 0.32171875 -0.112579346 -0.038175758 -0.3269591
0.41980746 -0.14889888 -0.0752725 -0.096285895 0.3396307 0.2751774 0.19792907 -0.08562766
-0.43124107 -0.17184061 -0.39731494 -0.4232452 -0.34085026 0.18252932 -0.057455067 -0.27187616
-0.41939878 -0.22208934 -0.09936375 0.024741877 0.27904463 -0.17725773 0.017696895 0.058340624
0.10744276 -0.2821886 -0.19818777 0.26972973 -0.051807847 0.19641456 0.024189133 0.35580584
0.35974222 0.12531333 0.03574545 0.0048959744 -0.1607751 0.24788311 -0.15505603 -0.32428822
0.2922794 0.16364568 0.35729006 -0.24510165 0.013857648 0.23941521 -0.37437817 0.089692876
0.3287221 0.29000014 0.06356189 -0.27581382 -0.28620362 -0.0585913 -0.41964254 0.13090035
0.06327784 -0.09722319 -0.031231746 -0.13943344 0.07309481 0.13438505 -0.29451093 0.24998894
0.005288798 0.05372438 0.010458784 -0.3230977 -0.13195471 -0.24520086 -0.21070512 0.122771434
0.21840803 0.13787454 -0.039364237 0.3440756 0.17763369 0.36958164 0.10477231 -0.13653079
0.15728214 -0.15212652 0.4071496 0.03882697 -0.303456 0.16571535 0.05199779 -0.13417552
0.34762758 0.22139435 0.028417699 0.10749637 -0.39502963 -0.01899355 -0.19928008 0.074133314

encoder.layers.1.self_attn.in_proj_bias f4 [24]
00000000: 5bc0 23bb d2d6 9eba 842e c9ba 5c55 703b
00000010: 9644 a93a 4859 b5ba 43f9 5e3a 7f5d afba
00000020: 07c8 9d37 7860 3237 62f1 3f37 112f 1db8
00000030: 483e 1436 8cb5 9537 e050 2436 4bd3 acb7
00000040: 5516 253b cde0 6d3b 16a8 5fbb 153e e13a
00000050: dfd3 d53a 2a03 ab3a 28f2 09bb 2327 86ba
-0.002498648 -0.0012118465 -0.0015348946 0.0036671972 0.0012914117 -0.0013835812 0.0008505771 -0.0013379304
1.8809003e-05 1.0632088e-05 1.14406885e-05 -3.747555e-05 2.208997e-06 1.7846723e-05 2.448498e-06 -2.0602389e-05
0.0025190313 0.0036297322 -0.0034127287 0.001718464 0.0016313753 0.0013047208 -0.0021048877 -0.0010235052

encoder.layers.1.self_attn.out_proj.weight f4 [8, 8]
00000000: adeb b9bd 5d60 913d ec38 a33e 4614 993e
00000010: c0e6 503e a3f6 9abe b69a acbd 4f9f 6bbe
00000020: ddd9 2f3e f4ad 9e3e 9e9b d43d 0a95 d5bd
00000030: ba27 f33c 835f 9fbd 91aa a13e 931e 1cbe
00000040: d74f 7c3e 6a21 b23e 9e80 113e 6d01 213e
00000050: 9b9d 48be e86b 363e ae87 fd3d 29e0 30be
00000060: aaf8 8fbe 2398 9d3e 2fb8 d63d f62d 53be
00000070: 507f bdbd 79da 5d3e 65db d43d b216 a63e
00000080: 1374 993e 35c3 f93d ebae 363e e235 75be
00000090: 4796 0cbe a894 30be 7055 7f3e 6fc2 9e3d
000000a0: 3aaa 413e 8fe2 8a3e 25bb 9bbe 3315 563e
000000b0: a120 abbe 745d 4bbc 9cc2 59be c935 333e
000000c0: b39b 353d e619 b13e 2ea4 70be e120 b93d
000000d0: 095e 5d3c 629c 4abe 7f01 03be 410f 20be
000000e0: 3c26 bb3d 15e9 4f3e 3fe7 ac3e 26bf 46be
000000f0: 96cd a1be ddab 0dbe 34b8 343e daf8 05be
-0.09078155 0.07098458 0.31879365 0.2989828 0.20400524 -0.30266294 -0.08427946 -0.2300999
0.17172952 0.3099209 0.10381244 -0.104288176 0.029682029 -0.07781889 0.31575444 -0.15246038
0.24639831 0.34791118 0.1420922 0.157232 -0.19591372 0.178146 0.123793945 -0.1727301
-0.28119403 0.30780134 0.10484349 -0.20623001 -0.092527986 0.21665372 0.10393409 0.3243919
0.2997137 0.12195436 0.17840163 -0.23946336 -0.13729201 -0.17244208 0.24934936 0.07751929
0.18912593 0.27125975 -0.30416217 0.20906524 -0.3342333 -0.012412418 -0.21265644 0.17500986
0.04433794 0.3459007 -0.2350013 0.09039474 0.013511189 -0.19786218 -0.1279354 -0.15630819
0.09138152 0.20303757 0.33770177 -0.19408855 -0.31602162 -0.13835092 0.17648393 -0.1308321

encoder.layers.1.self_attn.out_proj.bias f4 [8]
00000000: 45e1 053a c58b 5d3a 8482 193b 6fd1 c0ba
00000010: 68c2 543b 5e45 96ba a7e3 2f3b f16c 24bb
0.0005107115 0.0008451308 0.002342374 -0.0014710854 0.0032464508 -0.0011464765 0.0026838572 -0.0025089348

encoder.layers.1.linear1.weight f4 [32, 8]
00000000: c19a 0e3e 41d3 4dbe c6db 25be 029a 82be
00000010: f0a3 3abe 0887 adbc 385d 653d 9da2 aebe
00000020: e9d3 be3d 6381 5bbc 6263 edbc 66e3 04bd
00000030: a4a6 3f3e 9930 9d3e 86d9 3a3e 0fdf a63e
00000040: c96c d3bd 868d 983d f5c7 843e 8d8f b13e
00000050: 5981 58be 2127 b23e 8963 a43d bfee 6dbe
00000060: a31d 3c3e 5b36 debd a532 843e 007f ca3d
00000070: 6f99 8f3d 406e 80bc d049 3d3e 72a0 46be
00000080: b6b4 5fbe 21b9 a7be 26ea a43d 5e33 a33e
00000090: e9d7 4e3e 6e47 7a3e 7050 c53d cc61 a6bd
000000a0: 4d2f 983e ad4b 9a3e ba21 1b3e c5e7 31be
000000b0: b21f a53d cf55 b23e 005f 813e cba0 90bd
000000c0: 2bc3 983e d48f 363e ab10 653e 6c56 0ebe
000000d0: 441a 0bbe b7a8 193d c83a 8c3d 7fe5 83bc
000000e0: 4d3c 483e 7005 6c3e db45 893e 88d8 46be
000000f0: cb7b 66bd e20b 56be 094e 23bd 341d 96be
00000100: 40d8 603e 3e99 143e e9f7 7dbe 37f2 a7be
00000110: b0c3 973e 8803 883e a0fa 443e 1d05 2ebe
00000120: d7da 8e3d b355 84bd 3ef8 eb3d f22a acbe
00000130: cf2f 5abe 44e0 a5be b3c4 aabd da12 a73e
00000140: 9b02 b43c 3928 cc3d 3006 ea3d f98f 5ebe
00000150: 2098 04be 56d7 813e 725c de3d 682b 5dbe
00000160: 39ce 88bd 5596 83be 81a6 ae3e 93fe 9c3e
00000170: 8790 9fbe 9775 34be 9183 93be 6aa0 93be
00000180: 82f4 d2bd 1b0b 76be 714b 95bc 876f a33e
00000190: c591 673e 3be7 f93b 8e70 513e 1724 403e
000001a0: 4306 26be 979a 09bd 4392 8c3e de7e a5be
000001b0: d838 94be 3e61 92bd 9c5c 5c3e 9fd1 7a3e
000001c0: 0b22 99be af82 1ebe 85ff 90be ae54 443d
000001d0: aa0a 1b3e 1953 1ebe 5f24 3b3e 824e 3ebe
000001e0: da17 1bbe e709 edbd bef6 a53e cfa4 5ebc
000001f0: 8bc7 0cbe 6045 d83d ee2b b4be bf6c 943e
00000200: 5ed1 aabe a81a 923d b043 ebbd 20e1 84be
00000210: a395 3a3e d72f cebd ce46 b3be e6d2 8a3d
00000220: 8545 97be a02e e6bc 59ec 823c cefc aa3d
00000230: 2c87 ba3d 3084 323e a344 123e f86d 0f3e
00000240: ab02 5dbe 31f8 2d3e 59f2 8abd dae7 083e
00000250: 6b9a 78bd 9ed3 e83d 0366 403e 13e3 813d
00000260: cfd6 bbbc f83a 0abe 3874 2c3e f814 a93e
00000270: e990 13be c15d 903d 2459 933e de1e b13e
00000280: ccac c9bd f5bb 7d3e ac77 373e 7ba0 9b3e
00000290: eb1e 953b 53ac 93be a6d9 59be 74a4 e93d
000002a0: cadf 40be 615a 8dbe f9f7 513e 1352 94be
000002b0: ac0c 8cbd e460 f13d 2071 963e 33f3 443e
000002c0: 5aaf e23d 4dd2 41be 4b63 243e 8040 993d
000002d0: 61f4 dbbd b9f3 10be 6025 863e c4c0 653c
000002e0: 579e 953e 6365 af3e 6c4e 2dbe 5a7c 343e
000002f0: eb58 163e cdf4 9a3c c0ba 5a3d 2a9f 8fbe
00000300: 4ef3 bb3d 028d 8b3e 819a 093e a87f 23be
00000310: 5b92 f3bd fc77 a43d 3c51 84be 3f97 6bbe
00000320: 48a7 a43e 982c 7cbe 7813 a33e 7f8f 903e
00000330: 90ec 9fbe fd90 923c 9a5b 53bc f37b 5fbe
00000340: 95c2 0dbc 86be 4cbe 0833 7ebe c658 903e
00000350: f569 523e 3732 27be 2ae2 5c3e fb8a 51be
00000360: 854f 92be f21e 483e 13c0 91be 84cf e93c
00000370: 73dc a43e c7c7 9cbe 97c5 9e3d d90d 743d
00000380: a95b 8d3e 0e76 36be ac01 103e a054 803e
00000390: 4264 bfbd 0e91 6e3d 12d9 8d3e 081b 113d
000003a0: 216d b0be 41f9 13be 6bd8 8c3e 5f7c 163e
000003b0: 28ca 80be 9b78 813e c59c 933e 8ca5 583d
000003c0: 8ae3 103e 41ba 23be 1f3c 89be b6be 95be
000003d0: c6ef c6bd a6fc 073d 4db5 81be f99e 203e
000003e0: 6030 5abd acaf 393e 99eb 903d ee12 d6bc
000003f0: bf4b 4fbe b3db 333e fcda 16be faee 88be
0.13926221 -0.20100118 -0.16197118 -0.25508124 -0.182266 -0.021182552 0.055997103 -0.3410844
0.093177624 -0.013397547 -0.028978053 -0.032443427 0.18715912 0.3070114 0.18247041 0.32592055
-0.103234835 0.074488685 0.25933805 0.34679833 -0.21143092 0.34795478 0.08026797 -0.23235606
0.1837068 -0.10850211 0.2581989 0.098875046 0.07011687 -0.015677571 0.18485188 -0.19397143
-0.2184628 -0.3275843 0.08052473 0.31875128 0.2019955 0.24441311 0.09634483 -0.08124122
0.29723588 0.3013586 0.15149584 -0.1737357 0.08062686 0.34831092 0.25267792 -0.07061919
0.298364 0.17828304 0.2236964 -0.13900155 -0.13584238 0.037514415 0.06847149 -0.016100643
0.19554253 0.23048949 0.26811108 -0.19418538 -0.056270402 -0.2090297 -0.039869342 -0.29319155
0.21957493 0.14511582 -0.24801601 -0.32801983 0.29641485 0.26565194 0.19236231 -0.16994138
0.06975334 -0.06461658 0.11521958 -0.33626515 -0.213073 -0.32397664 -0.08338299 0.3263157
0.021973899 0.09968609 0.114269614 -0.21734609 -0.12948656 0.253596 0.10857476 -0.2159859
-0.06679959 -0.25700632 0.34111407 0.30662975 -0.31164953 -0.17622982 -0.28811315 -0.28833324
-0.103005424 -0.24027674 -0.01822445 0.31921026 0.226142 0.007626442 0.20453092 0.18763767
-0.16213326 -0.033594694 0.2745534 -0.32323354 -0.28949618 -0.07147454 0.21519703 0.24494027
-0.29908785 -0.1547954 -0.28319946 0.04793232 0.15140787 -0.15461387 0.18275593 -0.18584636
-0.15145817 -0.11574154 0.32414812 -0.013589098 -0.13747995 0.10560107 -0.35189766 0.28989217
-0.3336286 0.071339905 -0.1148752 -0.25953007 0.18221144 -0.100677185 -0.35014957 0.06778507
-0.29545227 -0.028098404 0.01598184 0.08349 0.09107813 0.17433238 0.14283995 0.14006793
-0.21583049 0.16989209 -0.067845054 0.13369694 -0.06069414 0.11368488 0.18788914 0.06342139
-0.022929577 -0.13499057 0.16841209 0.3302381 -0.14410748 0.07049132 0.28778946 0.34593862
-0.098474115 0.24778731 0.17916745 0.30395874 0.004550805 -0.2884241 -0.21274433 0.1140832
-0.18835369 -0.27608016 0.2050475 -0.28968868 -0.068383545 0.117860585 0.29383183 0.19233398
0.11068602 -0.1892788 0.16053502 0.074830055 -0.10739971 -0.14155473 0.2620039 0.01402301
0.29222366 0.3425704 -0.16924447 0.17625561 0.14682357 0.018915558 0.053400755 -0.2805112
0.09177266 0.27256018 0.13437845 -0.15966666 -0.118931495 0.08030698 -0.25843227 -0.23006915
0.32158875 -0.24626386 0.3185079 0.2823448 -0.3123517 0.017891401 -0.0129002575 -0.21824627
-0.008652349 -0.19994554 -0.24824154 0.2819273 0.20548232 -0.16327749 0.2157065 -0.20463173
-0.28576294 0.19543055 -0.28466853 0.028541334 0.3219944 -0.30621168 0.07752531 0.05958352
0.27608994 -0.17818472 0.14063138 0.25064564 -0.093452945 0.058243804 0.27704674 0.03542617
-0.3445826 -0.14450552 0.27508864 0.14695881 -0.25154233 0.25287327 0.28830543 0.052892253
0.141493 -0.15989019 -0.2680368 -0.29247063 -0.09713702 0.03319993 -0.25333634 0.15685643
-0.05326879 0.1813342 0.07076187 -0.026132073 -0.20243739 0.17564277 -0.14731973 -0.26744825

encoder.layers.1.linear1.bias f4 [32]
00000000: 0c58 c6bd a24b 663b 500d 96be 163b 913e
00000010: 4de9 3a3e 0504 30be f536 1e3e 0a58 873e
00000020: aab1 d63d 6ee0 5f3e c76c 013e 2452 9c3e
00000030: a6a9 0b3e c711 9bbe 912b b03e b738 753d
00000040: d6fe 42be 0dd6 5b3e faa4 52be 7207 603d
00000050: 0cc5 48bb ff36 1e3d 8411 af3c 0fe0 713e
00000060: d47b 20bd 62ca 8bbe dd9c 9b3e 01bd 143e
00000070: cf51 a13e faff 313d b947 98be 735c 8f3e
-0.09684762 0.0035140296 -0.29307032 0.28365391 0.1825306 -0.17189033 0.15450652 0.26434356
0.104831055 0.21862957 0.12639152 0.30531418 0.13638934 -0.30287 0.3440824 0.05986854
-0.19042525 0.21468373 -0.20570746 0.0546946 -0.0030635027 0.038626667 0.021370657 0.23620628
-0.03918059 -0.27302843 0.30393115 0.14525224 0.31507728 0.04345701 -0.2974222 0.2800022
