models/ts_views_models/ts-v19.ckpt (torch, 330768 bytes, 201 tensors)

input_pos_embedding.weight f4 [1024, 8]
-0.47106168 1.3207576 -0.15541226 0.040852305 -0.14297317 -0.5942576 -0.05102526 1.2658455
-0.4800744 0.8587433 0.26201808 1.096508 0.002503482 -0.52396876 -0.23317598 0.9853876
-0.40406993 -0.70656675 -0.05298808 -2.5458975 0.74064755 0.52344316 0.78532153 0.32686985
-0.04394369 2.0584402 -1.2660697 -0.1648521 -0.47338566 -0.07490598 -0.38878828 -1.2937454
-0.04189651 1.1649504 1.1285088 0.32807255 -0.42397395 -1.7520982 -0.6013033 -1.1756107
1.4781704 -0.30036297 0.9276659 -1.0435715 -0.90719676 0.6716887 2.4098427 0.60362715
0.25617522 0.9987976 0.55264 -0.03452454 -1.3987664 1.3155506 -1.8301266 -0.9364456
-1.5322334 1.1736159 1.9955094 -0.53223383 -0.62673473 1.2040386 -0.8979609 -1.2237742
-0.2773393 -0.47436664 0.45919207 0.08719981 -0.023833815 0.20824921 0.18961316 -1.0711643
-2.237372 -0.578977 1.5646305 -0.9160451 0.064426385 -0.11411324 -0.6041675 0.42867643
0.15763238 -0.23649164 -0.4217312 0.65658975 0.8003547 -0.18829322 0.68875235 -1.1266543
0.04455211 -0.049161248 0.8781252 1.4969072 1.2751024 0.0747598 -0.67772907 1.5920613
0.58719164 -1.3021473 0.14217807 0.041963287 0.8571011 -0.8827872 2.3585248 0.8164182
-1.7036473 1.8538125 0.21987943 -0.061617684 0.4861405 -0.6255109 0.38343325 1.9600229
0.5888854 -0.00026882804 1.1228657 0.7552889 0.026678098 -1.1939311 0.0053562988 0.8051455
-0.09932839 0.33299184 1.8847622 0.2424565 -0.062393397 1.3910605 -0.012891513 -1.0700479
-0.5576615 -1.1438981 0.8597319 -1.444829 -0.114547834 0.2684753 -1.0816909 -1.5790356
0.901109 0.11855348 0.23687467 0.6956417 -0.2706056 -0.7305327 0.09687936 -0.6842862
0.8872104 0.77851135 -1.0032243 1.3269567 -0.32804385 0.49188784 -0.16204904 0.30005065
-0.4557785 -0.17509234 2.6056838 1.2533289 0.5329857 -0.39910653 0.61053294 0.37547198
-2.3201163 0.12616129 -0.578872 -0.24227554 0.0088208215 -0.79118025 -0.7250429 -0.008684873
1.119411 0.4538374 -0.13622342 -0.20587645 -0.8853854 -0.14371267 0.5768188 -0.09250807
-1.1285826 0.0005713432 0.4750213 -0.48777658 1.4380682 -1.0394104 0.44127032 -1.2742096
0.32969347 -0.58450913 3.0719 -1.6513311 -0.39068297 -0.7757071 -0.8140905 -1.2179377
-2.1851592 0.09057555 -0.87774837 -0.41301516 2.245657 -0.8423981 0.61156356 0.645602
1.3618786 -0.55340886 -1.8623968 -0.6049582 -0.9923209 0.639958 -0.019415025 -0.046287827
-1.5420713 0.42548022 0.91689795 -1.2042067 -1.5995735 0.11463297 0.38188118 -0.92140967
0.35591972 0.7844242 0.49358192 -0.010131398 -0.06530848 1.1711587 1.296515 -0.56369877
1.4363191 1.5257018 1.0577402 -2.414047 0.65782315 -0.16502307 0.27185118 -0.1582866
-2.1574483 -1.5584697 -2.0053089 0.6855141 0.25209433 -0.14301367 0.14370821 0.8557749
0.4928 0.053929027 -0.9346153 -1.3226966 0.23883763 -1.8281354 0.6079117 1.4401858
-0.9600033 1.4146559 1.9322152 -0.9160997 -0.053407766 -0.16518672 -0.52328753 0.0742847
00000000: ff2e f1be 960e a93f 6424 1fbe bf54 273d
00000010: 8f67 12be 4421 18bf ddff 50bd 3a07 a23f
00000020: 50cc f5be 9ad6 5b3f 3c27 863e 605a 8c3f
00000030: 7511 243b d122 06bf afc5 6ebe 5d42 7c3f
00000040: 41e2 cebe 8fe1 34bf 070a 59bd fcef 22c0
00000050: 149b 3d3f 5f00 063f d50a 493f 7c5b a73e
00000060: 4cfe 33bd 7cbd 0340 920e a2bf fdce 28be
00000070: 9b5f f2be 4e68 99bd 420f c7be 7399 a5bf
00000080: ad9b 2bbd 181d 953f fa72 903f 20f9 a73e
00000090: 1d13 d9be c144 e0bf 03ef 19bf 697a 96bf
000000a0: b034 bd3f 2dc9 99be 837b 6d3f c093 85bf
000000b0: 0c3e 68bf caf3 2b3f dd3a 1a40 4f87 1a3f
000000c0: 6629 833e 33b1 7f3f d179 0d3f 9b69 0dbd
000000d0: c70a b3bf f663 a83f 9741 eabf e6ba 6fbf
000000e0: 3920 c4bf 0c39 963f da6c ff3f 7a40 08bf
000000f0: b071 20bf f01d 9a3f c4e0 65bf a2a4 9cbf
00000100: 6bff 8dbe 2fe0 f2be 391b eb3e d095 b23d
00000110: 223f c3bc 483f 553e f429 423e e91b 89bf
00000120: 1a31 0fc0 d637 14bf d045 c83f ef81 6abf
00000130: fbf1 833d 34b4 e9bd b9aa 1abf 7a7b db3e
00000140: 626a 213e dd2a 72be 27ed d7be 4416 283f
00000150: 0ce4 4c3f f0cf 40be 1352 303f 3536 90bf
00000160: 467c 363d 4e5d 49bd d0cc 603f a89a bf3f
00000170: 8e36 a33f ab1b 993d a77f 2dbf aac8 cb3f
00000180: 3152 163f c3ac a6bf 2197 113e b2e1 2b3d
00000190: fa6a 5b3f 58fe 61bf 12f2 1640 c800 513f
000001a0: 1d11 dabf ba49 ed3f 1328 613e d362 7cbd
000001b0: 68e7 f83e 7b21 20bf 5d51 c43e 08e2 fa3f
000001c0: 32c1 163f 7df1 8cb9 10ba 8f3f 9d5a 413f
000001d0: 078c da3c bcd2 98bf e483 af3b 041e 4e3f
000001e0: af6c cbbd e87d aa3e e33f f13f 8446 783e
000001f0: 3890 7fbd 450e b23f ed36 53bc 54f7 88bf
00000200: e7c2 0ebf 416b 92bf 6417 5c3f 28f0 b8bf
00000210: 0e98 eabd 9875 893e d974 8abf d71d cabf
00000220: 14af 663f 2bcc f23d 468f 723e 9315 323f
00000230: d18c 8abe 3104 3bbf b068 c63d 612d 2fbf
00000240: 3920 633f 854c 473f a769 80bf b8d9 a93f
00000250: 5df5 a7be b9d8 fb3e 2ff0 25be 3da0 993e
00000260: cd5b e9be 684b 33be 86c3 2640 156d a03f
00000270: c071 083f b157 ccbe e34b 1c3f dd3d c03e
00000280: c97c 14c0 6d30 013e f530 14bf 1417 78be
00000290: 3585 103c ca8a 4abf 699c 39bf ff4a 0ebc
000002a0: dc48 8f3f 605d e83e 277e 0bbe 47d1 52be
000002b0: 9ea8 62bf 6a29 13be 66aa 133f df74 bdbd
000002c0: 6575 90bf 31c6 153a fe35 f33e dabd f9be
000002d0: 9e12 b83f 660b 85bf 2fee e13e 4d19 a3bf
000002e0: 95cd a83e 64a2 15bf 029a 4440 d15e d3bf
000002f0: 9907 c8be be94 46bf 3c68 50bf 62e5 9bbf
00000300: a6d9 0bc0 ad7f b93d 1eb4 60bf b976 d3be
00000310: d8b8 0f40 67a7 57bf 6e8f 1c3f 2c46 253f
00000320: 0a52 ae3f 34ac 0dbf 0563 eebf 8ade 1abf
00000330: be08 7ebf 4ad4 233f 420c 9fbc 4e98 3dbd
00000340: 9862 c5bf 8bd8 d93e d3b9 6a3f 7223 9abf
00000350: d3be ccbf b1c4 ea3d ee85 c33e 81e1 6bbf
00000360: 1c3b b63e 06d0 483f c5b6 fc3e 2afe 25bc
00000370: 74c0 85bd 87e8 953f 34f4 a53f 904e 10bf
00000380: 4ed9 b73f 324a c33f 0864 873f bf7f 1ac0
00000390: 1967 283f cffb 28be 1430 8b3e e215 22be
000003a0: a213 0ac0 ef7b c7bf fb56 00c0 da7d 2f3f
000003b0: 8212 813e 2d72 12be 3f28 133e 1014 5b3f
000003c0: 4850 fc3e afe4 5c3d f342 6fbf 1f4e a9bf
000003d0: da91 743e 5700 eabf 1aa0 1b3f 0258 b83f
000003e0: c7c2 75bf 7213 b53f d452 f73f 8385 6abf
000003f0: 1ac2 5abd b526 29be 2cf6 05bf 9422 983d

target_pos_embedding.weight f4 [1024, 8]
0.47936675 -0.2113482 -0.20872004 -1.9616903 -1.8605051 0.36916345 0.91265005 0.10934857
-1.2115744 -0.37175745 1.5013412 0.3704526 -0.21487257 -1.3936334 0.7352637 -0.8626033
1.0038067 1.1500868 -0.018399931 -0.51611084 -0.9099328 -0.6809847 -0.17657122 1.1802745
1.0202464 -1.3229364 -0.46683016 0.6562612 0.28900942 0.5741174 0.12875913 1.4410803
0.7187257 -0.42388803 0.9206102 1.5897001 -0.25594288 -0.14828013 -0.9184883 0.031361368
-0.8605636 -1.0316263 -0.7663453 -0.7918107 -1.1282324 -0.84794724 -0.22948067 -0.33119825
0.54544526 -0.734771 -0.03974941 -0.53036296 -1.087446 -0.031213343 0.3774911 -0.9420769
2.8226101 -0.83045954 -0.9127152 -0.5479693 -0.13168617 1.4418242 -0.015079647 0.11136236
-0.5073257 -1.8220074 -0.41729742 0.2672036 -1.8901898 -0.64163965 1.8570266 -0.6815727
0.035512082 -0.4163574 0.4917962 1.0084456 0.06649588 -0.71553385 0.86496806 -0.47824606
-0.7687016 -1.2249092 -1.4609888 -1.1143225 -0.6797544 -0.57700956 0.28827947 0.46765378
1.4174913 0.21346438 1.6457361 1.2954781 0.15129665 -0.115567535 -0.17942633 0.11440735
0.124292366 0.00554379 0.101595394 -0.46180752 0.22126098 -0.24753444 0.6143513 -0.08480381
-1.5268127 -0.2602325 0.07560126 1.8177322 -0.4198626 -0.03072913 0.001574343 -1.185634
-0.17228684 -0.88180834 0.26076114 -0.6030395 -0.22610246 -0.119987406 0.39515686 -0.53116786
0.6190762 -0.30154672 -0.7217715 1.3092442 -1.3907529 -0.785285 2.44991 -0.11977322
-0.7972817 -0.94288987 -0.30241427 -1.4887447 1.0314546 -0.20173618 0.6097396 -1.383053
0.7982615 0.44257393 0.34789023 -0.50665367 -0.08554283 -1.0551472 -0.07961992 -0.7626373
0.4716855 -1.2410774 2.4102168 -0.36693436 -0.5858291 -0.8101274 -0.8517509 2.1096628
-0.30830666 -0.6248421 -0.39224064 -1.3968028 -0.87463427 -0.35776222 0.46533597 -0.8548124
0.9455289 1.8361344 -0.9181124 -0.72579694 0.26619065 -0.94660527 0.56351805 0.7352466
-1.175348 0.44863117 1.030866 2.0140784 0.5605763 1.4758328 -0.25700954 -0.58222896
0.6118108 -1.3574287 -1.2786212 -0.76090497 0.6638412 0.8922302 0.44994646 0.6169497
-1.4121614 0.15975246 -0.5040769 0.3092616 0.8211551 -0.5129405 1.6502789 0.86693764
-2.0487998 -0.9949338 0.23065144 -0.28592122 0.5350219 -0.16642684 -0.75975174 -0.46529964
0.47967497 1.5257318 0.30796584 0.092550896 -0.13913007 -1.5369214 -0.3005987 0.86946404
1.1061794 -0.36032915 1.2167091 2.0323787 0.14505744 -0.27936283 0.4151873 -0.05137045
2.2884798 -2.0605922 -0.36114448 -1.3843455 1.2832587 0.86426413 0.49578065 -1.9077986
0.032786686 0.21674398 -0.23904823 -0.35091105 0.08559994 -0.50352967 0.5105085 -0.21544488
-0.5072012 0.7449305 0.609079 0.17046401 0.17799664 -2.6916978 -0.13100113 -0.41489303
-0.15094623 0.29410425 -1.0586457 1.5676339 -0.65291137 0.8603223 0.56204903 -0.7702682
1.8042823 0.45167726 -1.2246863 -1.6824336 1.2736878 0.83391035 1.1356633 1.9768889
00000000: 8f6f f53e aa6b 58be b5ba 55be ab18 fbbf
00000010: 0825 eebf fe02 bd3e 6fa3 693f 25f2 df3d
00000020: df14 9bbf fe56 bebe f32b c03f f7ab bd3e
00000030: 8e07 5cbe 9462 b2bf 3e3a 3c3f 92d3 5cbf
00000040: bd7c 803f 0b36 933f 74bb 96bc d71f 04bf
00000050: 5bf1 68bf 0355 2ebf 16cf 34be 3c13 973f
00000060: 6f97 823f fb55 a9bf 5d04 efbe bc00 283f
00000070: 0bf9 933e 5cf9 123f 6fd9 033e 5275 b83f
00000080: 68fe 373f da07 d9be 1cad 6b3f 4b7b cb3f
00000090: f20a 83be bfd6 17be 0d22 6bbf c774 003d
000000a0: e54d 5cbf 550c 84bf 352f 44bf 1bb4 4abf
000000b0: eb69 90bf 1213 59bf fbfc 6abe d192 a9be
000000c0: 4da2 0b3f f419 3cbf 47d0 22bd dec5 07bf
000000d0: 6e31 8bbf 20b3 ffbc 8346 c13e f42b 71bf
000000e0: a5a5 3440 ff98 54bf b4a7 69bf b747 0cbf
000000f0: bdd8 06be b28d b83f a010 77bc f311 e43d
00000100: 19e0 01bf 8a37 e9bf 02a8 d5be e9ce 883e
00000110: bdf1 f1bf 7f42 24bf 0cb3 ed3f 8c7b 2ebf
00000120: 1e75 113d cc2c d5be b6cc fb3e bf14 813f
00000130: fe2e 883d 3a2d 37bf 8c6e 5d3f abdc f4be
00000140: a1c9 44bf d3c9 9cbf ae01 bbbf 1fa2 8ebf
00000150: 6204 2ebf e6b6 13bf 5e99 933e 5170 ef3e
00000160: 5b70 b53f 6896 5a3e 7ba7 d23f 3ad2 a53f
00000170: 82ed 1a3e acae ecbd 89bb 37be 674e ea3d
00000180: ff8c fe3d aea8 b53b 3f11 d03d 0972 ecbe
00000190: 3d92 623e ab79 7dbe 2046 1d3f 9fad adbd
000001a0: 996e c3bf 323d 85be d5d4 9a3d 73ab e83f
000001b0: 3bf8 d6be a8bb fbbc 2f5a ce3a dbc2 97bf
000001c0: f66b 30be 31be 61bf 7c82 853e cc60 1abf
000001d0: 6787 67be f5bb f5bd 0052 ca3e 9efa 07bf
000001e0: c77b 1e3f 5564 9abe 04c6 38bf 5095 a73f
000001f0: 3104 b2bf 7008 49bf 53cb 1c40 a94b f5bd
00000200: a71a 4cbf 3b61 71bf 0bd6 9abe 308f bebf
00000210: b406 843f ee93 4ebe e517 1c3f e107 b1bf
00000220: de5a 4c3f 0d99 e23e ab1e b23e 0eb4 01bf
00000230: 1431 afbd 100f 87bf c50f a3bd 333c 43bf
00000240: c380 f13e a0db 9ebf fe40 1a40 d2de bbbe
00000250: e5f8 15bf 8264 4fbf 590c 5abf b704 0740
00000260: 5fda 9dbe a7f5 1fbf c4d3 c8be 6fca b2bf
00000270: 08e8 5fbf 9c2c b7be 8440 ee3e fcd4 5abf
00000280: 2f0e 723f 7406 eb3f 6a09 6bbf d4cd 39bf
00000290: 244a 883e b954 72bf b842 103f 1f39 3c3f
000002a0: ce71 96bf fcb2 e53e 6bf3 833f a9e6 0040
000002b0: ee81 0f3f 17e8 bc3f c196 83be f50c 15bf
000002c0: a29f 1c3f 39c0 adbf dca9 a3bf abca 42bf
000002d0: 7ff1 293f 3369 643f 625f e63e 6af0 1d3f
000002e0: b4c1 b4bf 2696 233e 2f0b 01bf 8957 9e3e
000002f0: 3837 523f 1250 03bf 573c d33f a0ef 5d3f
00000300: 891f 03c0 fbb3 7ebf e42f 6c3e 4464 92be
00000310: 32f7 083f cc6b 2abe 177f 42bf c13b eebe
00000320: f597 f53e 2e4b c33f b3ad 9d3e 538b bd3d
00000330: 1d78 0ebe d7b9 c4bf 13e8 99be 3295 5e3f
00000340: 4997 8d3f 107d b8be 20bd 9b3f 7e12 0240
00000350: f089 143e a508 8fbe 6e93 d43e d269 52bd
00000360: 7476 1240 bee0 03c0 eee7 b8be 3c32 b1bf
00000370: d241 a43f 6a40 5d3f f6d6 fd3e bf32 f4bf
00000380: 554b 063d 22f2 5d3e 0fc9 74be 9daa b3be
00000390: 054f af3d 52e7 00bf afb0 023f 959d 5cbe
000003a0: f0d7 01bf c4b3 3e3f 9aec 1b3f 1e8e 2e3e
000003b0: c044 363e c744 2cc0 2925 06be dc6c d4be
000003c0: a691 1abe d594 963e b481 87bf 3aa8 c83f
000003d0: 3325 27bf 153e 5c3f 72e2 0f3f 4c30 45bf
000003e0: b9f2 e63f 3e42 e73e 85c2 9cbf fc59 d7bf
000003f0: 3408 a33f 267b 553f 6a5d 913f b20a fd3f

encoder.layers.0.self_attn.in_proj_weight f4 [24, 8]
0.34586966 -0.060608976 -0.40905163 0.29459912 0.042375054 -0.36921182 0.34239766 -0.36764097
-0.20901431 -0.0030329707 -0.43264836 0.2535602 -0.124282375 -0.24527146 0.37075052 -0.24837944
0.05223752 -0.17501615 0.37251648 0.17834747 -0.39646187 0.01951643 -0.32916573 0.23322895
0.014797609 -0.10858547 0.29944682 -0.4098704 0.32360426 -0.11299976 0.0012730119 -0.29895627
0.19262327 0.38377917 0.22640347 -0.31318516 -0.13801992 0.403766 0.35523224 -0.31005898
0.03156415 0.39420068 -0.008483008 -0.022661664 0.19605832 -0.14049225 -0.2651021 0.2779755
-0.15786278 -0.28767338 0.33883527 -0.25016257 0.1273933 -0.13003668 -0.111103356 0.10661218
0.21007104 -0.21152173 0.07432028 -0.01761607 -0.04368536 -0.3471767 -0.31361595 -0.2377851
0.11560251 -0.23818858 -0.034029637 0.20266668 0.2798846 0.35858163 0.2237702 0.083092086
-0.37195805 0.29873037 -0.1121788 0.37680763 0.13255592 -0.002811381 0.09385797 -0.1382389
-0.09075345 -0.19313575 0.15509509 0.15558471 -0.24851848 0.01325142 -0.16101126 -0.19107467
-0.10511426 0.2993302 -0.02916644 0.08539716 -0.041394725 0.3633441 -0.30523753 -0.021811714
0.25214258 -0.14732583 0.31499696 -0.21352209 -0.37438628 -0.096740425 -0.30594838 -0.21162051
-0.19237302 -0.20929702 0.26160577 0.3966782 0.020140342 0.285908 0.30975536 0.3434284
0.13059579 0.22901249 -0.23923585 0.38171795 -0.26089835 0.07055447 0.008378284 -0.21697932
0.09317585 0.04323455 -0.3845913 -0.3390704 -0.0949264 -0.41163164 0.40352958 0.39388135
0.07749656 0.071786225 0.37564915 -0.35838473 -0.11183262 0.070885204 0.044514146 0.02415673
-0.044140168 -0.39516088 0.34274897 -0.33194348 0.2830643 -0.02216024 -0.19827057 -0.11859765
0.20418243 0.40599176 -0.37995318 -0.30574763 0.28401437 0.20658608 0.14391492 -0.25923538
0.3445204 -0.17627515 0.32822505 -0.08161698 -0.41624033 -0.05064903 0.12789488 0.061090693
0.4238564 0.4152886 -0.30975205 -0.2454468 0.28033438 -0.35692772 -0.050741542 -0.046267122
0.22613584 0.39438647 -0.2274293 -0.4043786 -0.17650822 0.10038293 -0.28096437 -0.05408734
0.22009124 0.2410181 -0.29372445 -0.0686855 0.21274729 0.06601194 0.26566172 -0.18507817
-0.15933003 -0.42832348 -0.3870723 0.35590854 -0.11697099 0.13122056 -0.41129652 -0.079481736
00000000: d415 b13e 1e41 78bd 376f d1be b2d5 963e
00000010: 7791 2d3d 5509 bdbe bf4e af3e 703b bcbe
00000020: d907 56be cec4 46bb 1684 ddbe a4d2 813e
00000030: c287 febd 7128 7bbe 03d3 bd3e 2e57 7ebe
00000040: 03f7 553d 6f37 33be 7bba be3e b8a0 363e
00000050: 0dfd cabe ece0 9f3c 6988 a8be 92d3 6e3e
00000060: ac71 723c 0f62 debd 1851 993e 88da d1be
00000070: 75af a53e 6b6c e7bd 31db a63a cc10 99be
00000080: 093f 453e b47e c43e 50d6 673e ce59 a0be
00000090: 1855 0dbe 6bba ce3e 00e1 b53e 0dc0 9ebe
000000a0: 6949 013d acd4 c93e 50fc 0abc f4a4 b9bc
000000b0: 83c3 483e 33dd 0fbe 76bb 87be ce52 8e3e
000000c0: c8a6 21be ed49 93be d17b ad3e 4f15 80be
000000d0: 6473 023e 5628 05be 288a e3bd 7d57 da3d
000000e0: dd1c 573e 2799 58be 3b35 983d 944f 90bc
000000f0: 6cef 32bd 25c1 b1be 4592 a0be f07d 73be
00000100: 02c1 ec3d b5e7 73be a962 0bbd db87 4f3e
00000110: 094d 8f3e 0398 b73e 0424 653e 2f2c aa3d
00000120: 4971 bebe 30f3 983e 00be e5bd eeec c03e
00000130: bdbc 073e 253f 38bb 9b38 c03d 808e 0dbe
00000140: f2dc b9bd 61c5 45be 3fd1 1e3e 9951 1f3e
00000150: a17b 7ebe 7c1c 593c 23e0 24be 14a9 43be
00000160: 2546 d7bd cf41 993e 75ee eebc b5e4 ae3d
00000170: 848d 29bd 3d08 ba3e 1848 9cbe 7bae b2bc
00000180: d518 813e 95dc 16be 4847 a13e 89a5 5abe
00000190: 8faf bfbe d81f c6bd 44a5 9cbe 0cb3 58be
000001a0: 6ffd 44be f551 56be 31f1 853e 6819 cb3e
000001b0: 5cfd a43c 8962 923e 4198 9e3e d9d5 af3e
000001c0: e7ba 053e 4082 6a3e 3efa 74be 8970 c33e
000001d0: 7894 85be dd7e 903d 1245 093c d42f 5ebe
000001e0: fbd2 be3d b616 313d 27e9 c4be a39a adbe
000001f0: c668 c2bd 62c1 d2be 6e9b ce3e d1aa c93e
00000200: 84b6 9e3d a804 933d 1655 c03e 347e b7be
00000210: 8008 e5bd 432c 913d 7754 363d 56e4 c53c
00000220: 52cc 34bd 8752 cabe cb7c af3e 7ff4 a9be
00000230: ceed 903e 6489 b5bc 7107 4bbe 53e3 f2bd
00000240: 3315 513e 27de cf3e 3989 c2be f48a 9cbe
00000250: 556a 913e 4d8b 533e 6f5e 133e 80ba 84be
00000260: fa64 b03e 7981 34be 1d0d a83e ce26 a7bd
00000270: 741d d5be 5b75 4fbd e0f6 023e 3c3a 7a3d
00000280: b503 d93e b5a0 d43e d297 9ebe 6856 7bbe
00000290: fd87 8f3e 3bbf b6be 5dd6 4fbd 9882 3dbd
000002a0: 2790 673e 06ed c93e 3ae3 68be b60a cfbe
000002b0: 92be 34be 9195 cd3d 90da 8fbe b08a 5dbd
000002c0: 995f 613e 73cd 763e 0d63 96be fcaa 8cbd
000002d0: 6dda 593e 4531 873d d004 883e 2285 3dbe
000002e0: 6927 23be 374d dbbe 572e c6be a539 b63e
000002f0: 7d8e efbd af5e 063e 7595 d2be 52c7 a2bd

encoder.layers.0.self_attn.in_proj_bias f4 [24]
0.013269827 -0.0067613497 0.0146582965 0.0058712573 0.017196245 -0.02737378 0.016254153 -0.0017743472
0.000119048855 -2.1811558e-05 -0.00021301366 3.985919e-05 -0.0018698684 -0.000691957 0.001854954 -0.00090524746
0.0046808226 0.0017870143 0.005219108 0.0069781058 -0.01752966 0.007676059 0.0014150329 0.0034354033
00000000: b069 593c 508e ddbb 5a29 703c ad63 c03b
00000010: 24df 8c3c fa3e e0bc 6e27 853c 3691 e8ba
00000020: dea9 f938 f7f7 b6b7 6b5c 5fb9 7b2e 2738
00000030: 5f16 f5ba 7364 35ba ee21 f33a 214e 6dba
00000040: 9661 993b 403a ea3a 0d05 ab3b 98a8 e43b
00000050: 5d9a 8fbc 7387 fb3b a078 b93a 8124 613b

encoder.layers.0.self_attn.out_proj.weight f4 [8, 8]
0.07375969 0.11453385 0.33306265 0.07463114 -0.099159956 -0.06052689 0.031997655 0.23431747
0.14407153 -0.031112729 0.06844122 0.26097023 -0.1940566 0.23912373 -0.048797745 -0.12452097
0.18175222 -0.023901012 0.014515195 -0.3531208 0.08018627 -0.10535526 0.31908947 -0.07623928
0.25326428 -0.19650947 -0.067262545 -0.14042185 0.252548 -0.004918514 -0.10079982 -0.29035565
0.15279153 0.1426632 0.08489165 0.25726008 0.14521362 0.2527002 -0.33363843 0.24413204
-0.1407009 0.14281376 0.057853304 -0.044312783 0.288049 0.1572934 -0.061498336 0.03392035
-0.019381149 -0.2706705 -0.2804156 -0.0019290776 -0.063517675 0.15642126 0.03499663 -0.23082367
0.2228979 0.21785757 -0.33713192 -0.30210695 0.18478623 0.1797942 0.1361734 -0.32356063
00000000: 520f 973d b990 ea3d 3087 aa3e 36d8 983d
00000010: 6014 cbbd 0beb 77bd f90f 033d ebf0 6f3e
00000020: 7d87 133e 1fe0 febc e92a 8c3d e49d 853e
00000030: c6b6 46be dadc 743e 25e0 47bd da04 ffbd
00000040: 411d 3a3e 0ecc c3bc 24d1 6d3c 40cc b4be
00000050: b338 a43d 80c4 d7bd b25f a33e 5723 9cbd
00000060: dbab 813e c739 49be f2c0 89bd bfca 0fbe
00000070: f94d 813e 7c2b a1bb 2370 cebd 7fa9 94be
00000080: 6275 1c3e 4d16 123e acdb ad3d 98b7 833e
00000090: e1b2 143e ec61 813e a8d2 aabe c0fd 793e
000000a0: e613 10be c53d 123e 96f7 6c3d 5281 35bd
000000b0: 297b 933e 8511 213e aee5 7bbd 11f0 0a3d
000000c0: 37c5 9ebc 5395 8abe a292 8fbe 1ad9 fcba
000000d0: 8e15 82bd e52c 203e a058 0f3d 0a5d 6cbe
000000e0: 593f 643e 0e16 5f3e 8e9c acbe c3ad 9abe
000000f0: 9a38 3d3e f91b 383e 0a71 0b3e bda9 a5be

encoder.layers.0.self_attn.out_proj.bias f4 [8]
0.0039610723 0.01610112 -0.0059119225 -0.009017971 -0.0019143261 -0.006320422 -0.005765361 0.00379196
00000000: e2cb 813b 7fe6 833c cdb8 c1bb 1dc0 13bc
00000010: 20ea faba 8b1b cfbb 5aeb bcbb 8882 783b

encoder.layers.0.linear1.weight f4 [32, 8]
0.16838089 -0.22981858 0.16762185 -0.30906624 -0.23559333 -0.3290892 0.18951736 -0.36211112
-0.21301974 -0.18954334 -0.0054005883 0.3116804 -0.16638346 -0.1537755 0.039011512 0.054076083
0.15842459 -0.08734617 -0.09632053 -0.16862002 -0.022324676 0.19518577 0.058328502 0.09299553
0.15245335 0.0037263373 -0.09954199 0.26119626 0.03565436 -0.36608747 -0.24850608 -0.15640025
0.09576455 -0.34484854 -0.24379948 -0.054339938 -0.26071912 -0.10532605 -0.02379502 0.25429928
-0.16606052 0.32578155 0.31441832 -0.113787174 0.2677607 -0.070518985 -0.26315093 0.057444356
0.28267482 0.18690297 -0.28242847 -0.17827219 -0.12622176 -0.32963008 0.27984276 0.30269137
-0.06292647 0.35120818 -0.23639435 0.23166928 -0.14748552 -0.21319064 -0.18531923 -0.28138503
0.21454397 0.16376832 -0.18867226 -0.2334857 -0.062425166 0.13218263 -0.07579252 0.06757468
0.25281647 -0.24817762 -0.28947943 0.30155227 0.013038605 0.25014302 0.067329645 -0.2519928
-0.09197844 0.20180331 0.21675053 -0.11838466 -0.009842792 -0.16437592 -0.13627334 0.13465628
-0.24455371 -0.057992786 0.03803656 0.29190606 -0.072758205 0.05738407 0.20174989 0.25983933
-0.276494 0.1790739 -0.32284102 -0.3033305 -0.030652529 0.3014498 0.1221801 -0.013979432
-0.3176733 0.13888103 0.075943656 -0.111432776 -0.07704995 -0.040481623 0.05212974 -0.28443143
-0.034217868 -0.2866222 0.027291242 -0.043422233 0.16291822 0.13068567 0.30840433 -0.007253398
0.01462075 -0.31972963 -0.13435286 0.27047035 -0.04587336 0.08755783 0.15937223 0.22535779
0.0022435768 -0.13531943 0.17048065 0.23132102 0.23834033 -0.24090375 0.015082868 -0.25517753
-0.058158696 0.29329535 0.114774436 0.056725413 0.15428236 -0.07454082 0.23031619 0.047467917
-0.022443289 -0.32694066 0.07204793 -0.021922817 -0.14681523 -0.16632888 -0.27933773 -0.27509785
-0.33631203 -0.013146404 -0.17172301 -0.08010232 -0.29850945 -0.23063968 0.33438516 -0.25500003
-0.32949528 -0.028218614 -0.12153313 -0.25193882 -0.30333927 0.064371675 -0.34069285 -0.2684039
0.2624221 0.24200098 -0.001364844 -0.12766352 0.017535893 -0.019202692 0.22496663 0.24535657
0.28978726 -0.3539975 0.005854779 0.20644388 0.25811493 -0.16379829 0.09231899 -0.2051455
0.10806772 0.122388095 -0.18051612 -0.106438026 -0.011377633 0.053974777 -0.163465 -0.27308646
0.30842167 -0.16903171 0.01022639 -0.10447475 0.30598384 -0.3471313 -0.048706703 0.10417634
0.23031563 -0.3750421 -0.053925227 0.3432464 0.2703633 -0.29257092 0.20603293 -0.31513613
0.33502522 -0.082950294 0.12581438 0.3264019 0.14880264 0.2087835 0.19011663 -0.22300826
-0.3240017 -0.24751133 0.14445485 -0.3166039 -0.20149021 0.093217194 -0.24067146 0.003211522
-0.10522601 -0.11132079 0.11362305 -0.3476438 -0.09378348 0.3201542 0.28325143 -0.24509014
0.1494138 0.25124356 0.17159656 -0.20015404 0.0023081303 0.28532377 -0.06429568 -0.15394393
-0.16068572 0.030151755 0.112794444 -0.22790317 -0.20690912 0.16895846 0.0090758605 0.27573606
-0.30384687 0.26926914 0.0076056304 0.1784531 0.13806804 -0.12024873 0.3274647 0.022376584
00000000: 0a6c 2c3e 9055 6bbe 10a5 2b3e ee3d 9ebe
00000010: 613f 71be 617e a8be d710 423e a166 b9be
00000020: d921 5abe a617 42be 6bf7 b0bb 9394 9f3e
00000030: 6d60 2abe 5377 1dbe 89ca 1f3d e27e 5d3d
00000040: 0e3a 223e 8ce2 b2bd b343 c5bd baaa 2cbe
00000050: 3de2 b6bc c7de 473e dee9 6e3d 7174 be3d
00000060: bb1c 1c3e 9135 743b acdc cbbd 84bb 853e
00000070: 4e0a 123d d16f bbbe 6178 7ebe 6327 20be
00000080: 3420 c43d fd8f b0be 92a6 79be 8e93 5ebd
00000090: fa7c 85be 2fb5 d7bd c6ed c2bc 8433 823e
000000a0: c50b 2abe d7cc a63e 70fb a03e 4009 e9bd
000000b0: ee17 893e 426c 90bd b8bb 86be c64a 6b3d
000000c0: c1ba 903e 7e63 3f3e 779a 90be fc8c 36be
000000d0: 4740 01be 46c5 a8be 8d47 8f3e 5dfa 9a3e
000000e0: 98df 80bd 8fd1 b33e 5c11 72be b63a 6d3e
000000f0: 7206 17be a64e 5abe 53c4 3dbe b311 90be
00000100: 6ab1 5b3e e2b2 273e 4d33 41be e016 6fbe
00000110: 88b1 7fbd e25a 073e 1c39 9bbd 9864 8a3d
00000120: 2971 813e 4622 7ebe a636 94be 0f65 9a3e
00000130: e09f 553c bf12 803e 20e4 893d 3305 81be
00000140: 315f bcbd 87a5 4e3e daf3 5d3e a873 f2bd
00000150: a943 21bc 2952 28be 3d8b 0bbe 56e3 093e
00000160: 4a6c 7abe d889 6dbd 39cc 1b3d b674 953e
00000170: 4102 95bd 8f0b 6b3d 8697 4e3e a909 853e
00000180: 9f90 8dbe 265f 373e 6b4b a5be 234e 9bbe
00000190: 031b fbbc a157 9a3e 8f39 fa3d fd09 65bc
000001a0: 13a6 a2be d436 0e3e 5988 9b3d de36 e4bd
000001b0: 5dcc 9dbd 0fd0 25bd ff85 553d ffa0 91be
000001c0: 0928 0cbd 25c0 92be e291 df3c 83db 31bd
000001d0: 09d4 263e 77d2 053e 2ce7 9d3e eaad edbb
000001e0: df8b 6f3c 9ab3 a3be cc93 09be 177b 8a3e
000001f0: b4e5 3bbd 8551 b33d 7932 233e 31c4 663e
00000200: f908 133b 2d91 0abe 7b92 2e3e 6bdf 6c3e
00000210: 7d0f 743e 79af 76be 221e 773c a1a6 82be
00000220: d037 6ebd cf2a 963e dc0e eb3d e858 683d
00000230: 32fc 1d3e dca8 98bd 02d8 6b3e b86d 423d
00000240: fdda b7bc c464 a7be dd8d 933d 7b97 b3bc
00000250: bb56 16be 1e52 2abe 5b05 8fbe a0d9 8cbe
00000260: 1731 acbe 0464 57bc 28d8 2fbe af0c a4bd
00000270: 3bd6 98be cf2c 6cbe 8834 ab3e 5d8f 82be
00000280: 9bb3 a8be b92a e7bc 5de6 f8bd 20fe 80be
00000290: 494f 9bbe 4cd5 833d 4b6f aebe 3c6c 89be
000002a0: 315c 863e 1bcf 773e 91e4 b2ba 3aba 02be
000002b0: 6fa7 8f3c f74e 9dbc a75d 663e c13e 7b3e
000002c0: ff5e 943e 293f b5be 72d9 bf3b 0666 533e
000002d0: a427 843e bdba 27be bd11 bd3d a911 52be
000002e0: 9c52 dd3d 9ca6 fa3d 38d9 38be 2efc d9bd
000002f0: 4069 3abc a814 5d3d 5e63 27be fdd1 8bbe
00000300: 72e9 9d3e a616 2dbe 978c 273c dcf6 d5bd
00000310: eaa9 9c3e 32bb b1be ae80 47bd 685a d53d
00000320: dcd7 6b3e 8505 c0be b3e0 5cbd febd af3e
00000330: 0f6d 8a3e dbcb 95be 4cfa 523e 8659 a1be
00000340: 6d88 ab3e d8e1 a9bd 7cd5 003e 261e a73e
00000350: b85f 183e 58cb 553e efad 423e 475c 64be
00000360: 8de3 a5be 9c73 7dbe f9eb 133e e819 a2be
00000370: 7353 4ebe a8e8 be3d 9472 76be 6678 523b
00000380: bc80 d7bd 28fc e3bd 34b3 e83d 5efe b1be
00000390: 8e11 c0bd 40eb a33e 5506 913e e9f8 7abe
000003a0: eeff 183e ffa2 803e 02b7 2f3e 2ef5 4cbe
000003b0: 0044 173b f515 923e 74ad 83bd 7aa3 1dbe
000003c0: cc8a 24be d000 f73c c600 e73d 735f 69be
000003d0: fcdf 53be 7203 2d3e ebb2 143c 472d 8d3e
000003e0: d191 9bbe a5dd 893e a738 f93b 69bc 363e
000003f0: b561 0d3e f744 f6bd 74a9 a73e 194f b73c

encoder.layers.0.linear1.bias f4 [32]
-0.30270147 0.067563154 0.24088313 0.30892828 -0.16637203 -0.062700376 0.032011073 0.20837644
-0.30040133 0.021940053 -0.20670985 -0.06748229 0.2020865 0.24160525 0.25800204 -0.18392918
0.09465955 -0.34148353 0.3075544 -0.17893441 0.3409986 0.11364292 0.07006284 0.17987981
0.33869419 0.048068814 -0.029703213 -0.117029525 -0.23593222 -0.09037429 0.22790074 0.34817883
00000000: b0fb 9abe 8d5e 8a3d 11aa 763e d92b 9e3e
00000010: 6e5d 2abe 0e69 80bd 0b1e 033d a260 553e
00000020: 34ce 99be a0bb b33c bfab 53be 2834 8abd
00000030: c3ef 4e3e 5e67 773e d818 843e ee57 3cbe
00000040: dedc c13d eed6 aebe c577 9d3e 953a 37be
00000050: 5e97 ae3e 9fbd e83d 1b7d 8f3d 6a32 383e
00000060: 5369 ad3e cee3 443d 2754 f3bc 2dad efbd
00000070: 3798 71be 2816 b9bd d05e 693e 7f44 b23e

encoder.layers.0.linear2.weight f4 [8, 32]
-0.14587098 0.03265777 -0.027480261 0.10549711 -0.16974042 -0.019062545 0.13685782 0.03416522
0.045842007 -0.08324877 0.06247162 -0.053623278 -0.012286573 0.034627974 0.052449036 0.15756275
0.025727686 -0.17198622 0.14039898 -0.050560396 -0.028833369 0.003151116 -0.09122394 -0.022651702
-0.084927805 -0.06829138 0.09355717 0.12113077 -0.13267213 0.16910325 -0.16010362 0.07601217
0.041744817 -0.07941435 -0.11816058 0.0037987952 0.041424103 0.045865767 0.16655804 -0.10232302
-0.08339133 0.16573499 0.16519399 -0.027257824 -0.081662305 0.012090522 -0.12824924 -0.09777504
-0.13523023 0.021567896 -0.015466283 0.15543988 -0.09797836 -0.09992338 -0.08254248 0.06901723
0.17551489 0.032307684 -0.026452875 -0.0020396707 -0.023777636 -0.15932992 0.0065919575 -0.092625454
-0.13068557 -0.035594825 -0.17145818 0.051519006 -0.17161714 0.097030155 0.10068367 -0.17205994
-0.018869102 -0.0011317134 0.1733124 0.071144976 0.1331408 0.13770917 -0.107313246 -0.015660074
0.083778046 -0.10276896 0.11051841 0.051759034 0.093060285 0.14443032 0.08996648 -0.07262014
0.010854243 0.12039204 0.10517233 0.12518676 0.01776663 -0.15490589 -0.024905732 -0.02930649
0.09203591 -0.06310995 -0.05734215 -0.18608142 0.12667021 0.025600795 -0.13522263 -0.10586928
0.029088557 0.01136905 0.033623092 -0.050567236 -0.09416398 0.14553858 0.031439323 -0.12206827
-0.005821668 -0.0795594 0.06961586 -0.012631752 -0.16710557 0.025342634 -0.17630135 -0.16168484
-0.088514544 -0.16443212 -0.17072183 0.047144704 0.08091224 0.03303057 0.07720051 0.13298282
-0.16818337 -0.020445278 0.14497954 0.043605737 -0.08525656 0.032465257 0.20057666 -0.00040757656
-0.07558409 -0.14986297 0.092357546 0.14041635 0.11172195 -0.1056484 -0.06667733 0.14734629
-0.06490367 -0.10896364 0.026678767 0.11490809 -0.017188245 0.067351975 0.0786317 -0.14932688
-0.05657303 -0.074212074 -0.024119003 -0.13711576 0.10522322 0.12598358 -0.0034521623 -0.15945126
-0.0667489 -0.09713037 0.123032756 -0.0215503 0.13841312 0.06707503 -0.16398707 -0.12573703
0.12880968 -0.09019535 0.15771234 -0.0988134 -0.048064884 -0.079737276 -0.11328006 -0.051711585
0.00795695 0.08392899 0.01692467 0.07988094 0.037763305 -0.104006425 -0.14666323 0.020835817
-0.027013829 0.07802404 0.170391 -0.023157703 -0.14641893 -0.12999435 0.07502023 -0.17756064
0.13100474 0.025275681 -0.03402738 0.09775015 -0.15285738 -0.12086801 -0.1071689 -0.03939794
-0.17604673 -0.103660695 -0.095828995 0.023094717 -0.119514205 -0.08533198 0.112415 -0.12330535
0.14737059 0.1484979 -0.014573842 0.09556243 -0.14026546 -0.045352515 -0.08126556 -0.16858785
0.01297226 0.0051541138 0.027139183 0.098832 -0.1373143 0.13650526 -0.04779673 0.11748033
-0.106246136 0.02573106 0.13385677 -0.0127634145 0.10004124 0.07541794 0.18662922 -0.13594916
0.034527272 0.13484253 -0.109587245 0.13880618 -0.15939243 0.0942535 0.024923665 0.11407762
0.14787632 -0.13752092 0.014295 0.0670381 0.02046118 0.17994747 0.10096293 0.14814495
-0.0069138026 0.1757069 0.13990285 -0.04359487 0.12125363 0.0028980374 -0.16326979 -0.16566184
00000000: 345f 15be 27c4 053d 491e e1bc de0e d83d
00000010: 6fd0 2dbe 0e29 9cbc 7524 0c3e d4f0 0b3d
00000020: d4c4 3b3d 557e aabd 3ee2 7f3d 15a4 5bbd
00000030: 9f4d 49bc 10d6 0d3d cdd4 563d 2158 213e
00000040: dec2 d23c 281d 30be c0c4 0f3e 6b18 4fbd
00000050: f533 ecbc f482 4e3b 9ed3 babd 1090 b9bc
00000060: a1ee adbd 5adc 8bbd e79a bf3d 6913 f83d
00000070: 34db 07be 6729 2d3e 34f2 23be 45ac 9b3d
00000080: 9dfc 2a3d fea3 a2bd 2dfe f1bd 35f5 783b
00000090: 52ac 293d bedd 3b3d 318e 2a3e bb8e d1bd
000000a0: 13c9 aabd 6fb6 293e 9d28 293e cd4b dfbc
000000b0: 913e a7bd 5317 463c c553 03be 483e c8bd
000000c0: cb79 0abe 28af b03c 4b66 7dbc a22b 1f3e
000000d0: e1a8 c8bd a1a4 ccbd 080c a9bd e858 8d3d
000000e0: 2dba 333e 1055 043d b3b3 d8bc ffab 05bb
000000f0: 51c9 c2bc 6227 23be 5901 d83b 6ab2 bdbd
00000100: 70d2 05be e1cb 11bd bc92 2fbe 9805 533d
00000110: 67bc 2fbe bfb7 c63d 3d33 ce3d 7b30 30be
00000120: 6093 9abc 0056 94ba ce78 313e 75b4 913d
00000130: 1056 083e a203 0d3e 0cc7 dbbd 8e49 80bc
00000140: d393 ab3d 8878 d2bd 7a57 e23d 4801 543d
00000150: 6496 be3d 8be5 133e 5940 b83d deb9 94bd
00000160: ffd5 313c 1a90 f63d 9764 d73d f530 003e
00000170: 538b 913c a69f 1ebe 1b07 ccbc 2a14 f0bc
00000180: 537d bc3d ca3f 81bd 9adf 6abd 218c 3ebe
00000190: d6b5 013e c2b8 d13c cd77 0abe fed1 d8bd
000001a0: 204b ee3c 4045 3a3c 5eb8 093d 971f 4fbd
000001b0: 0bd9 c0bd 1108 153e 85c6 003d eefe f9bd
000001c0: b1c3 bebb 0af0 a2bd c392 8e3d 68f5 4ebc
000001d0: b91d 2bbe 5b9b cf3c 5788 34be b690 25be
000001e0: 1d47 b5bd e560 28be b4d1 2ebe ce1a 413d
000001f0: 51b5 a53d 104b 073d 4d1b 9e3d a62c 083e
00000200: 4338 2cbe db7c a7bc 8475 143e ee9b 323d
00000210: fe9a aebd 4afa 043d f863 4d3e 00b0 d5b9
00000220: d5cb 9abd ae75 19be f425 bd3d 4ec9 0f3e
00000230: 7ace e43d 305e d8bd 208e 88bd f2e1 163e
00000240: 37ec 84bd 5428 dfbd 6e8d da3c ef54 eb3d
00000250: 5dce 8cbc d5ef 893d a809 a13d 25e9 18be
00000260: 1fb9 67bd 80fc 97bd 3795 c5bc 1368 0cbe
00000270: 467f d73d d701 013e ac3d 62bb 3147 23be
00000280: a6b3 88bd 4aec c6bd 99f8 fb3d 418a b0bc
00000290: 2bbc 0d3e a25e 893d 3aec 27be 35c1 00be
000002a0: afe6 033e 57b8 b8bd 587f 213e ae5e cabd
000002b0: afdf 44bd 4c4d a3bd 60ff e7bd 87cf 53bd
000002c0: de5d 023c f6e2 ab3d 9ba5 8a3c 9e98 a33d
000002d0: b2ad 1a3d 5201 d5bd e32e 16be e0af aa3c
000002e0: 1b4c ddbc 11cb 9f3d fa7a 2e3e 39b5 bdbc
000002f0: d8ee 15be 3d1d 05be 35a4 993d 75d2 35be
00000300: 1b26 063e f20e cf3c 4b60 0bbd 3b31 c83d
00000310: a586 1cbe a689 f7bd 5e7b dbbd bc5f 21bd
00000320: 9845 34be 0f4c d4bd fe41 c4bd 2231 bd3c
00000330: ddc3 f4bd 88c2 aebd d639 e63d 8487 fcbd
00000340: 51e8 163e d50f 183e 20c7 6ebc 3cb6 c33d
00000350: c0a1 0fbe 8fc3 39bd 8f6e a6bd 4ba2 2cbe
00000360: 9a89 543c d7e3 a83b fe52 de3c 6e68 ca3d
00000370: 1f9c 0cbe 09c8 0b3e 81c6 43bd 8799 f03d
00000380: 9397 d9bd f2c9 d23c c011 093e a41d 51bc
00000390: 6ce2 cc3d b974 9a3d bb1b 3f3e 4236 0bbe
000003a0: 786c 0d3d 2914 0a3e 476f e0bd 3523 0e3e
000003b0: c537 23be fb07 c13d b72c cc3c 87a1 e93d
000003c0: e46c 173e 49d2 0cbe 9335 6a3c 454b 893d
000003d0: 349e a73c 2644 383e a7c5 ce3d 4fb3 173e
000003e0: 2e8d e2bb 82ec 333e b142 0f3e 8990 32bd
000003f0: d353 f83d 00ed 3d3b 3230 27be 42a3 29be

encoder.layers.0.linear2.bias f4 [8]
-0.08584582 0.0065948833 -0.10993127 -0.030291334 0.088968776 0.07360936 -0.066037476 0.15879492
00000000: efcf afbd e419 d83b a523 e1bd 8825 f8bc
00000010: 4335 b63d 81c0 963d a83e 87bd 239b 223e

encoder.layers.0.norm1.weight f4 [8]
1.0023899 0.97780293 1.0034565 0.9905262 1.0039214 1.0098516 0.9935791 1.004798
00000000: 504e 803f 4b51 7a3f 4371 803f 2093 7d3f
00000010: 7f80 803f d142 813f 335b 7e3f 399d 803f

encoder.layers.0.norm1.bias f4 [8]
0.0033967104 0.026111979 -0.009241674 -0.008190833 0.00028145796 -0.0075205327 -0.0032547861 0.0040740757
00000000: 589b 5e3b cae8 d53c 646a 17bc d832 06bc
00000010: a690 9339 cd6e f6bb 404e 55bb d37f 853b

encoder.layers.0.norm2.weight f4 [8]
1.0064069 0.9828223 1.0185179 0.9962638 1.0053287 1.0038769 0.9946366 1.0048221
00000000: f1d1 803f 3e9a 7b3f cb5e 823f 250b 7f3f
00000010: 9cae 803f 0a7f 803f 81a0 7e3f 039e 803f

encoder.layers.0.norm2.bias f4 [8]
-0.0011537344 0.019434297 -0.0022921332 -0.0034569495 -0.0004693081 -0.0025009776 -0.0038329537 0.0035681904
00000000: e738 97ba ad34 9f3c 9d37 16bb fd8d 62bb
00000010: 780d f6b9 71e7 23bb 4b32 7bbb 4dd8 693b

encoder.layers.1.self_attn.in_proj_weight f4 [24, 8]
0.3640137 -0.047599133 -0.42364153 0.2750287 0.056530815 -0.35318112 0.3272508 -0.38300464
-0.21647237 -0.007047607 -0.42420274 0.25566873 -0.13040958 -0.24629574 0.37356034 -0.24539131
0.07224667 -0.1611615 0.35343716 0.16408716 -0.38005307 0.034154713 -0.34395352 0.21730258
0.023636155 -0.09511875 0.2918532 -0.42231312 0.33133513 -0.09783973 -0.012482029 -0.31255835
0.20699728 0.4027499 0.21533698 -0.33203697 -0.11718537 0.42555267 0.33200136 -0.33035544
0.013848273 0.36982992 0.0076029245 0.0040390026 0.18323238 -0.17190431 -0.23853423 0.3043939
-0.13218884 -0.2610559 0.3124644 -0.272232 0.14389622 -0.10086007 -0.13757917 0.07772121
0.19070344 -0.22486386 0.09536065 -0.007492298 -0.061433747 -0.35531127 -0.30113488 -0.22540312
0.12147095 -0.26920256 -0.0043339194 0.19090502 0.27166432 0.3776076 0.20178205 0.07387468
-0.3666401 0.27490842 -0.093346834 0.37485665 0.1234901 -0.0022782385 0.07184564 -0.1341099
-0.08402378 -0.17713553 0.14048629 0.16068318 -0.24834166 -0.007855427 -0.14882003 -0.19229718
-0.11864945 0.28573155 -0.020378092 0.08534426 -0.041394446 0.38656488 -0.31371558 -0.017836584
0.25662175 -0.110998236 0.30685973 -0.22514842 -0.38494825 -0.08820837 -0.32839212 -0.23489408
-0.18785076 -0.17051421 0.27321458 0.38083035 0.010831699 0.29470465 0.29397032 0.309102
0.13106453 0.19582039 -0.23029588 0.38942558 -0.24909192 0.057277303 0.03177071 -0.19534196
0.09573799 0.07510442 -0.3896338 -0.346053 -0.10519636 -0.39597273 0.3769052 0.37342122
0.07175311 0.069724284 0.37697002 -0.35746208 -0.1159411 0.07128795 0.047190394 0.028315436
-0.047546227 -0.39479342 0.3411129 -0.33340266 0.28032905 -0.018289464 -0.19804952 -0.11714374
0.20613503 0.4104418 -0.3871727 -0.3120165 0.28728548 0.21484268 0.1397691 -0.26219985
0.34609228 -0.17128478 0.3212806 -0.088182695 -0.4151669 -0.041889276 0.12320406 0.05813132
0.39327472 0.38920653 -0.27618095 -0.21870409 0.26129055 -0.38387865 -0.025736732 -0.01882678
0.22476213 0.3935661 -0.22947825 -0.40398258 -0.17953752 0.105270095 -0.28116488 -0.053402953
0.22908144 0.24516337 -0.29741898 -0.074225165 0.22710444 0.06165517 0.26199692 -0.18987165
-0.1581937 -0.42292872 -0.39306682 0.35161248 -0.121997274 0.1451278 -0.4172838 -0.08473253
00000000: 0160 ba3e 4ff7 42bd 8be7 d8be 90d0 8c3e
00000010: db8c 673d 28d4 b4be 6b8d a73e 2f19 c4be
00000020: efaa 5dbe 9def e6bb 1a31 d9be 03e7 823e
00000030: 178a 05be f334 7cbe 4d43 bf3e dc47 7bbe
00000040: 10f6 933d 8507 25be b7f5 b43e 7706 283e
00000050: 5196 c2be d0e5 0b3d ad1a b0be 9184 5e3e
00000060: 9ca0 c13c 9fcd c2bd c86d 953e 6d39 d8be
00000070: c2a4 a93e 3260 c8bd 6d81 4cbc a607 a0be
00000080: 18f7 533e 3c35 ce3e 4c81 5c3e c000 aabe
00000090: e2fe efbd 0ae2 d93e 15fc a93e 5924 a9be
000000a0: dee3 623c 595a bd3e f421 f93b 9c59 843b
000000b0: 45a1 3b3e af07 30be 5142 74be 84d9 9b3e
000000c0: 835c 07be 1ea9 85be 55fb 9f3e fe61 8bbe
000000d0: 8859 133e b98f cebd 8ee1 0cbe 4c2c 9f3d
000000e0: c347 433e b642 66be 724c c33d f381 f5bb
000000f0: f4a1 7bbd 5ceb b5be 5a2e 9abe 13d0 66be
00000100: c3c5 f83d ebd4 89be 8d03 8ebb 9b7c 433e
00000110: 9617 8b3e c955 c13e f49f 4e3e 9c4b 973d
00000120: 40b8 bbbe ccc0 8c3e a02c bfbd 36ed bf3e
00000130: 61e8 fc3d 804e 15bb cf23 933d 1b54 09be
00000140: a914 acbd 0463 35be a3db 0f3e 228a 243e
00000150: 474d 7ebe 0db4 00bc 4764 18be 8de9 44be
00000160: 7cfe f2bd 684b 923e f5ef a6bc f9c8 ae3d
00000170: 398d 29bd d5eb c53e 549f a0be 071e 92bc
00000180: ed63 833e 0b53 e3bd b81c 9d3e 4f8d 66be
00000190: f017 c5be 97a6 b4bd 0323 a8be 1388 70be
000001a0: f35b 40be 479b 2ebe c8e2 8b3e 32fc c23e
000001b0: 7077 313c 87e3 963e 4783 963e 9e42 9e3e
000001c0: c835 063e 2485 483e afd2 6bbe ca62 c73e
000001d0: f411 7fbe 9b9b 6a3d 0122 023d b907 48be
000001e0: 4812 c43d 59d0 993d 157e c7be dc2d b1be
000001f0: 3071 d7bd f0bc cabe b8f9 c03e 1131 bf3e
00000200: 4bf3 923d 9bcb 8e3d 3702 c13e 4505 b7be
00000210: 8772 edbd 6bff 913d b74a 413d c6f5 e73c
00000220: d5bf 42bd 5d22 cabe 5aa6 ae3e c1b3 aabe
00000230: 4a87 8f3e c9d3 95bc 7ecd 4abe 0fe9 efbd
00000240: 1015 533e 6d25 d23e 803b c6be a0c0 9fbe
00000250: 1517 933e b8ff 5b3e a21f 0f3e 0f3f 86be
00000260: 0233 b13e 4765 2fbe e47e a43e 2199 b4bd
00000270: c290 d4be 1794 2bbd 6952 fc3d 1b1b 6e3d
00000280: 4e5b c93e 1446 c73e 9767 8dbe f7f3 5fbe
00000290: e0c7 853e be8b c4be d7d5 d2bc 9f3a 9abc
000002a0: 0b28 663e 7f81 c93e 59fc 6abe ced6 cebe
000002b0: afd8 37be d997 d73d d8f4 8fbe 0ebd 5abd
000002c0: 5394 6a3e 1b0c 7b3e 4d47 98be 5d03 98bd
000002d0: 118e 683e 228a 7c3d 7624 863e b76d 42be
000002e0: 87fd 21be 1d8a d8be 0e40 c9be 8d06 b43e
000002f0: b5d9 f9bd 629c 143e 39a6 d5be 4088 adbd

encoder.layers.1.self_attn.in_proj_bias f4 [24]
-0.00026979783 -0.005204311 0.0017348727 -0.007558883 0.0040137544 -0.005097035 -0.003926258 0.006223843
-1.7944092e-06 8.9623865e-07 2.1065798e-06 -1.2009805e-06 5.475066e-06 6.5216517e-07 -2.8280965e-06 1.8074392e-08
0.007841726 0.0017522501 0.0017434696 0.0047687497 -0.0017040921 0.012784036 -0.00246595 -0.002495286
00000000: a773 8db9 ed88 aabb ab64 e33a 82b0 f7bb
00000010: d085 833b 0705 a7bb d7a7 80bb 61f1 cb3b
00000020: 6ed7 f0b5 0d95 7035 c45e 0d36 6031 a1b5
00000030: 75b6 b736 7310 2f35 54ca 3db6 0242 9b32
00000040: 957a 003c c2ab e53a 2285 e43a 2c43 9c3b
00000050: d85b dfba 2274 513c c79b 21bb f487 23bb

encoder.layers.1.self_attn.out_proj.weight f4 [8, 8]
0.079518214 0.10420185 0.34134534 0.06562349 -0.094871156 -0.05463048 0.037322406 0.2459674
0.07264584 -0.019841172 0.049351938 0.2811418 -0.20458205 0.22266142 -0.062045075 -0.15037328
0.18096581 -0.014706855 0.007952532 -0.3456405 0.07548092 -0.11154034 0.3134606 -0.09413348
0.25286993 -0.18878876 -0.07293331 -0.13428435 0.2435756 -0.014919447 -0.11044622 -0.30518815
0.1632618 0.14681946 0.07856837 0.26309833 0.14080425 0.2498963 -0.3372341 0.24657397
-0.14235584 0.15007204 0.05253846 -0.038728103 0.28638893 0.15387481 -0.06407547 0.026104996
-0.012068389 -0.26975933 -0.27869114 -0.0028022155 -0.06155069 0.15758987 0.036485467 -0.2338458
0.2246695 0.21529715 -0.33706605 -0.30299634 0.18131454 0.177872 0.1334585 -0.32110435
00000000: 72da a23d c867 d53d d1c4 ae3e 9c65 863d
00000010: cf4b c2bd 36c4 5fbd 61df 183d e1de 7b3e
00000020: 58c7 943d f489 a2bc 4225 4a3d d1f1 8f3e
00000030: f57d 51be 5b01 643e fa22 7ebd 74fb 19be
00000040: 1a4f 393e 05f5 70bc 564b 023c cbf7 b0be
00000050: be95 9a3d 436f e4bd e87d a03e 0ec9 c0bd
00000060: 2b78 813e d751 41be 0f5e 95bd d681 09be
00000070: e26b 793e b270 74bc a131 e2bd 9f41 9cbe
00000080: 1a2e 273e d757 163e 74e8 a03d d3b4 863e
00000090: fd2e 103e d1e4 7f3e f3a9 acbe e37d 7c3e
000000a0: bbc5 11be 7cac 193e 9132 573d 5ca1 1ebd
000000b0: 92a1 923e 5c91 1d3e 003a 83bd 25da d53c
000000c0: 7eba 45bc e51d 8abe 9bb0 8ebe 60a5 37bb
000000d0: 941c 7cbd 3d5f 213e c971 153d 4675 6fbe
000000e0: c30f 663e db76 5c3e ec93 acbe 5622 9bbe
000000f0: 85aa 393e 1424 363e 58a9 083e ca67 a4be

encoder.layers.1.self_attn.out_proj.bias f4 [8]
-0.0036784816 0.03609898 -0.0001489384 1.7789732e-07 0.0016989468 -0.0006125792 -0.0072033266 0.003628261
00000000: ae12 71bb 86dc 133d 592c 1cb9 0b04 3f34
00000010: 32af de3a 7f95 20ba e209 ecbb 1ec8 6d3b

encoder.layers.1.linear1.weight f4 [32, 8]
0.16657482 -0.23495972 0.17353766 -0.30184972 -0.24153335 -0.33457613 0.19528095 -0.35840154
-0.22696188 -0.19969642 0.009290308 0.31886017 -0.1842882 -0.16241214 0.047877017 0.06544727
0.15778615 -0.087233536 -0.10397376 -0.17220828 -0.012255308 0.19598696 0.05698489 0.096954934
0.16885082 0.025030972 -0.11535109 0.23889773 0.035456672 -0.34396744 -0.2682376 -0.17735295
0.089388356 -0.3511143 -0.24564187 -0.045976523 -0.2519361 -0.11377871 -0.017186876 0.26243904
-0.15594134 0.3290534 0.3162495 -0.11618005 0.26570156 -0.0638738 -0.27027294 0.0453455
0.29557106 0.20198856 -0.29602802 -0.19250637 -0.12156913 -0.31484628 0.26652184 0.2875915
-0.06292797 0.35120758 -0.23639396 0.23167023 -0.14748593 -0.21319224 -0.18531813 -0.2813834
0.21454397 0.16376832 -0.18867226 -0.2334857 -0.062425166 0.13218263 -0.07579252 0.06757468
0.25925756 -0.24310523 -0.2885402 0.29755172 0.013578971 0.25408974 0.06220963 -0.25834972
-0.06843492 0.21548006 0.20392764 -0.13465756 -0.0025706792 -0.15075286 -0.15356593 0.11676557
-0.24200001 -0.054044545 0.037399642 0.28462508 -0.073964104 0.06550321 0.19596626 0.2549006
-0.2794954 0.18078007 -0.32258528 -0.30155787 -0.031929 0.29746073 0.12408536 -0.012003177
-0.35057968 0.109275274 0.091789514 -0.08549701 -0.0940894 -0.06704933 0.081532285 -0.25357646
-0.06255343 -0.31346858 0.04571848 -0.01941574 0.14094259 0.09725147 0.33912638 0.024126897
0.011253837 -0.32017845 -0.13307504 0.2683878 -0.051818065 0.088829406 0.15908816 0.22657749
-0.020587895 -0.15918258 0.20384811 0.24979337 0.2312422 -0.26675135 0.03573858 -0.22955221
-0.039689537 0.3083055 0.10199412 0.042556792 0.1606491 -0.055212345 0.21152875 0.029022641
-0.033750284 -0.32292292 0.06285168 -0.025200816 -0.13691829 -0.16846347 -0.27922648 -0.2703074
-0.29512623 0.01355946 -0.19533259 -0.098506406 -0.2982281 -0.20533225 0.31177637 -0.29091135
-0.32472208 -0.024598783 -0.123297654 -0.2562396 -0.30167302 0.06873007 -0.34418452 -0.27303454
0.2598806 0.24013783 -0.003874324 -0.12663347 0.015018769 -0.02047071 0.22750884 0.24793279
0.29598594 -0.34569114 0.0024543316 0.19719902 0.25899157 -0.1548972 0.08425166 -0.21380317
0.10806772 0.122388095 -0.18051612 -0.106438026 -0.011377633 0.053974777 -0.163465 -0.27308646
0.3390687 -0.15605587 0.008800543 -0.10972543 0.30457094 -0.33196676 -0.06549757 0.07813149
0.2617054 -0.34692264 -0.0653294 0.31218985 0.28883913 -0.2696249 0.18079889 -0.34680474
0.33055025 -0.08028565 0.12334892 0.32287765 0.15134828 0.21212201 0.18797615 -0.22407675
-0.33530372 -0.26260644 0.1534958 -0.29935858 -0.2035079 0.07264715 -0.22400415 0.020112492
-0.10688895 -0.11423889 0.11486912 -0.3459096 -0.0943202 0.31998724 0.2839522 -0.24324363
0.1494138 0.25124356 0.17159656 -0.20015404 0.0023081303 0.28532377 -0.06429568 -0.15394393
-0.15818292 0.02968501 0.11253456 -0.2250744 -0.19856778 0.16631481 0.009986283 0.27586302
-0.30247548 0.2686008 0.007834847 0.17994252 0.13877717 -0.12315815 0.32923734 0.023147441
00000000: 9792 2a3e 4899 70be dbb3 313e 0c8c 9abe
00000010: 8554 77be 904d abbe bbf7 473e 6880 b7be
00000020: b268 68be 387d 4cbe 6036 183c a441 a33e
00000030: 0cb6 3cbe 5e4f 26be b11a 443d 3809 863d
00000040: b192 213e 7fa7 b2bd 32f0 d4bd 5e57 30be
00000050: 7dca 48bc ceb0 483e fd68 693d 4f90 c63d
00000060: 3be7 2c3e c10d cd3c 313d ecbd 9ba1 743e
00000070: 043b 113d 801c b0be 7056 89be 039c 35be
00000080: 3e11 b73d 41c5 b3be 8b89 7bbe e151 3cbd
00000090: c5fd 80be d004 e9bd 7ecb 8cbc 695e 863e
000000a0: 16af 1fbe b079 a83e 74eb a13e ceef edbd
000000b0: 090a 883e 44d0 82bd 3761 8abe 34bc 393d
000000c0: 1755 973e 17d6 4e3e fc90 97be 6420 45be
000000d0: 3cf9 f8bd 8833 a1be 8d75 883e 313f 933e
000000e0: 61e0 80bd 7bd1 b33e 4211 72be f63a 6d3e
000000f0: 8d06 17be 114f 5abe 09c4 3dbe 7c11 90be
00000100: 6ab1 5b3e e2b2 273e 4d33 41be e016 6fbe
00000110: 88b1 7fbd e25a 073e 1c39 9bbd 9864 8a3d
00000120: 68bd 843e 94f0 78be 8bbb 93be b358 983e
00000130: 557a 5e3c 0d18 823e 86cf 7e3d 6a46 84be
00000140: 9b27 8cbd cea6 5c3e 68d2 503e ace3 09be
00000150: d778 28bb f55e 1abe 6340 1dbe ca22 ef3d
00000160: dace 77be d05d 5dbd 5e30 193d 61ba 913e
00000170: 7e7a 97bd 8c26 863d 61ab 483e 5582 823e
00000180: 051a 8fbe 691e 393e e629 a5be cb65 9abe
00000190: fcc7 02bd c64c 983e 7720 fe3d f9a8 44bc
000001a0: 2e7f b3be b7cb df3d 24fc bb3d 0e19 afbd
000001b0: f1b1 c0bd 2951 89bd 66fa a63d c6d4 81be
000001c0: 031c 80bd f47e a0be 4d43 3b3d c20d 9fbc
000001d0: 4153 103e c72b c73d f9a1 ad3e c5a5 c53c
000001e0: 0362 383c 6eee a3be d344 08be 206a 893e
000001f0: 2e3f 54bd 31ec b53d 02e8 223e ee03 683e
00000200: f2a7 a8bc c200 23be 8fbd 503e d5c9 7f3e
00000210: c1ca 6c3e a293 88be 9e62 123d bc0f 6bbe
00000220: 7f91 22bd 38da 9d3e 4be2 d03d 0850 2e3d
00000230: 3381 243e 5726 62bd fe9a 583e e4c0 ed3c
00000240: bd3d 0abd 2756 a5be 62b8 803d f171 cebc
00000250: 4f34 0cbe b081 2cbe c6f6 8ebe bb65 8abe
00000260: c91a 97be 7f28 5e3c 4405 48be babd c9bd
00000270: 5bb1 98be 9e42 52be 27a1 9f3e 55f2 94be
00000280: f941 a6be 6383 c9bc 7b83 fcbd d631 83be
00000290: e374 9abe 5ac2 8c3d f438 b0be 2fcb 8bbe
000002a0: 120f 853e b1e6 753e 5fe8 7dbb 34ac 01be
000002b0: 4811 763c 31b2 a7bc 14f8 683e 18e2 7d3e
000002c0: 788b 973e 6efe b0be dad8 203b 8aee 493e
000002d0: 8b9a 843e 5f9d 1ebe 228c ac3d 38ef 5abe
000002e0: 9c52 dd3d 9ca6 fa3d 38d9 38be 2efc d9bd
000002f0: 4069 3abc a814 5d3d 5e63 27be fdd1 8bbe
00000300: 6a9a ad3e 1ccd 1fbe 2730 103c bab7 e0bd
00000310: b9f0 9b3e 8cf7 a9be 9723 86bd 6703 a03d
00000320: 40fe 853e d89f b1be 6ccb 85bd 59d7 9f3e
00000330: b9e2 933e 460c 8abe 5823 393e 6490 b1be
00000340: e23d a93e ce6c a4bd 5c9e fc3d 3850 a53e
00000350: 0bfb 1a3e 8336 593e d27c 403e 6074 65be
00000360: eeac abbe 5a74 86be 012e 1d3e 8745 99be
00000370: 6064 50be 07c8 943d 5861 65be f4c2 a43c
00000380: 98e8 dabd 14f6 e9bd 8040 eb3d 101b b1be
00000390: f32a c1bd 5ed5 a33e 2f62 913e dc14 79be
000003a0: eeff 183e ffa2 803e 02b7 2f3e 2ef5 4cbe
000003b0: 0044 173b f515 923e 74ad 83bd 7aa3 1dbe
000003c0: b4fa 21be fa2d f33c 8578 e63d e779 66be
000003d0: 5a55 4bbe 6e4e 2a3e 829d 233c eb3d 8d3e
000003e0: 11de 9abe 0b86 893e bb5d 003c da42 383e
000003f0: 9a1b 0e3e 573a fcbd cc91 a83e b49f bd3c

encoder.layers.1.linear1.bias f4 [32]
-0.29846695 0.07916313 0.24258395 0.28823993 -0.1595331 -0.07119567 0.017637968 0.20837757
-0.30040133 0.016886596 -0.22354975 -0.072230235 0.20378801 0.27320182 0.28832608 -0.1827476
0.118963726 -0.35902527 0.30969948 -0.20963933 0.33681047 0.116097435 0.062426742 0.17987981
0.31827238 0.019698212 -0.031859845 -0.10100944 -0.23367263 -0.09037429 0.227715 0.3487961
00000000: a9d0 98be 4720 a23d ed67 783e 2f94 933e
00000010: a55c 23be 09cf 91bd 807d 903c ee60 553e
00000020: 34ce 99be c255 8a3c 3aea 64be 72ed 93bd
00000030: cead 503e 1ce1 8b3e 7a9f 933e 3022 3bbe
00000040: 41a3 f33d 29d2 b7be ee90 9e3e b1ab 56be
00000050: 6c72 ac3e 7ec4 ed3d 2fb3 7f3d 6a32 383e
00000060: 99f4 a23e 255e a13c 787f 02bd 0ade cebd
00000070: e147 6fbe 2816 b9bd 1f2e 693e 6795 b23e
