models/ts_views_models/ts-v15.ckpt (torch, 330768 bytes, 201 tensors)

input_pos_embedding.weight f4 [1024, 8]
0	0x3f007436	0.50177324
1	0xbe00a7f1	-0.12564065
2	0x3f629d41	0.885212
3	0x3f66d14a	0.901631
4	0x3f37fbc5	0.71868545
5	0x3df81ffb	0.12115475
6	0xbf0676b8	-0.525249
7	0xbe80383a	-0.25042897
8	0xbf2a3b4a	-0.6649672
9	0xbf834dee	-1.0258157
10	0xbf145fa3	-0.5795843
11	0x3f28e5ac	0.6597545
12	0xbe8f6010	-0.28002977
13	0xbf53eb42	-0.8278085
14	0xbe2a0f10	-0.16607308
15	0xbfb558e6	-1.4167755
16	0xbe97ef25	-0.2967464
17	0x3fa9a41b	1.3253206
18	0xc000e42d	-2.0139267
19	0x3f3838a7	0.71961445
20	0x3eaf4281	0.34230426
21	0x3f91c78b	1.1389021
22	0x3f3c2d24	0.7350638
23	0x3ea091f6	0.3136136
24	0xbef6a4cf	-0.48172614
25	0x4002a075	2.0410435
26	0x3d1b0db2	0.037854858
27	0x3ed58f74	0.4171101
28	0x3ef2b517	0.47403786
29	0x3d3c1654	0.04591973
30	0xbf94015d	-1.1562916
31	0x3f1f11c9	0.62136513
32	0x3ec43a29	0.38325623
33	0x3f0c5e57	0.5483145
34	0xbeee14cd	-0.46500245
35	0x3f346418	0.7046523
36	0xbf545953	-0.829488
37	0xbf74ef48	-0.95677614
38	0xbee779a4	-0.45209992
39	0x3d7c1b60	0.061549544
40	0x3f3b0915	0.73060733
41	0xbfb2e278	-1.3975363
42	0xbe3650ff	-0.17804335
43	0x3fe21e89	1.7665569
44	0x3cf22b53	0.029561674
45	0x3ef2a3a8	0.47390485
46	0xbf1892b7	-0.5959887
47	0xbf69119f	-0.9104251
48	0x3a601fd7	0.00085496664
49	0xbfee6677	-1.862502
50	0xbd8e23e3	-0.069404386
51	0x3fb39228	1.4028978
52	0xbf9eba71	-1.2400647
53	0xbfff3f58	-1.9941206
54	0xbeed6588	-0.46366525
55	0x3ea11a4a	0.3146537
56	0xbf0dda34	-0.55411077
57	0xbf46518b	-0.77468175
58	0x3e6f1c36	0.23350605
59	0x3f167759	0.5877586
60	0x3decd55a	0.11564131
61	0xbfc5fb8c	-1.5467391
62	0x3f879355	1.0591837
63	0x3f1a7b8c	0.6034477
64	0x3f36c20c	0.7138984
65	0x3c3f72b0	0.0116850585
66	0x3f08e61a	0.5347611
67	0xbf27a0ec	-0.6547992
68	0x404df009	3.2177756
69	0x3fd6b3dc	1.6773639
70	0x3e855e7c	0.26048648
71	0x3f325c50	0.6967211
72	0x3fdbf055	1.7182719
73	0xbf6ff09f	-0.93726534
74	0xbe4352f1	-0.19074608
75	0x3f0b59a7	0.54433674
76	0x3efa4693	0.4888197
77	0xbe4b65f2	-0.19863108
78	0x40005415	2.005132
79	0x40005a5a	2.0055146
80	0x3f5b444a	0.85651076
81	0x3edacbb5	0.4273354
82	0xbf1944f2	-0.5987083
83	0x3f3dc218	0.7412429
84	0x3f1cb7cc	0.6121795
85	0x3f470316	0.77739084
86	0xbf72344f	-0.94611067
87	0x3e91c38e	0.2846951
88	0x3f5e7bdd	0.8690775
89	0xbf8327d4	-1.024653
90	0x3f7d8238	0.99026823
91	0xbf93f031	-1.1557676
92	0xbe6cdb49	-0.23130526
93	0xbf0ee369	-0.5581575
94	0x3fe3aa40	1.7786331
95	0xbfadf8d0	-1.3591557
96	0xbe52101e	-0.2051396
97	0xbfb83188	-1.4390116
98	0x3f82436d	1.0176827
99	0xbf8e0324	-1.1094708
100	0xbfcfbfd7	-1.623042
101	0xbfab24dd	-1.3370625
102	0x3fab8ef6	1.3403003
103	0x3eb78e4c	0.3585075
104	0x3f27d0a4	0.65552735
105	0x3fe2ff04	1.7734075
106	0xbda5945c	-0.08084938
107	0x3f8a4769	1.0803043
108	0x3e5db2e3	0.21650271
109	0x3ac5b29b	0.0015083136
110	0xc0124d40	-2.285965
111	0xbfb891a1	-1.4419442
112	0xbf04b699	-0.5184112
113	0x3f18678e	0.5953301
114	0xbe226c32	-0.15861586
115	0xbf45ce33	-0.7726776
116	0x3f3c8c87	0.7365193
117	0xbe73359e	-0.23750922
118	0x3f3804ca	0.7188231
119	0xbff32b81	-1.8997651
120	0x3f207e9b	0.62693185
121	0x3eb6d5a4	0.3570987
122	0xbe981613	-0.2970434
123	0x3f8e0be6	1.1097381
124	0xbeb15dc5	-0.34641853
125	0x3f8525a1	1.0402108
126	0x3ed7a173	0.42115363
127	0x3e582b4c	0.21110266
128	0xbefead5d	-0.4974164
129	0xc021ebfd	-2.5300286
130	0x3e8e9725	0.2784969
131	0x3fdd0b04	1.7268987
132	0xbef08d89	-0.46982983
133	0x3f2a749b	0.66584176
134	0x3e84f732	0.25969845
135	0x3b095a6d	0.002095844
136	0x3f8b714a	1.0893948
137	0xbf57a6df	-0.84239
138	0xbfccad2c	-1.5990348
139	0x3f093cc9	0.53608376
140	0x3dcd3620	0.10020089
141	0x3f2bbcfe	0.67085254
142	0x3ed1bfaa	0.4096654
143	0xbd81585e	-0.06315683
144	0xbef82644	-0.48466694
145	0x3f276bc9	0.6539884
146	0x3d043284	0.032274738
147	0xbed1fd35	-0.41013494
148	0x3eb02826	0.3440563
149	0x3d91efa5	0.07125787
150	0xbf67175d	-0.90270025
151	0xbfe4768e	-1.784868
152	0xbe2abe42	-0.1667414
153	0xbefebf59	-0.49755362
154	0x3fab51a0	1.3384285
155	0x3fd4b041	1.6616288
156	0xbf830be8	-1.0238008
157	0xbee439c9	-0.44575337
158	0x3d6d583a	0.057945468
159	0xbf93c0bd	-1.1543194
160	0xbfde73bf	-1.7379073
161	0xbdffc77a	-0.12489219
162	0xbe07aaf8	-0.13248813
163	0x3eac0657	0.33598587
164	0xbc90cce7	-0.01767583
165	0x3ff7947a	1.9342186
166	0x3ef76072	0.4831577
167	0xbf7d1ff1	-0.98876864
168	0xbe931a67	-0.2873108
169	0xbf36961f	-0.71322817
170	0x3c89d239	0.016823875
171	0x3eeb3095	0.45935503
172	0xbd01f03b	-0.031723242
173	0x3f329cd0	0.69770527
174	0x3fa4d11d	1.2876316
175	0x3f08b87c	0.534065
176	0x3fb3116b	1.398969
177	0x3f12eb48	0.5739026
178	0x3ecd1ac1	0.40059474
179	0x3e97a792	0.29620034
180	0x3f738b9a	0.9513489
181	0x3fb93074	1.4467912
182	0x3f276286	0.6538471
183	0xbe45a777	-0.19302164
184	0x3ea7a7b4	0.32745135
185	0x3f76c7b0	0.9639845
186	0xbea4a7ad	-0.32159176
187	0x400e114c	2.2198057
188	0x38933902	7.020125e-05
189	0x3fbea580	1.4894257
190	0xbfa16925	-1.2610213
191	0x3eb0f129	0.3455899
192	0x3d1d6abe	0.038431875
193	0x3f0d5a78	0.5521617
194	0xbf8324b6	-1.0245578
195	0x3ed5cefc	0.4175948
196	0x3f3a3c56	0.72748315
197	0xbd7ca93d	-0.061684836
198	0x3f885678	1.0651388
199	0xbf61746f	-0.8806829
200	0xbf3419ec	-0.70352054
201	0xbe841b61	-0.25802138
202	0xbf364786	-0.71202886
203	0x3f80b695	1.005572
204	0xbf5e725a	-0.86893237
205	0x3e9f8f13	0.31163844
206	0x3f5c3345	0.8601573
207	0xbf97dfbe	-1.1865156
208	0x3f6ca1ff	0.92434686
209	0x3df93045	0.1216741
210	0xbeb9d15a	-0.36292535
211	0x400b1f5f	2.1737897
212	0xbf8ae42e	-1.0850885
213	0xc047b076	-3.1201453
214	0x3f4c632d	0.7983883
215	0x3f132ec4	0.57493234
216	0xbf4fa7e9	-0.81115586
217	0x3e9f7dc2	0.31150633
218	0xbf1e77ec	-0.61901736
219	0x3ec8fa34	0.3925339
220	0xbf86ba38	-1.052558
221	0xbe9b2509	-0.30301693
222	0x3f5695a7	0.838221
223	0xbf6fab1e	-0.9362048
224	0x3f9d27f5	1.2277819
225	0xbf22ea7b	-0.6363904
226	0x3fe99fd1	1.8251897
227	0x3f1a46a5	0.60264045
228	0x3f340341	0.70317465
229	0x3e70ff27	0.23534833
230	0xbf32d5cb	-0.6985747
231	0xbf5b1ecf	-0.85593885
232	0xbf90dcc5	-1.1317374
233	0xbfa566c1	-1.2921983
234	0xbf571068	-0.8400941
235	0x3f4248ae	0.7589215
236	0xbf31b146	-0.6941112
237	0xbee5b917	-0.44867775
238	0xbe37f3d7	-0.17964111
239	0x3d908ba2	0.07057883
240	0x3f14f56b	0.5818698
241	0xbfc66f3b	-1.5502695
242	0xbf06ad89	-0.52608544
243	0xbed2426e	-0.41066307
244	0x3f404e55	0.75119525
245	0xbd73fc62	-0.059566863
246	0xbf574f01	-0.84104925
247	0xbff60c33	-1.9222473
248	0xbd8675a1	-0.06565405
249	0xbf7b1bd2	-0.98089325
250	0x3f820e9c	1.0160708
251	0xbf3c1ba1	-0.7347966
252	0xbf308d89	-0.68965966
253	0xbd0ad366	-0.03389301
254	0x3e1fe571	0.15614869
255	0xbf1e87ab	-0.6192576

target_pos_embedding.weight f4 [1024, 8]
0	0xbf14f987	-0.5819325
1	0xbeaa4cb3	-0.33261642
2	0xbf87a58f	-1.05974
3	0xbe6da54b	-0.23207586
4	0x3f1ea80a	0.6197516
5	0x3e36dfe8	0.17858851
6	0xbe490d38	-0.19633949
7	0xba7de9c1	-0.0009686016
8	0xbeaa12a8	-0.3321736
9	0x3eb99474	0.36246073
10	0x3f9669e8	1.175107
11	0x3ef6be9d	0.481923
12	0x3f02482a	0.50891364
13	0x3ec507ef	0.38482615
14	0x3f1013ac	0.56280017
15	0x3f73b26e	0.9519414
16	0x3eaf202f	0.34204242
17	0x3f0bc005	0.54589874
18	0x3f5878c7	0.8455929
19	0x3fc2a77c	1.5207362
20	0xbf0f83e1	-0.56060606
21	0xbfbfc34d	-1.4981476
22	0xbfdbcb52	-1.7171423
23	0x3f91b5bc	1.1383586
24	0xbe7f2462	-0.24916223
25	0x3e1a6955	0.15079243
26	0x3fc7010a	1.5547192
27	0xbffe529e	-1.9868963
28	0x3f3de86a	0.7418276
29	0xbe4f87fc	-0.20266718
30	0x3d4d3a3e	0.050104372
31	0xbe67610b	-0.22595613
32	0xbee62b7b	-0.44955048
33	0x3d98e6b2	0.07465877
34	0xbf9dd9c2	-1.233208
35	0xbf02553e	-0.5091132
36	0xbe9d195a	-0.30683404
37	0xbed8fe8d	-0.42381707
38	0xbe818a77	-0.25300953
39	0x3f88bb86	1.0682228
40	0xbf934a71	-1.1507093
41	0x3f08b076	0.5339426
42	0x3f4708bd	0.7774771
43	0x3f89e8f4	1.0774217
44	0x3f7d3cf7	0.9892115
45	0x3f0d3d07	0.55171245
46	0x3f1a19a4	0.60195374
47	0xbfa81fce	-1.3134706
48	0xbaa3ca1a	-0.0012496144
49	0xbf574d43	-0.8410227
50	0xbeb7caa9	-0.35896805
51	0xbfdb2d7d	-1.7123257
52	0x3e25bfdd	0.16186471
53	0xbf88c044	-1.0683675
54	0xbfa8bf15	-1.3183314
55	0xbf82ce34	-1.0219178
56	0xbf3f0b87	-0.74626964
57	0x3e9b129b	0.30287632
58	0xbf4ab2ec	-0.79179263
59	0xc0001b43	-2.001664
60	0xbfa41f4e	-1.2822053
61	0x3f73e229	0.9526697
62	0x3fb4ebf7	1.4134511
63	0x3f571e4e	0.84030616
64	0xbf954363	-1.166119
65	0xbf3920b9	-0.72315556
66	0xbf6fef00	-0.9372406
67	0xbf3aa632	-0.72909844
68	0x3ec99541	0.39371684
69	0x3f67ba61	0.90518767
70	0x3e7be582	0.24599269
71	0x3fae1b06	1.3601997
72	0x3ebe761f	0.37199494
73	0x3ea5f76a	0.32415324
74	0x3f82da0d	1.0222794
75	0x3f294fc2	0.66137326
76	0xbecbb676	-0.39787644
77	0xbe9ea60e	-0.30986065
78	0xbe1735bb	-0.1476659
79	0x3f341b63	0.7035429
80	0x3f8fb2c9	1.1226436
81	0x3ee879af	0.45405337
82	0xbe105dae	-0.14098236
83	0xbf1cdbf9	-0.6127315
84	0x3d9446b3	0.07240047
85	0x3dec807d	0.11547945
86	0x3e97e4f1	0.29666856
87	0xc00287ef	-2.0395467
88	0xbf582c27	-0.8444237
89	0xbfa6b446	-1.3023765
90	0x3e26b24a	0.1627895
91	0xbf000947	-0.50014156
92	0xbfe4efdd	-1.78857
93	0xbf8b8a38	-1.0901556
94	0x3ec19c73	0.37814674
95	0xbeb9eedf	-0.36315057
96	0x3f5e8703	0.8692476
97	0xbeb60946	-0.3555395
98	0x3ee93987	0.45551702
99	0xbf58da2d	-0.8470791
100	0xbf4c0573	-0.79695815
101	0x3f876e99	1.0580627
102	0x3f881ac2	1.0633166
103	0xbfca6263	-1.5811275
104	0xbfb63467	-1.4234742
105	0x3f4cc4ad	0.79987603
106	0xc03700d7	-2.8594263
107	0x404714f0	3.110653
108	0x3f14b0fe	0.5808257
109	0xbfbc4e69	-1.4711429
110	0x3e8c3c2b	0.27389655
111	0xbebe3de0	-0.37156582
112	0xbf9f53c1	-1.2447435
113	0xbfc17ef8	-1.5116873
114	0xbeefd751	-0.4684396
115	0xbf117591	-0.5682002
116	0xbf5c9e74	-0.8617928
117	0xbf0cefc8	-0.5505338
118	0x3f3503af	0.70708746
119	0xbf3f633d	-0.747608
120	0x3f4a5b74	0.79045796
121	0xbf071145	-0.52760726
122	0x3e1aaaf2	0.15104273
123	0x3cf93edb	0.03042548
124	0xbf7ea013	-0.99463004
125	0x3f001529	0.5003229
126	0xbf1ad5c4	-0.6048243
127	0xbf6c95e8	-0.9241624
128	0x3f120fd2	0.5705539
129	0x3f03b9d6	0.5145544
130	0x3f298bc1	0.6622887
131	0xbfa89147	-1.3169335
132	0x3f1564d8	0.58357
133	0x3d737063	0.059433352
134	0xbe87ac86	-0.26498812
135	0xbfe1147b	-1.7584375
136	0xbfc99285	-1.5747839
137	0x3fb9b382	1.4507906
138	0xbf5a3056	-0.85230005
139	0xbe8b4b41	-0.27205852
140	0xbfa5dbe1	-1.2957727
141	0x3f3a387a	0.72742426
142	0xbeb8b8ac	-0.36078393
143	0xbf5058d9	-0.8138557
144	0x3e8ce5f2	0.27519184
145	0x3f33483a	0.70032084
146	0x3f797053	0.9743702
147	0xbfb1bb10	-1.3885212
148	0xbfc3af92	-1.5287955
149	0xbf398eb5	-0.7248338
150	0x3fcecce8	1.6156282
151	0xbfb9394f	-1.4470614
152	0x3e11fc7d	0.14256473
153	0x3f560902	0.83607495
154	0xbfd1349c	-1.634418
155	0xbfac3617	-1.3454007
156	0xbfb3042d	-1.3985649
157	0x3f3cfac5	0.73820144
158	0xbe820ff9	-0.2540281
159	0xbfc138b3	-1.5095428
160	0x3dc1d76a	0.09464915
161	0x3efb3dd5	0.49070612
162	0x3ec67871	0.38763765
163	0xbf2a77b4	-0.665889
164	0xbef615e1	-0.48063567
165	0x3fd424c0	1.6573715
166	0x3d30bdc2	0.043149717
167	0xbe7f3d21	-0.24925663
168	0xbe9c0332	-0.30471188
169	0x3f8f8847	1.1213464
170	0x3de79ef7	0.11309617
171	0x3f63dae3	0.8900587
172	0x3e751b1c	0.23936123
173	0x3f21a829	0.6314722
174	0x3db00b2b	0.0859588
175	0x3f759cae	0.959422
176	0xbcf76f55	-0.030204454
177	0xbf6abd2f	-0.9169492
178	0x3dd5c0c9	0.104371615
179	0xbf2926c7	-0.66074795
180	0x3dd1dbe7	0.10247021
181	0xbef0edbf	-0.47056386
182	0x3f1839d4	0.5946324
183	0x3f99af16	1.2006557
184	0x3aaaae9d	0.001302201
185	0x3f221ee3	0.6332838
186	0x3fb859bf	1.4402388
187	0x3f33d887	0.7025227
188	0x3f2eb88b	0.6825034
189	0x3fc91418	1.5709257
190	0xbf05eb8f	-0.5231256
191	0xbe9e81e4	-0.30958474
192	0xbdb7de9e	-0.08978008
193	0xbda8fe0e	-0.08251582
194	0x3f806ac7	1.0032586
195	0xc01d4059	-2.4570525
196	0xbf7799e5	-0.967192
197	0xbe89e409	-0.2693179
198	0xbf0ffd83	-0.56246203
199	0xbf0c36a1	-0.5477086
200	0x3f8fa97a	1.1223595
201	0x3efef86d	0.4979891
202	0x3ce3cf4d	0.02780881
203	0x3ec84f3b	0.39122948
204	0xbed414ef	-0.4142222
205	0x3fa8753a	1.3160775
206	0x3f99ffde	1.203121
207	0x3f939525	1.152989
208	0x3f0ae439	0.5425449
209	0xbe4a825a	-0.19776288
210	0xbf84797e	-1.0349576
211	0x3fc71b10	1.5555134
212	0xbeae2d1c	-0.3401879
213	0x3fd08df7	1.6293324
214	0xbdda7a7a	-0.10667892
215	0xbe39410b	-0.18091218
216	0xbf7af2f6	-0.9802698
217	0xbf4989af	-0.78725713
218	0x3ec15868	0.3776276
219	0x3ea602b0	0.32423925
220	0x3f15ec63	0.5856382
221	0xbcb39bae	-0.02192482
222	0x3fa207cd	1.2658631
223	0xbf55c378	-0.83501387
224	0xbef323d4	-0.47488272
225	0x3dfe2a5e	0.12410425
226	0xbe22a5f2	-0.15883616
227	0x3f724841	0.946415
228	0xbf110f71	-0.56664187
229	0x3ed5a9c2	0.41731077
230	0xbe8a254a	-0.26981574
231	0x3e6e8ad4	0.23295146
232	0x3e05911e	0.13043639
233	0x3e7b18de	0.24521205
234	0xbeb33286	-0.34999484
235	0xbec84e34	-0.39122164
236	0xbff63fca	-1.9238217
237	0xbf2f3d04	-0.6845248
238	0x3ec34621	0.38139442
239	0xbfc38c3f	-1.5277175
240	0x3e8ea95e	0.27863592
241	0x3fd2c5d3	1.6466621
242	0xbf3060f7	-0.68897957
243	0x3f0280e3	0.50977916
244	0x3fcb45b7	1.588065
245	0x3fce9515	1.6139246
246	0xbf827bac	-1.0193992
247	0x3b98b79d	0.0046605603
248	0x3f3d201f	0.7387714
249	0x3f101910	0.5628824
250	0xbff0f46b	-1.882459
251	0xbe94ec8f	-0.2908673
252	0xbfd54096	-1.6660335
253	0xbfc321ae	-1.5244653
254	0xbee06e1d	-0.4383401
255	0x3ed29de4	0.41136086

encoder.layers.0.self_attn.in_proj_weight f4 [24, 8]
0	0x3ed7a7fe	0.42120355
1	0x3e840405	0.25784317
2	0x3e8ad3cb	0.2711471
3	0x3d3008bf	0.04297709
4	0x3ab4cc75	0.0013793843
5	0x3eda8d41	0.42685893
6	0xbea1b9aa	-0.31586963
7	0xbe855056	-0.26037854
8	0xbe41eac4	-0.18937212
9	0xbd8fa710	-0.070142865
10	0x3e999850	0.29999018
11	0x3e8109bd	0.25202742
12	0xbecb0e7b	-0.39659485
13	0x3de6e1af	0.112735145
14	0xbd79e26a	-0.06100694
15	0x3e84ec4a	0.25961524
16	0xbe87d78a	-0.2653163
17	0xbe35fe7d	-0.17772861
18	0x3c57cbe9	0.013171175
19	0xbe3294d2	-0.17439583
20	0xbecc5f3d	-0.3991641
21	0x3dd7fe20	0.10546517
22	0x3e6b9983	0.23007779
23	0x3e3da7b5	0.18521006
24	0xbec0ed86	-0.37681216
25	0xbec125fe	-0.37724298
26	0xbe9c9368	-0.30581212
27	0x3ed8f836	0.4237687
28	0x3e9fa14a	0.3117774
29	0x3e59f252	0.21283844
30	0xbe72a6cb	-0.23696439
31	0x3e4fde8e	0.20299742
32	0xbe9e9c4f	-0.3097863
33	0xbe4e3021	-0.20135547
34	0xbe085445	-0.13313396
35	0x3e69c425	0.2282873
36	0xbede44fb	-0.43412003
37	0xbe81b358	-0.2533214
38	0xbec59622	-0.38591105
39	0x3e90ba4f	0.28267142
40	0xbd4c2f4b	-0.04984979
41	0x3ebc7b55	0.36812845
42	0xbe805ca9	-0.25070694
43	0xbe8592c1	-0.26088527
44	0xbe94319e	-0.28944105
45	0xbe85fe99	-0.26170805
46	0x3e77fd9d	0.2421784
47	0x3e108c45	0.14116009
48	0xbe90037d	-0.2812766
49	0xbe0be8d5	-0.13663037
50	0xbe84da0a	-0.259476
51	0x3e0493fc	0.12947077
52	0xbd320d91	-0.04346997
53	0x3eb7ad8f	0.35874602
54	0x3e4ad703	0.19808583
55	0xbd5ecdcf	-0.054395493
56	0xbe7f8f55	-0.2495702
57	0x3e8bcbd4	0.27303946
58	0x3de03524	0.10947636
59	0x3eb101b2	0.34571606
60	0x3e68e5bc	0.22743887
61	0xbdf407f0	-0.119155765
62	0x3d38826e	0.045046262
63	0xbe09192b	-0.13388507
64	0xbe18f98e	-0.14938948
65	0xbe7e11f9	-0.24811544
66	0xbeba52c9	-0.36391285
67	0x3eda29cd	0.42610016
68	0x3ed22ce9	0.4104989
69	0x3ed16e6b	0.40904555
70	0xbd98ba8b	-0.07457455
71	0x3ec753e1	0.38931182
72	0x3ed33caf	0.41257235
73	0xbda3c40f	-0.079963796
74	0xbecffa0c	-0.40620458
75	0xbe7af0f0	-0.24505973
76	0x3e4abed2	0.19799355
77	0x3ea39904	0.3195268
78	0x3a1856c1	0.0005811267
79	0x3ed651ce	0.41859287
80	0x3ec1f43d	0.37881652
81	0x3d928261	0.07153774
82	0x3e9f80c5	0.3115293
83	0x3e82e0fd	0.25562277
84	0xbed49b55	-0.4152476
85	0x3e21ca22	0.15799764
86	0x3db8de16	0.090267345
87	0x3e951319	0.29116133
88	0xbe117842	-0.14206031
89	0x3d863ec5	0.06554941
90	0xbecddf72	-0.40209538
91	0x3e97ac8b	0.29623827
92	0xbde843e3	-0.11341073
93	0x3e3c1c81	0.18370248
94	0xbec87f46	-0.39159602
95	0xbecdfed1	-0.40233472
96	0xbe3f3633	-0.18673019
97	0x3edd378a	0.43206435
98	0xbeac6760	-0.3367262
99	0x3e6921a0	0.22766733
100	0xbd05f927	-0.032708313
101	0xbe7f9b74	-0.24961644
102	0x3e3bfacc	0.1835739
103	0xbeab955f	-0.335124
104	0xbe30ccd7	-0.1726564
105	0xbe94e2bd	-0.29079238
106	0xbea092f8	-0.31362128
107	0x3ecffd52	0.40622956
108	0x3e6dde62	0.23229364
109	0xbed4f86e	-0.41595787
110	0x3e9e579d	0.3092622
111	0xbea7bc7c	-0.3276099
112	0x3e0fcab3	0.14042167
113	0xbe655a24	-0.22397667
114	0xbe97bf32	-0.29638058
115	0xbe93a675	-0.28837934
116	0xbe9b636b	-0.30349287
117	0x3d6dd583	0.05806495
118	0x3d021517	0.031758394
119	0xbebc2f1c	-0.36754692
120	0xbdfdfb11	-0.12401403
121	0xbdabbca5	-0.083855905
122	0x3de8ca86	0.11366753
123	0x3eb4d6dd	0.35320178
124	0xbdad9329	-0.08475334
125	0x3da0357d	0.07822702
126	0xbecc7b1f	-0.39937684
127	0xbec69032	-0.38781887
128	0x3e069864	0.1314407
129	0x3e05bbc8	0.13059914
130	0xbea6ba04	-0.32563794
131	0xbe377df9	-0.17919149
132	0xbe1c6d74	-0.15276128
133	0xbebec313	-0.37258205
134	0x3eafcd90	0.3433652
135	0x3e620f58	0.22076166
136	0x3e262b6d	0.16227503
137	0x3d5c090c	0.053719565
138	0x3e1cb817	0.153046
139	0x3dc2a9f2	0.09505071
140	0x3e831106	0.25598925
141	0xbeb12aa8	-0.34602857
142	0x3e700bb0	0.23441958
143	0x3ecd5b68	0.401088
144	0x3be79802	0.0070676813
145	0xbe010817	-0.12600742
146	0x3eb3d81f	0.35125825
147	0xbe1e4a11	-0.15457942
148	0xbe917832	-0.28412014
149	0x3ed03202	0.40663153
150	0x3e7efb13	0.24900465
151	0xbe2f75a6	-0.17134723
152	0xbc7fa414	-0.015603084
153	0xbeb420e3	-0.3518134
154	0x3e81217a	0.25220853
155	0xbe8c3c4b	-0.2738975
156	0xbc0f2a05	-0.008738046
157	0xbe22e530	-0.1590774
158	0xbdf3ee39	-0.11910672
159	0x3ca98311	0.02069238
160	0x3eb81339	0.35952166
161	0x3ecf3192	0.40467507
162	0xbe4d39a4	-0.2004152
163	0x3d413632	0.047170825
164	0xbe5fc824	-0.21853691
165	0xbdf6a92c	-0.12043986
166	0x3bcd8b5a	0.0062727155
167	0x3e5b7231	0.2143028
168	0x3e97aabf	0.29622456
169	0xbeca7ee9	-0.3954995
170	0x3c7a7c56	0.015288433
171	0xbe0a7eb1	-0.13524891
172	0xbcf48cce	-0.029852297
173	0xbed0781c	-0.40716636
174	0x3dcd1dd9	0.100154586
175	0xbec56e9e	-0.38560957
176	0x3dc13ded	0.094356395
177	0x3e53df4b	0.20690648
178	0xbe4a439e	-0.19752356
179	0xbe98946d	-0.2980074
180	0x3decc3b9	0.11560769
181	0xbdd6f6c5	-0.10496286
182	0x3ebeea62	0.37288195
183	0x3e908005	0.2822267
184	0xbeb59ec0	-0.3547268
185	0xbe5140b0	-0.20434833
186	0xbec1f814	-0.3788458
187	0xbebef9e6	-0.37300032
188	0x3edc1215	0.42982545
189	0xbe829a61	-0.25508407
190	0x3ae8b595	0.0017754311
191	0x3e8a70d1	0.27039197

encoder.layers.0.self_attn.in_proj_bias f4 [24]
0	0xbad26e15	-0.0016054536
1	0x3aadc96a	0.0013258879
2	0xbac7ab62	-0.0015233571
3	0x3aa556a8	0.0012614327
4	0x3a24a59a	0.000628078
5	0xb9820188	-0.00024796673
6	0x3822c503	3.880729e-05
7	0x39f996d4	0.00047605357
8	0xb9149793	-0.00014170846
9	0x39bbdf0b	0.000358336
10	0x39b1fb5f	0.00033947357
11	0xb88a4bdd	-6.5944834e-05
12	0xb842968f	-4.6393423e-05
13	0xb798e7f0	-1.8227816e-05
14	0xb85cc106	-5.2631854e-05
15	0x385a6aa5	5.207457e-05
16	0xba4b4832	-0.00077545934
17	0xbad96783	-0.0016586635
18	0xbb4811a0	-0.0030528083
19	0xba056ef6	-0.0005090082
20	0xbb737789	-0.0037150106
21	0x3bac6ef8	0.005262252
22	0xbb21b83d	-0.0024676465
23	0x3ac6595f	0.0015132836

encoder.layers.0.self_attn.out_proj.weight f4 [8, 8]
0	0xbd3b7431	-0.045765106
1	0x3eacdab9	0.33760622
2	0x3e8a9dee	0.27073616
3	0x3e95e10b	0.29273257
4	0x3d71981c	0.058982953
5	0xbe0c92c1	-0.13727857
6	0x3e939121	0.28821662
7	0xbe911e66	-0.28343505
8	0x3d876ffd	0.06613157
9	0xbe66242d	-0.22474737
10	0xbdd08976	-0.101824686
11	0xbcfd5776	-0.030925494
12	0xbe3f387e	-0.18673894
13	0x3e8de7c2	0.2771588
14	0xbe4f6ce9	-0.2025639
15	0xbe6fa960	-0.23404455
16	0x3d7ba349	0.061435018
17	0x3e7509f3	0.23929577
18	0xbdc47caf	-0.09594094
19	0xbe9c45fc	-0.30522144
20	0x3de76817	0.112991504
21	0xbe288d9a	-0.16460267
22	0x3e88f5c0	0.26749992
23	0x3d9fea8f	0.078084104
24	0xbe43f76b	-0.19137351
25	0xbb26e82c	-0.0025467975
26	0xbd4857d4	-0.048911884
27	0xbe6c4877	-0.23074518
28	0x3e21118b	0.15729348
29	0xbe95b86e	-0.2924227
30	0x3dd2a21b	0.102848254
31	0xbea69b5c	-0.32540405
32	0x3e5612f1	0.20905663
33	0xbad9ee5f	-0.0016626826
34	0xbd976f21	-0.07394243
35	0xbe329bf8	-0.1744231
36	0xbe8083ed	-0.2510065
37	0xbe600d77	-0.21880136
38	0xbe9cd4bc	-0.30631053
39	0x3e7f765f	0.24947499
40	0x3dc33eaa	0.095334366
41	0xbe2edf3f	-0.17077349
42	0x3d89e07c	0.0673227
43	0x3d9156ad	0.0709661
44	0xbe352d19	-0.17692985
45	0xbe890406	-0.26760882
46	0x3e237fe9	0.15966763
47	0xbe97ff34	-0.29686892
48	0x3d7ee29e	0.062227838
49	0xbea26b90	-0.3172269
50	0xbdb5fa63	-0.08885648
51	0x3d8078cd	0.06273041
52	0x3ea47cb8	0.32126403
53	0x3cfabcb2	0.030607555
54	0xbdc41d05	-0.095758475
55	0xbda9a7f5	-0.082839884
56	0xbe5e4e26	-0.21709499
57	0x3c6930a5	0.014232789
58	0xbdfaa654	-0.12238756
59	0xbe5aea05	-0.21378334
60	0xbd49365f	-0.049124118
61	0xbe9d0910	-0.30670977
62	0x3e1f0202	0.1552811
63	0x3d34fa11	0.044183794

encoder.layers.0.self_attn.out_proj.bias f4 [8]
0	0xbb2b8f0c	-0.0026177792
1	0x3c038e72	0.008029567
2	0x3b4e72a1	0.003150143
3	0xbbe4987b	-0.006976185
4	0xbb725143	-0.0036974705
5	0xbbc474b7	-0.005995359
6	0xbac998a9	-0.0015380579
7	0x3bd4be82	0.006492437

encoder.layers.0.linear1.weight f4 [32, 8]
0	0xbe6d3292	-0.23163822
1	0xbc5ee780	-0.013604999
2	0x3d2c25c8	0.04202822
3	0x3d310d50	0.043225586
4	0x3dcda540	0.100412846
5	0x3e36d7f2	0.17855814
6	0x3ea426c3	0.32060823
7	0x3e2d6cee	0.16936085
8	0xbe8328cf	-0.25617072
9	0x3d28a084	0.041168705
10	0xbde16f8a	-0.110076025
11	0x3e63bf69	0.22240986
12	0xbe50c344	-0.20386988
13	0xbd72447b	-0.05914734
14	0x3dfbc6c4	0.12293771
15	0xbe19365e	-0.14962146
16	0x3df395e9	0.118938275
17	0x3ea3864f	0.31938407
18	0x3ea6d258	0.32582355
19	0x3e2e3b76	0.1701487
20	0x3ca494c0	0.02009046
21	0xbe949d2a	-0.29026157
22	0xbe1365b3	-0.14394264
23	0xbe29fba7	-0.16599904
24	0xbe292e60	-0.16521597
25	0x3e2abe95	0.16674264
26	0xbe110bef	-0.14164709
27	0xbe984c46	-0.29745692
28	0xbdf675e6	-0.12034206
29	0x3dbceaa0	0.09224439
30	0x3e490ae9	0.19633068
31	0xbd81dcf1	-0.06340969
32	0xbe586bb4	-0.21134835
33	0xbe9f43ac	-0.31106317
34	0xbea141be	-0.3149547
35	0xbe52dd01	-0.20592119
36	0xbe8fa123	-0.28052625
37	0x3e10634a	0.14100376
38	0xbe0f8b06	-0.14017877
39	0x3e75e28e	0.24012205
40	0x3e93f18f	0.28895232
41	0xbe13175f	-0.14364384
42	0xbdfc243b	-0.12311598
43	0x3a8cd77e	0.0010745374
44	0x3d985d3f	0.0743966
45	0xbe995702	-0.29949194
46	0xbbb4df3c	-0.0055197757
47	0x3e2f164a	0.17098346
48	0xbc4f0ab9	-0.012636834
49	0xbe68c072	-0.22729662
50	0xbe71e9a4	-0.23624283
51	0x3e8424ff	0.25809476
52	0x3e17a21a	0.1480793
53	0xbe54d1ae	-0.20783111
54	0x3e192dcc	0.14958876
55	0xbe84523e	-0.25843996
56	0x3cc37380	0.023858786
57	0xbde1bc52	-0.110222474
58	0x3ea63731	0.32463983
59	0xbd8a79b8	-0.06761497
60	0x3e56f826	0.20993099
61	0x3e95b387	0.2923853
62	0x3e37d5d6	0.17952666
63	0x3dd208a8	0.10255557
64	0xbdc626bf	-0.09675359
65	0x3e4c4aac	0.1995036
66	0xbe38f5e7	-0.18062554
67	0x3ea7928d	0.32728997
68	0xbde5e994	-0.11226192
69	0xbe74731a	-0.23872033
70	0xbea17b0a	-0.31539184
71	0xbe46ab86	-0.19401368
72	0x3e982c8f	0.29721496
73	0x3eb1a9a3	0.34699735
74	0x3e88760d	0.26652566
75	0xbe8fc4fd	-0.28079978
76	0xbe05a52d	-0.13051291
77	0x3d45d2f2	0.048296876
78	0x3cf5491a	0.029942084
79	0x3e9dbac7	0.30806562
80	0x3e1d6c16	0.15373263
81	0xbdc63370	-0.0967778
82	0x3e7b94fe	0.24568555
83	0xbe9b82a1	-0.303731
84	0xbe6b80f4	-0.2299841
85	0x3e38afd6	0.18035826
86	0xbe93d3e1	-0.28872588
87	0x3e5980b2	0.212405
88	0x3bc65c67	0.0060534957
89	0x3d3172ad	0.043322254
90	0xbc5c2d40	-0.013438523
91	0xbe86b979	-0.2631338
92	0x3e62d9e0	0.22153425
93	0x3d9be7f1	0.07612599
94	0x3ca8aa97	0.020589156
95	0xbcf23bc4	-0.029569514
96	0xbde58656	-0.11207263
97	0x3e9900cd	0.29883423
98	0xbeab46ab	-0.33452353
99	0xbe3bfc0f	-0.18357871
100	0xbe2bd4ec	-0.16780442
101	0x3cd966c1	0.026538255
102	0xbe9bff30	-0.3046813
103	0xbead6bed	-0.33871403
104	0xbe7201ce	-0.23633501
105	0x3d75743c	0.059925303
106	0xbe9b2aa9	-0.30305985
107	0x3e51f278	0.2050265
108	0x3e94a710	0.2903371
109	0xbd8bf2d9	-0.06833429
110	0xbe197db1	-0.14989354
111	0x3e7710fb	0.24127571
112	0x3dc3bf13	0.09557929
113	0xbd143ef1	-0.036192838
114	0xbe9932e8	-0.2992165
115	0xbda73501	-0.081644066
116	0x3cbd744c	0.023126744
117	0x3d71dd1f	0.059048768
118	0x3ce7fa5d	0.028317625
119	0x3e6eb4c9	0.23311152
120	0xbe38b6d3	-0.18038492
121	0xbe888776	-0.26665848
122	0x3e4ec0ea	0.20190778
123	0x3e03c914	0.12869674
124	0xbe4ff551	-0.20308425
125	0xbd86904c	-0.06570491
126	0x3e49d4ee	0.19710132
127	0x3eae0281	0.33986285
128	0x3d633ce0	0.055477977
129	0xbe68cf20	-0.22735262
130	0x3e474132	0.19458464
131	0xbe470fcb	-0.19439618
132	0xbe2a3c68	-0.16624606
133	0x3e231756	0.1592687
134	0x3e885457	0.26626846
135	0xbea71160	-0.32630444
136	0x3e400b60	0.18754339
137	0x3adb22b0	0.0016718712
138	0xbe20d636	-0.15706715
139	0x3e85df1e	0.26146787
140	0xbe60f8f4	-0.21969968
141	0xbe561114	-0.20904952
142	0x3e4d9a4f	0.20078395
143	0x3c64c09c	0.013961937
144	0x3e151104	0.14557272
145	0x3e8750ad	0.26428738
146	0x3c56da21	0.013113529
147	0xbe725fe6	-0.23669395
148	0xbd0c1efb	-0.034209233
149	0x3b9bac4f	0.0047507654
150	0xbe92225c	-0.2854184
151	0x3e91636d	0.28396168
152	0x3c931170	0.01795265
153	0x3e4b2520	0.19838381
154	0x3e48f294	0.19623786
155	0xbd573634	-0.052541927
156	0xbd80f113	-0.06295981
157	0xbd0d8b51	-0.03455669
158	0xbe324f75	-0.17413123
159	0xbe182ea1	-0.14861538
160	0x3dc091b0	0.09402788
161	0xbddb3893	-0.1070415
162	0x3de19750	0.11015189
163	0x3eaa1aca	0.33223563
164	0x3eab36ae	0.33440155
165	0x3e1b89c5	0.15189274
166	0x3eb1907c	0.34680545
167	0xbe1f9ca1	-0.15587093
168	0xbe5414cf	-0.20711063
169	0x3d424589	0.047429595
170	0xbe580b9e	-0.21098182
171	0x3d98026e	0.074223384
172	0xbea35d02	-0.31906897
173	0xbe926baa	-0.28597766
174	0xbeb31257	-0.3497493
175	0x3e8320f5	0.25611082
176	0xbe3d0581	-0.18459131
177	0x3eb47c2a	0.3525098
178	0x3cac2156	0.02101199
179	0xbdf83e0a	-0.12121208
180	0x3e88e0f9	0.2673414
181	0xbeaf9d96	-0.34299916
182	0xbddcaab8	-0.107747495
183	0x3ab8f3eb	0.0014110779
184	0xbeac0fd1	-0.33605817
185	0x3de5ccfc	0.11220738
186	0x3ddf7f01	0.10912896
187	0xbe065df9	-0.13121785
188	0xbda3cf0a	-0.07998474
189	0xbe22b7f3	-0.15890484
190	0x3e7d95c6	0.24764165
191	0xbd44412d	-0.04791372
192	0x3d25cd86	0.040479206
193	0x3ebdef79	0.37096766
194	0x3e94c790	0.29058504
195	0xbd14cafd	-0.036326397
196	0x3e9b4185	0.30323425
197	0xbe4a8ce9	-0.19780315
198	0xbeaf6e6f	-0.34263942
199	0xbe99beaf	-0.30028293
200	0xbeb540dd	-0.3540105
201	0x3db894e1	0.090127714
202	0x3ce495f5	0.027903536
203	0x3e1165d0	0.14198995
204	0x3e32fcd0	0.17479253
205	0x3e2a33bd	0.16621299
206	0x3e8118cc	0.2521423
207	0x3e0fcc27	0.14042722
208	0x3d6f6b88	0.05845216
209	0x3db50344	0.088385135
210	0xbe6f238c	-0.23353404
211	0xbe14e467	-0.14540254
212	0x3d938e2c	0.072048515
213	0x3d349e30	0.04409617
214	0x3e108102	0.14111713
215	0x3eab07cd	0.3340439
216	0xbe2965b0	-0.16542697
217	0x3e592edd	0.21209283
218	0xbe1eb4a1	-0.15498592
219	0x3eb75a7c	0.35811222
220	0x3e51f1fd	0.20502467
221	0x3eaa7bd5	0.332976
222	0xbe868aaa	-0.26277667
223	0xbe26ff71	-0.1630838
224	0xbeb38ca5	-0.3506824
225	0x3ccd04b7	0.025026662
226	0xbc72fbb8	-0.014830522
227	0xbe0a1173	-0.13483219
228	0xbdfd813d	-0.12378166
229	0xbe1e3e74	-0.15453511
230	0xbe71a137	-0.23596655
231	0xbe0b2b54	-0.13590747
232	0xbd7c2b60	-0.061564803
233	0xbd588817	-0.05286416
234	0xbe4d0e69	-0.20025028
235	0xbea2b72a	-0.31780368
236	0xbd90b742	-0.07066204
237	0xbea753a7	-0.3268101
238	0xbe947941	-0.2899876
239	0x3d96cdf1	0.07363499
240	0x3c0b27e0	0.008493394
241	0x3e54c4b2	0.20778158
242	0xbd21e3a0	-0.03952372
243	0xbe367fa3	-0.17822127
244	0xbe8b091d	-0.2715539
245	0x3e813a8d	0.25239983
246	0x3ddbe080	0.10736179
247	0xbdeb1fa0	-0.11480641
248	0x3ca6d0c0	0.020363212
249	0xbe19a79f	-0.15005349
250	0xbdb93d80	-0.09044933
251	0xbdc0398c	-0.09385976
252	0x3d6324e0	0.05545509
253	0x3e931a97	0.28731224
254	0x3e635fe6	0.22204551
255	0x3e7495d6	0.23885283

encoder.layers.0.linear1.bias f4 [32]
0	0x3deb430c	0.114873976
1	0xbdbf2698	-0.09333533
2	0x3d442e1d	0.04789554
3	0x3e21f548	0.15816224
4	0xbe54fe70	-0.20800185
5	0xbeb0678f	-0.3445401
6	0xbd0a22ae	-0.03372448
7	0xbd3869d0	-0.045022786
8	0xbe1b7c93	-0.1518424
9	0x3dbc3264	0.09189299
10	0x3e5ba4ce	0.21449587
11	0xbe826621	-0.25468543
12	0xbe957cc6	-0.29196757
13	0x3e824aeb	0.25447783
14	0xbd99fffb	-0.075195275
15	0xbe38a827	-0.18032895
16	0xbdbade24	-0.09124401
17	0x3de87e75	0.11352245
18	0x3bf8c0f4	0.007591361
19	0x3dca3499	0.098733135
20	0x3de3c954	0.11122385
21	0xba940d57	-0.001129548
22	0xbe15d6e5	-0.14632757
23	0x3e820c6e	0.25400108
24	0xbe02bdb3	-0.12767677
25	0x3e9b2714	0.30303252
26	0xbe09bf1e	-0.13451812
27	0xbe7e95a1	-0.24861766
28	0x3e993ff1	0.29931596
29	0xbdde6094	-0.108582646
30	0xbeae37b9	-0.34026888
31	0x3e85d48f	0.26138732

encoder.layers.0.linear2.weight f4 [8, 32]
0	0xbe0ad945	-0.13559444
1	0xbd98b368	-0.07456094
2	0x3e295fd8	0.16540468
3	0x3da4af81	0.08041287
4	0x3b441040	0.0029916912
5	0xbe14e94d	-0.14542122
6	0x3d81d01b	0.06338521
7	0x3d1933b4	0.037402824
8	0x3dbdbcf0	0.092645526
9	0xbd9a21f8	-0.0752601
10	0xbd1b4968	-0.037911803
11	0x3d92256e	0.071360454
12	0x3dca7ce6	0.09887104
13	0xbdb1fb95	-0.086905636
14	0xbd689d7c	-0.056790814
15	0x3df13fb2	0.11779727
16	0xbda4d1d3	-0.08047833
17	0xbd8ef838	-0.06980938
18	0xbe0e856b	-0.13918082
19	0x3e13e400	0.14442444
20	0xbdd01142	-0.10159542
21	0x3e19b607	0.15010844
22	0x3d95ed5a	0.07320662
23	0x3d615a4d	0.05501776
24	0xbdf041d5	-0.117313065
25	0x3dbafa5d	0.09129784
26	0xbd40624c	-0.046968743
27	0x3e0d1c48	0.1378032
28	0x3e00bc44	0.12571818
29	0x3da653e1	0.081214674
30	0x3e0cb2a1	0.13740017
31	0xbd66b4be	-0.056324713
32	0xbd2ad534	-0.041707233
33	0xbdb525c7	-0.08845096
34	0x3d81892e	0.06324993
35	0x3da8889e	0.08229183
36	0xbda61f6c	-0.08111462
37	0x3e04a879	0.12954892
38	0xbe139302	-0.14411548
39	0xbd4ed5d4	-0.05049689
40	0xbbad03cb	-0.005279993
41	0xbdd24186	-0.10266404
42	0x3dc5d6ae	0.096600875
43	0xbdb51e96	-0.088437244
44	0xbd94d416	-0.07267015
45	0x3cf5333e	0.02993166
46	0xbe1259a3	-0.14292006
47	0x3e347a5f	0.17624806
48	0x3d87554a	0.066080645
49	0x3d849653	0.064739846
50	0x3df10044	0.11767629
51	0xbd1fd2ca	-0.039019383
52	0xbdca6d9f	-0.0988419
53	0x3e1cbbe3	0.15306048
54	0x3e3900f2	0.18066767
55	0xbcd10608	-0.025515571
56	0x3e3cc831	0.18435742
57	0x3dc4a758	0.09602231
58	0xbd4234a8	-0.0474135
59	0xbb8c6ca5	-0.0042854124
60	0x3d5a7475	0.05333372
61	0xbd5630ac	-0.05229251
62	0x3dd5843a	0.10425611
63	0x3d989022	0.07449366
64	0xbcde43c8	-0.02713193
65	0x3d4bc774	0.04975076
66	0xbd370094	-0.044678286
67	0xbd807882	-0.06272985
68	0x3da8f59a	0.0824997
69	0xbe0a513d	-0.13507552
70	0xbbfa5829	-0.007639904
71	0x3c4f17e0	0.01263997
72	0x3db9b428	0.09067565
73	0x3e1e628f	0.15467285
74	0xbdceded7	-0.10101097
75	0x3d530ee9	0.05152789
76	0x3df1c896	0.11805837
77	0x3d5494ff	0.051899906
78	0x3cf390e2	0.029732171
79	0xbdeec4dc	-0.11658642
80	0x3d8c4112	0.06848349
81	0x3aef136e	0.0018240043
82	0xbd759b76	-0.059962712
83	0x3e139abe	0.14414498
84	0x3e0e47db	0.13894598
85	0xbd61c09d	-0.05511533
86	0x3ca08435	0.019594291
87	0xbd789011	-0.060684267
88	0xbd867180	-0.06564617
89	0x3e01155e	0.12605807
90	0x3d0092cc	0.031389996
91	0x3ddff58b	0.109355055
92	0xbdb1175b	-0.08647033
93	0xbe1ca980	-0.15299034
94	0xbde736f2	-0.11289777
95	0x3e058a05	0.13040932
96	0x3dfc337e	0.12314509
97	0xbe146f88	-0.14495671
98	0xbdbdba44	-0.09264043
99	0x3d9bccf9	0.07607455
100	0x3af4dd80	0.0018681735
101	0x3dbd85cc	0.09254035
102	0xbd6c60d5	-0.057709534
103	0xbe17a23c	-0.14807981
104	0xbe126a73	-0.1429842
105	0xbdc3a2db	-0.095525466
106	0xbc8661b0	-0.016404003
107	0x3c455d90	0.012046233
108	0xbe479012	-0.19488552
109	0xbe2d2cfa	-0.16911688
110	0x3d4ccd3c	0.050000414
111	0xbd7cbe96	-0.061705194
112	0xbe1e971f	-0.15487336
113	0xbd55d2b9	-0.052202914
114	0xbbe1d067	-0.0068912986
115	0xbc6d7cbc	-0.014495071
116	0x3d6197d3	0.05507643
117	0xbdc12e19	-0.094326206
118	0xbd7ceafc	-0.061747536
119	0x3ce4d1f1	0.02793214
120	0xbe4502e2	-0.19239381
121	0xbe46b489	-0.19404806
122	0x3dab318a	0.08359058
123	0x3bc0b5c9	0.0058810455
124	0xbd340c7d	-0.043957222
125	0x3dc75684	0.097332984
126	0x3e19663f	0.1498041
127	0x3dbf395e	0.09337114
128	0x3d6fb654	0.05852349
129	0xbd561bc0	-0.05227256
130	0xbbab6102	-0.00523007
131	0xbd58ac55	-0.052898724
132	0xbdf44b10	-0.119283795
133	0x3d12b835	0.035820205
134	0xbe290bdc	-0.1650843
135	0xbd4d878c	-0.050178096
136	0x3bfdfe57	0.007751267
137	0x3e23f731	0.16012265
138	0xbe2f01cf	-0.17090534
139	0xbdbe1cb3	-0.09282818
140	0x3c7aa670	0.015298471
141	0x3e0d15b1	0.13777806
142	0x3e0f2cc8	0.13981926
143	0x3e1c2dc3	0.15251832
144	0xbe2f9f2d	-0.17150564
145	0xbd0429a4	-0.032266274
146	0xbdb2bcd9	-0.08727426
147	0xbde9a439	-0.11408276
148	0xbd98bcf0	-0.07457912
149	0x3d4c4f29	0.04988018
150	0x3d982080	0.07428074
151	0xbe057f23	-0.1303678
152	0x3c2fb963	0.010725352
153	0xbe171e62	-0.14757684
154	0xbd5a2d2c	-0.053265736
155	0xbdf9408e	-0.12170516
156	0xbdf0f080	-0.11764622
157	0x3deca966	0.11555748
158	0xbe152bd3	-0.14567499
159	0xbe23dc1a	-0.16001931
160	0xbd531140	-0.051530123
161	0x3ccc74eb	0.024958095
162	0x3d2b15b2	0.041768737
163	0xbe0d6f38	-0.13811958
164	0x3d9ef75a	0.07762022
165	0xbd1e081f	-0.038581964
166	0xbdf7d4ae	-0.12101112
167	0xbdae8d2c	-0.0852302
168	0x3dad2e05	0.08456043
169	0x3d479d03	0.048733722
170	0xbc321250	-0.010868624
171	0xbdcd3fc4	-0.10021928
172	0xbd9e4ff6	-0.07730095
173	0xbc980878	-0.018558726
174	0xbd8fc561	-0.07020069
175	0x3c3a8880	0.011385083
176	0x3b98d5a0	0.004664138
177	0x3c197b59	0.009367787
178	0xbe06dba0	-0.13169718
179	0xbe1b3432	-0.1515663
180	0xbc1970aa	-0.00936524
181	0xbd913a18	-0.07091159
182	0xbdbdc3f3	-0.0926589
183	0x3d964df8	0.0733909
184	0xbd6fb1c3	-0.058519136
185	0xbe2ab740	-0.16671467
186	0xbe0f2a3e	-0.13980958
187	0xbe0134a3	-0.12617736
188	0xbbaa72a2	-0.0052016536
189	0xbe37a4ab	-0.1793391
190	0x3dcee30e	0.10101901
191	0x3cc5df60	0.024154365
192	0xbd84d666	-0.06486206
193	0xbce63856	-0.028103035
194	0x3cc28e15	0.02374939
195	0xbdb63834	-0.08897439
196	0x3d9244fe	0.071420655
197	0x3cb3935b	0.02192085
198	0x3d733a62	0.05938185
199	0xbdc652f6	-0.09683792
200	0xbe231296	-0.15925059
201	0xbcbe9a49	-0.023266928
202	0xbdc3a60a	-0.09553154
203	0x3ddc9025	0.10769681
204	0xbe315ca4	-0.17320496
205	0x3a257187	0.00063111674
206	0x3e32e8bc	0.17471594
207	0xbcf7bc88	-0.030241266
208	0xbc242600	-0.0100188255
209	0x3e1812df	0.14850949
210	0xbdfa9d00	-0.122369766
211	0x3d854825	0.06507901
212	0x3c6d7213	0.014492529
213	0x3e041c9a	0.12901536
214	0x3dee34d8	0.11631173
215	0x3d79d864	0.06099738
216	0x3daa809f	0.08325314
217	0x3dfe12bb	0.12405916
218	0xbe27326d	-0.1632783
219	0x3d7e251e	0.062047116
220	0x3d1c165d	0.038107265
221	0x3dbcf999	0.092272945
222	0xbcfde070	-0.03099081
223	0xbe186f32	-0.14886168
224	0x3cec39d8	0.028836176
225	0xbe1793bb	-0.14802448
226	0xba7ba053	-0.00095987803
227	0x3d17400d	0.036926318
228	0x3d8a69c0	0.067584515
229	0xbde525bb	-0.11188837
230	0xbc7df719	-0.015500807
231	0xbd142c7c	-0.036175236
232	0xbdf528eb	-0.11970695
233	0xbe2cf75d	-0.16891237
234	0xbddaa7c7	-0.10676532
235	0x3db7d1eb	0.089755856
236	0x3e3f7442	0.18696693
237	0x3e14a188	0.14514744
238	0x3de9171a	0.113813594
239	0xbd29e224	-0.04147543
240	0xbde9adb5	-0.11410085
241	0xbc7262b8	-0.014794044
242	0x3db1694c	0.08662662
243	0xbb52d292	-0.0032168967
244	0xbdff24dc	-0.12458202
245	0xbe11b780	-0.14230156
246	0x3e423f04	0.18969351
247	0x3db5e9d1	0.088824876
248	0xbb7edbc9	-0.0038888326
249	0xbddd7aad	-0.10814414
250	0xbdef4166	-0.11682396
251	0x3e0b8416	0.13624606
252	0x3b4bed21	0.0031116682
253	0x3dfbf6ed	0.12302957
254	0x3c9c66d0	0.019091994
255	0xbd83e631	-0.0644039

encoder.layers.0.linear2.bias f4 [8]
0	0xbd4943a9	-0.04913679
1	0x3e2fc99b	0.1716675
2	0xbe0c22cf	-0.13685153
3	0x3de47442	0.11154987
4	0x3e104755	0.14089711
5	0x3ac901f3	0.0015335664
6	0xbe2d87a4	-0.16946274
7	0x3c35e4ac	0.011101883

encoder.layers.0.norm1.weight f4 [8]
0	0x3f7c888e	0.98645866
1	0x3f8274e6	1.0191925
2	0x3f7b3393	0.9812557
3	0x3f7b21dc	0.9809854
4	0x3f7e85b5	0.9942277
5	0x3f82545b	1.0181993
6	0x3f8189a6	1.0120132
7	0x3f7b0ef0	0.9806967

encoder.layers.0.norm1.bias f4 [8]
0	0xbc9ad9d4	-0.018902697
1	0x3c9d42f8	0.019196972
2	0x3c974524	0.018465586
3	0xbc9d9f7a	-0.019241083
4	0xbbbb1ca1	-0.0057102
5	0xbc9c1d2a	-0.019056875
6	0xbc5df598	-0.013547324
7	0x3c9d9403	0.019235617

encoder.layers.0.norm2.weight f4 [8]
0	0x3f7c0644	0.9844706
1	0x3f82715d	1.0190846
2	0x3f7b3461	0.981268
3	0x3f8083aa	1.0040181
4	0x3f7c8e87	0.9865498
5	0x3f825f78	1.0185385
6	0x3f80915c	1.004436
7	0x3f7b0fd2	0.98071015

encoder.layers.0.norm2.bias f4 [8]
0	0xbbd452fd	-0.0064796195
1	0x3c9c58f6	0.019085389
2	0x3c9833ea	0.018579442
3	0xbc9d92c0	-0.019235015
4	0xbc590fc6	-0.01324839
5	0xbc9c3343	-0.019067412
6	0xbbc1947b	-0.005907593
7	0x3c9d043a	0.019167054

encoder.layers.1.self_attn.in_proj_weight f4 [24, 8]
0	0x3edad932	0.42743832
1	0x3e882f78	0.26598716
2	0x3e868c70	0.2627902
3	0x3d1b3bd5	0.037898857
4	0x3c25ef9b	0.010127927
5	0x3ed6b40b	0.41934237
6	0xbea5c215	-0.32374635
7	0xbe895652	-0.2682367
8	0xbe45bd1c	-0.19310421
9	0xbd947ed6	-0.072507545
10	0x3e9b2119	0.3029869
11	0x3e821fb8	0.25414824
12	0xbecc6565	-0.39921108
13	0x3dec62cf	0.11542284
14	0xbd6d0d2b	-0.057873886
15	0x3e867ec9	0.26268604
16	0xbe854f1c	-0.26036918
17	0xbe30a280	-0.17249489
18	0x3c051ea3	0.00812498
19	0xbe361dc0	-0.17784786
20	0xbec9ae1a	-0.3939064
21	0x3dcdb849	0.10044915
22	0x3e665d1b	0.22496454
23	0x3e389cd4	0.18028575
24	0xbec137a7	-0.37737772
25	0xbec0c16f	-0.37647578
26	0xbe9c479e	-0.3052339
27	0x3ed8b986	0.42329043
28	0x3e9fca6f	0.31209132
29	0x3e59e208	0.2127763
30	0xbe71e813	-0.23623686
31	0x3e50f33d	0.20405288
32	0xbe9e653e	-0.30936617
33	0xbe4fbfd2	-0.20288017
34	0xbe09309c	-0.1339745
35	0x3e6dbe06	0.2321702
36	0xbede922b	-0.43470892
37	0xbe8192a2	-0.25307184
38	0xbec62b7e	-0.38705057
39	0x3e8ffe28	0.28123593
40	0xbd54cd7d	-0.05195378
41	0x3ebce60e	0.36894268
42	0xbe7f2c25	-0.24919184
43	0xbe860382	-0.2617455
44	0xbe94156a	-0.28922588
45	0xbe857616	-0.26066655
46	0x3e7a411b	0.24438898
47	0x3e1279dc	0.14304298
48	0xbe8f6d55	-0.280131
49	0xbe080bdb	-0.13285773
50	0xbe85f219	-0.26161268
51	0x3e0051d8	0.12531221
52	0xbd240bc5	-0.040050287
53	0x3eb65fc3	0.35619935
54	0x3e4935ea	0.19649473
55	0xbd64ac64	-0.055828467
56	0xbe80ba25	-0.25142017
57	0x3e898076	0.2685582
58	0x3de8c552	0.11365761
59	0x3eb1fb81	0.34762195
60	0x3e640c68	0.22270358
61	0xbdecd9ec	-0.11565003
62	0x3d462bd1	0.04838163
63	0xbe058e8c	-0.13042659
64	0xbe1d5b33	-0.15366821
65	0xbe820c97	-0.2540023
66	0xbeb8e54d	-0.36112443
67	0x3edcf789	0.43157604
68	0x3ed023ef	0.40652415
69	0x3ed4a285	0.41530243
70	0xbd92e736	-0.07173006
71	0x3ec94bd8	0.39315677
72	0x3ed51c9d	0.41623393
73	0xbd925634	-0.07145348
74	0xbed14d7b	-0.40879425
75	0xbe814334	-0.25246584
76	0x3e4d267c	0.20034212
77	0x3e9fa43c	0.31179988
78	0xba966b43	-0.0011476058
79	0x3ed48dc0	0.41514397
80	0x3ec3d83f	0.3825092
81	0x3da36023	0.07977321
82	0x3e9e28a5	0.30890384
83	0x3e7e5e0c	0.24840564
84	0xbed351ed	-0.41273442
85	0x3e1a07b1	0.15041997
86	0x3db52fd1	0.08847011
87	0x3e934bfb	0.28768906
88	0xbe16caf3	-0.14725856
89	0x3d7f5c0f	0.062343653
90	0xbecc1058	-0.3985622
91	0x3e986661	0.2976561
92	0xbdf2a525	-0.11847905
93	0x3e3ee408	0.18641675
94	0xbec54a11	-0.3853307
95	0xbecb30c6	-0.3968565
96	0xbe43ce69	-0.19121708
97	0x3eddf171	0.43348268
98	0xbeac470a	-0.33647949
99	0x3e6b4e52	0.22979096
100	0xbcfa41f5	-0.030549029
101	0xbe7c5101	-0.24640276
102	0x3e38f787	0.18063174
103	0xbeaa7165	-0.33289638
104	0xbe2bdb89	-0.16782965
105	0xbe981d5c	-0.297099
106	0xbea15cdd	-0.31516162
107	0x3ecea756	0.40362042
108	0x3e6cf722	0.23141149
109	0xbed68dd2	-0.41905075
110	0x3e9f1c34	0.31076205
111	0xbea9e8a1	-0.33185294
112	0x3e0ba4b8	0.13637054
113	0xbe65091b	-0.22366755
114	0xbe977496	-0.29581136
115	0xbe92c076	-0.2866246
116	0xbe9a0387	-0.30080816
117	0x3d7a6ebd	0.061140765
118	0x3cf4fbbe	0.029905196
119	0xbebb7c33	-0.36618194
120	0xbdf5b1b4	-0.11996785
121	0xbdac203c	-0.08404586
122	0x3de7e273	0.11322489
123	0x3eb402f7	0.35158512
124	0xbdb2c42f	-0.08728825
125	0x3d9a15a9	0.075236626
126	0xbecb2428	-0.39676023
127	0xbec73cfe	-0.3891372
128	0x3dfb7647	0.12278419
129	0x3df45b1d	0.11931441
130	0xbea01030	-0.3126235
131	0xbe33e12e	-0.17566368
132	0xbe29740f	-0.16548179
133	0xbeb8cde2	-0.36094576
134	0x3eb650eb	0.3560861
135	0x3e6f34d0	0.2335999
136	0x3e262cb9	0.16227998
137	0x3d650c0a	0.055919684
138	0x3e1bba97	0.15207897
139	0x3dc7e397	0.09760206
140	0x3e83cdf7	0.25743076
141	0xbeb14644	-0.3462392
142	0x3e705f29	0.234738
143	0x3eccc21f	0.39991853
144	0x3c328a94	0.010897297
145	0xbe01c1ad	-0.12671538
146	0x3eb35561	0.35026076
147	0xbe1979fa	-0.14987937
148	0xbe915d92	-0.283917
149	0x3ecf687c	0.40509403
150	0x3e7c8361	0.24659492
151	0xbe30912d	-0.1724288
152	0xbac21c88	-0.0014809528
153	0xbeadb769	-0.33928993
154	0x3e72c19a	0.23706666
155	0xbe8c70b0	-0.27429724
156	0x3ba492e6	0.0050223945
157	0xbe322df4	-0.17400342
158	0xbe0ab7c1	-0.13546659
159	0x3bb57335	0.0055374154
160	0x3ebd89f5	0.37019315
161	0x3ed3bc5d	0.41354647
162	0xbe57175b	-0.21005003
163	0x3d36efaf	0.044662174
164	0xbe5647ce	-0.20925829
165	0xbe057560	-0.13033056
166	0xbb79d897	-0.0038123482
167	0x3e519d51	0.20470168
168	0x3e974d11	0.29550985
169	0xbeca0a2a	-0.3946088
170	0x3c79e872	0.015253173
171	0xbe109f96	-0.14123377
172	0xbcf15f3d	-0.029464358
173	0xbed0551f	-0.40689942
174	0x3dce322e	0.10068165
175	0xbec57110	-0.38562822
176	0x3df46e76	0.11935131
177	0x3e6f5612	0.23372677
178	0xbe67534c	-0.22590369
179	0xbe9ceaf7	-0.30648014
180	0x3e1334c5	0.14375599
181	0xbe076995	-0.1322387
182	0x3eb06cf4	0.34458125
183	0x3e821132	0.25403744
184	0xbebbbf8e	-0.36669582
185	0xbe5b498d	-0.21414776
186	0xbebc7479	-0.36807612
187	0xbebd7b19	-0.3700798
188	0x3ed6c1ec	0.41944826
189	0xbe795b7d	-0.24351306
190	0x3c5ed1f7	0.013599864
191	0x3e8fc8b0	0.280828

encoder.layers.1.self_attn.in_proj_bias f4 [24]
0	0x3b47d642	0.0030492698
1	0x3a70ed9a	0.0009190679
2	0x397755fc	0.00023587787
3	0x3b3e855c	0.0029071188
4	0xbb6341b6	-0.0034676618
5	0x3b34c385	0.002758236
6	0x3b8ea8d3	0.0043536215
7	0xbb3f717d	-0.0029211931
8	0x33b20b2e	8.2908045e-08
9	0xb498bec3	-2.8451004e-07
10	0xb48a2a21	-2.5735156e-07
11	0xb3807998	-5.982582e-08
12	0xb418f29c	-1.4244364e-07
13	0x341249d9	1.3624175e-07
14	0xb42d2797	-1.6126283e-07
15	0x33e235be	1.0533721e-07
16	0xbc190f09	-0.009341964
17	0x3a92af70	0.00111912
18	0xbc8f53ac	-0.017495953
19	0x3a9c4447	0.0011922204
20	0xbc1bf3db	-0.009518589
21	0x3c994bd5	0.018712917
22	0x3c242e8e	0.010020865
23	0x3bbc1758	0.0057400875

encoder.layers.1.self_attn.out_proj.weight f4 [8, 8]
0	0xbd8a46ae	-0.06751762
1	0x3e9fb07b	0.3118933
2	0x3e859b01	0.2609482
3	0x3e91b160	0.2845564
4	0x3d866d14	0.06563774
5	0xbdeae528	-0.11469489
6	0x3e86b5e2	0.2631064
7	0xbe8d54b1	-0.27603677
8	0x3dcd1748	0.10014206
9	0xbe4adeea	-0.19811597
10	0xbdd0b3dd	-0.10190556
11	0xbd011599	-0.031514738
12	0xbe3ec5af	-0.18630098
13	0x3e768503	0.24074177
14	0xbe292a63	-0.16520076
15	0xbe6f6bc8	-0.23380959
16	0x3db333bf	0.08750104
17	0x3e874fa2	0.26427943
18	0xbdc33236	-0.09531061
19	0xbe9c95f3	-0.30583152
20	0x3de801ac	0.11328444
21	0xbe4625e5	-0.19350393
22	0x3e99a059	0.30005148
23	0x3d9eaf6c	0.07748303
24	0xbe6612e1	-0.22468139
25	0xbcec3421	-0.02883345
26	0xbd48856c	-0.048955366
27	0xbe6bd9be	-0.23032281
28	0x3e20b155	0.15692647
29	0xbe8333b3	-0.2562538
30	0x3d865950	0.06560004
31	0xbea6a954	-0.32551062
32	0x3e439938	0.19101417
33	0xbc85abd7	-0.016317291
34	0xbd7d5397	-0.061847296
35	0xbe26b286	-0.16279039
36	0xbe85ea05	-0.26155105
37	0xbe4b362f	-0.19844888
38	0xbea8529a	-0.3287552
39	0x3e74b3f8	0.23896778
40	0x3d8258b7	0.06364577
41	0xbe4998df	-0.19687222
42	0x3d896a5b	0.06709739
43	0x3d9224e7	0.07135945
44	0xbe35a77f	-0.17739676
45	0xbe6eebf3	-0.23332195
46	0x3dfcf4c2	0.12351371
47	0xbe980c2c	-0.29696786
48	0x3d4d40ac	0.050110504
49	0xbea6219a	-0.3244751
50	0xbdc48fbe	-0.09597729
51	0x3d68bf9d	0.05682336
52	0x3ea9a310	0.3313222
53	0x3d4f44c2	0.050602682
54	0xbdee5259	-0.116368
55	0xbd939b49	-0.07207353
56	0xbe3c3a70	-0.18381667
57	0x3d27bec7	0.040953424
58	0xbdfa3fc0	-0.122191906
59	0xbe5b65f7	-0.21425615
60	0xbd475934	-0.048669055
61	0xbeaf96b0	-0.34294653
62	0x3e4509da	0.1924204
63	0x3d356311	0.04428393

encoder.layers.1.self_attn.out_proj.bias f4 [8]
0	0xbc136b7f	-0.008997797
1	0x3c9df864	0.019283481
2	0x3c90f457	0.017694635
3	0xbc9d6017	-0.019210858
4	0xbc92e601	-0.01793194
5	0xbc9a8c1f	-0.018865643
6	0xbbd7a044	-0.0065803844
7	0x3c9d75aa	0.019221146

encoder.layers.1.linear1.weight f4 [32, 8]
0	0xbe68b72c	-0.22726125
1	0xbca2b7c2	-0.019863013
2	0x3d411cea	0.047146715
3	0x3d275435	0.04085179
4	0x3dbdfad6	0.09276359
5	0x3e3becfe	0.18352124
6	0x3ea5555f	0.32291695
7	0x3e32afb9	0.17449845
8	0xbe82831b	-0.2549065
9	0x3d43dd19	0.047818277
10	0xbdf243b3	-0.11829319
11	0x3e6b7583	0.22994046
12	0xbe4a156d	-0.19734736
13	0xbd800489	-0.06250865
14	0x3ded862a	0.115978554
15	0xbe20e89e	-0.15713736
16	0x3dda1c62	0.10649945
17	0x3ea44b1a	0.32088548
18	0x3ea6b720	0.32561588
19	0x3e1f1dac	0.15538663
20	0x3cb26820	0.021778166
21	0xbe96ef27	-0.29479334
22	0xbe154fde	-0.14581248
23	0xbe2abf93	-0.16674642
24	0xbe342a34	-0.17594224
25	0x3e2ae3af	0.16688417
26	0xbe0f9cad	-0.14024611
27	0xbea221de	-0.31666464
28	0xbdf59fb1	-0.11993349
29	0x3db7a559	0.089670844
30	0x3e4934b2	0.19649008
31	0xbd7e092d	-0.06202047
32	0xbe586bb4	-0.21134835
33	0xbe9f43ac	-0.31106317
34	0xbea141be	-0.3149547
35	0xbe52dd01	-0.20592119
36	0xbe8fa123	-0.28052625
37	0x3e10634a	0.14100376
38	0xbe0f8b06	-0.14017877
39	0x3e75e28e	0.24012205
40	0x3e91cda9	0.2847722
41	0xbe1a6698	-0.15078199
42	0xbdefb097	-0.11703604
43	0x3c10f7cb	0.008848141
44	0x3d87b868	0.066269696
45	0xbe956d30	-0.29184866
46	0x3a8af22e	0.001060074
47	0x3e34d252	0.17658356
48	0xbcbf720e	-0.023369815
49	0xbe59cea6	-0.21270236
50	0xbe8088ba	-0.25104314
51	0x3e803ab2	0.2504478
52	0x3e278087	0.16357623
53	0xbe6087fb	-0.21926872
54	0x3e0d710d	0.13812657
55	0xbe8bb742	-0.27288252
56	0x3cc37380	0.023858786
57	0xbde1bc52	-0.110222474
58	0x3ea63731	0.32463983
59	0xbd8a79b8	-0.06761497
60	0x3e56f826	0.20993099
61	0x3e95b387	0.2923853
62	0x3e37d5d6	0.17952666
63	0x3dd208a8	0.10255557
64	0xbdab6fd7	-0.08370941
65	0x3e4b4c19	0.19853248
66	0xbe3e4177	-0.1857966
67	0x3eb14558	0.34623218
68	0xbde879a2	-0.113513246
69	0xbe70d469	-0.23518528
70	0xbea10621	-0.31449988
71	0xbe46f940	-0.19431019
72	0x3e9bd19e	0.30433363
73	0x3eacffb4	0.33788836
74	0x3e8c9afb	0.2746199
75	0xbe8bb354	-0.27285254
76	0xbe0f439c	-0.13990635
77	0x3d6ac8ad	0.057320286
78	0x3d1e42e1	0.038638
79	0x3ea218fd	0.3165969
80	0x3e1e5860	0.154634
81	0xbdc3089b	-0.09523126
82	0x3e7ab584	0.24483305
83	0xbe9c38e5	-0.30512157
84	0xbe6a4000	-0.22875977
85	0x3e3753f2	0.17903116
86	0xbe947f2d	-0.29003277
87	0x3e58df6c	0.21178979
88	0xbc4eceeb	-0.012622575
89	0x3d4d1b51	0.05007488
90	0xbcab29e1	-0.020893993
91	0xbe8e3434	-0.27774203
92	0x3e69eb4e	0.22843668
93	0x3d8c9c12	0.068657055
94	0x3c6cf634	0.014462996
95	0xbd14ce12	-0.036329336
96	0xbe0efc20	-0.13963366
97	0x3e98f1da	0.29872018
98	0xbeab2ff3	-0.3343502
99	0xbe4f9a7a	-0.20273772
100	0xbe2bcb15	-0.16776688
101	0x3cd22cbe	0.0256561
102	0xbe9bdef5	-0.3044354
103	0xbead495d	-0.33845034
104	0xbe83c362	-0.25735003
105	0x3d74cf2d	0.05976789
106	0xbe9a7ba4	-0.30172455
107	0x3e407315	0.187939
108	0x3e94a7b7	0.29034206
109	0xbd8e0a17	-0.06935518
110	0xbe18cd60	-0.14922094
111	0x3e782d94	0.24236137
112	0x3dd4bd1e	0.10387634
113	0xbd13d260	-0.0360893
114	0xbe99e8e7	-0.30060503
115	0xbd8f6ce2	-0.070031896
116	0x3cbb6c1d	0.0228787
117	0x3d7e5ab8	0.062098235
118	0x3cdf3d0d	0.027250791
119	0x3e6921be	0.22766778
120	0xbe38b6d3	-0.18038492
121	0xbe888776	-0.26665848
122	0x3e4ec0ea	0.20190778
123	0x3e03c914	0.12869674
124	0xbe4ff551	-0.20308425
125	0xbd86904c	-0.06570491
126	0x3e49d4ee	0.19710132
127	0x3eae0281	0.33986285
128	0x3d633ce0	0.055477977
129	0xbe68cf20	-0.22735262
130	0x3e474132	0.19458464
131	0xbe470fcb	-0.19439618
132	0xbe2a3c68	-0.16624606
133	0x3e231756	0.1592687
134	0x3e885457	0.26626846
135	0xbea71160	-0.32630444
136	0x3e38c6c6	0.18044576
137	0xbbb80c96	-0.0056167347
138	0xbe1965ff	-0.14980315
139	0x3e832463	0.25613698
140	0xbe6831a8	-0.22675192
141	0xbe513957	-0.2043203
142	0x3e53ef1c	0.20696682
143	0x3cb5ce75	0.022193173
144	0x3dfcb452	0.12339081
145	0x3e89e50e	0.26932567
146	0x3c108472	0.00882064
147	0xbe81b354	-0.2533213
148	0xbcede89c	-0.02904158
149	0xbab43792	-0.0013749471
150	0xbe9468ac	-0.28986108
151	0x3e8f0d20	0.279397
152	0xbaf4dc35	-0.001868135
153	0x3e4cc5bf	0.19997309
154	0x3e4768f4	0.1947363
155	0xbd90bb43	-0.07066967
156	0xbd7b6782	-0.06137801
157	0xbd1de2dc	-0.038546428
158	0xbe343eeb	-0.17602126
159	0xbe19d044	-0.15020853
160	0x3df3d9fa	0.1190681
161	0xbddbb21e	-0.107273325
162	0x3ddba1db	0.10724231
163	0x3eb22cb2	0.34799725
164	0x3eab3ac5	0.33443275
165	0x3e1d05fd	0.15334316
166	0x3eb18f3f	0.346796
167	0xbe20da2a	-0.15708223
168	0xbe5a43af	-0.21314882
169	0x3d5a68b2	0.0533225
170	0xbe5da61c	-0.21645397
171	0x3d93db56	0.072195694
172	0xbe9efe99	-0.31053618
173	0xbe95285e	-0.2913236
174	0xbeb6a1a6	-0.35670203
175	0x3e82f7e8	0.25579762
176	0xbe5b0856	-0.21389899
177	0x3eb47007	0.3524172
178	0x3cab951d	0.020945126
179	0xbe1035d9	-0.14083041
180	0x3e88eb70	0.26742125
181	0xbeb0111b	-0.3438805
182	0xbddc2469	-0.10749132
183	0x3ad46b0e	0.0016206221
184	0xbeb023a8	-0.34402204
185	0x3dfdb7af	0.123885505
186	0x3dc79bad	0.0974649
187	0xbe0ea9ee	-0.1393201
188	0xbd8afd79	-0.06786627
189	0xbe2bf8b1	-0.16794087
190	0x3e73f2d4	0.238231
191	0xbd71afba	-0.059005477
192	0x3c7a409e	0.015274195
193	0x3ebdcc52	0.37069947
194	0x3e9545f5	0.29154935
195	0xbd6103bf	-0.054935213
196	0x3e9b4969	0.30329445
197	0xbe4b85cd	-0.1987526
198	0xbeaf25b4	-0.34208453
199	0xbe995061	-0.29944137
200	0xbeb75560	-0.35807323
201	0x3db8e3ab	0.09027799
202	0x3ce29b45	0.027661929
203	0x3dfb6584	0.12275222
204	0x3e334f58	0.17510736
205	0x3e28559e	0.1643891
206	0x3e80f075	0.25183454
207	0x3e0f57aa	0.13998285
208	0x3d7ee38d	0.062228728
209	0x3da35238	0.07974666
210	0xbe6877f7	-0.22702013
211	0xbe1023b7	-0.14076124
212	0x3d8010dd	0.062532164
213	0x3d559571	0.05214447
214	0x3e16e9c5	0.14737613
215	0x3ead1584	0.33805478
216	0xbe41f757	-0.18942009
217	0x3e5a67d5	0.21328671
218	0xbe1fdc73	-0.15611438
219	0x3eacd2f3	0.3375469
220	0x3e534c34	0.20634538
221	0x3ea903cf	0.33010718
222	0xbe8734c3	-0.26407441
223	0xbe27febf	-0.16405772
224	0xbebc0262	-0.36720568
225	0x3d0361e8	0.032075793
226	0xbcb2f39c	-0.021844678
227	0xbe174ba0	-0.14774942
228	0xbdedc0e1	-0.11609054
229	0xbe25126a	-0.16120306
230	0xbe776578	-0.24159801
231	0xbe1290ea	-0.14313093
232	0xbd8078a0	-0.062730074
233	0xbd297caa	-0.041378655
234	0xbe4ec4d0	-0.20192266
235	0xbea25383	-0.3170434
236	0xbd719773	-0.058982324
237	0xbeab5116	-0.334603
238	0xbe97fbe4	-0.29684365
239	0x3d85d92e	0.06535564
240	0x3c0b27e0	0.008493394
241	0x3e54c4b2	0.20778158
242	0xbd21e3a0	-0.03952372
243	0xbe367fa3	-0.17822127
244	0xbe8b091d	-0.2715539
245	0x3e813a8d	0.25239983
246	0x3ddbe080	0.10736179
247	0xbdeb1fa0	-0.11480641
248	0x3ca6ac66	0.020345878
249	0xbe199911	-0.14999796
250	0xbdb954f2	-0.09049405
251	0xbdc049c6	-0.09389071
252	0x3d6380ec	0.05554287
253	0x3e9316fa	0.28728467
254	0x3e635931	0.22201993
255	0x3e7495d0	0.23885274
