models/ts_views_models/ts-v8.ckpt (torch, 328080 bytes, 201 tensors)

input_pos_embedding.weight f4 [1024, 8]
00000000: 7a30 f2bd 8287 1cc0 5933 24bf 8a4e 1d3f
00000010: b40f b2bd 4f90 65bf f078 5dbe 3d89 47bf
00000020: 26f3 05bf 9715 06bf 0723 8dbe b371 c1bf
00000030: 21a2 f0bf e4fc ff3e b7ca 18c0 96cb 7c3e
00000040: 074e de3f f043 31c0 41c7 b9bf 09d8 5cbf
00000050: 0263 cbbf 2f2e 133e 1738 00c0 b379 553f
00000060: 9ae7 03bf 6688 d1be 150f 3dbf 50b4 bfbf
00000070: 84f4 8abd 9420 bf3e 4a40 733e 172d 4a3f
00000080: ab20 afbf 8a8c 0e3f 47aa 263f ce24 973f
00000090: 72dc 553f 1fbd d9bf cd03 d0be 4f2c ec3e
000000a0: dc14 673f 42fb edbe 86b4 dfbf 2272 d13f
000000b0: de58 4ac0 9415 823f 892a 1840 8241 b53f
000000c0: e9fa cabe f4f5 06bf 335c 663e 7775 f0be
000000d0: ce92 113f 925d 5a3f 39f9 753e 862e d23e
000000e0: 3a08 043f e8ad 6f3f a7ad be3f 277b 6a3f
000000f0: e51f 96be 2ef7 44be 516b 0e40 d663 35bf
00000100: 4c2a 8d3f c56a 30bf 7edb 97bf e194 7a3f
00000110: ab27 f3bf 2a9c 39bd 8442 233f 3673 b6bf
00000120: 6c7f c7bf 67e7 073f bf64 0e3f f0c0 d13e
00000130: e4da a13e b210 dabe 0a8d d03f c703 28bf
00000140: 5409 b1bf 19b8 833f 9841 7ebf c3b3 733f
00000150: fe27 9dbf d682 963e 5206 e73f aa1e c6bf
00000160: ed17 263f 76a2 edbf a16e c6bf 1ef6 763f
00000170: 21b8 0dc0 9f7c d9be 9681 07bf 4083 ec3c
00000180: 3bb1 25bd ae14 ce3f c34a b6bf 04c1 33bf
00000190: ad9c 86bf 1a09 febf 7c0c af3d b2df a33f
000001a0: fb4f d33e 19b8 61bf 2c71 34be 6af1 13bf
000001b0: 3177 9d3f b941 8c3f 6b3a 9bbe 4ff3 453f
000001c0: b4ba 7cbf f6f4 20bf 0cc1 a93e 26f5 c8be
000001d0: 888d 85be f08a 0c3f 1514 2abf 2b78 d7be
000001e0: 2137 b33f b18b 9a3e e7fe b73f 1f7e b23f
000001f0: 0dec 523f a38f ad3f 3e0a 16c0 37d1 3a3f
00000200: aee9 b1bf e871 3d3f 32d7 1a3e e9e5 d0bf
00000210: f180 b3bf 30b8 003e 4cf1 203f 8d66 913e
00000220: 493b 7dbe d30d 913e 02d6 debf fada 99be
00000230: 1323 1bc0 d3ee 07c0 dd5f 84bf 5ed1 0fbf
00000240: 4d65 9cbe dece 7cbf 0116 57be 97c2 3c3f
00000250: 2933 40bf 75dd edbd 48ca 10bf 528d 5f3f
00000260: d29c 28bf 3fb1 323f 9aed d7bf d762 11be
00000270: d87e 9abf 16ce 3dbf 40f1 b13f 3052 a13e
00000280: d80c 4a3e b970 2bbf 6a75 9c3f 7eb2 7d3e
00000290: 16dc 603f 5cf3 8d3f eb6a c2be 8711 80be
000002a0: ec12 4d3d 9e06 113f 0440 383f b5fa 95bf
000002b0: 7931 db3e bb31 a33f 78ba 48bf b200 f73e
000002c0: a057 383f 2557 7f3f 3828 433f 7d79 483d
000002d0: dccc 843f eef7 c13f e53c 6abf afb9 5fbd
000002e0: 9b66 073e c5fe 2f3f 8983 88bf fd56 d13f
000002f0: 3e96 3cbd 9c7d 6dbf a821 adbf 041f 633f
00000300: 3641 573f 2971 1f3f 58a6 aabe 18f0 c23e
00000310: ee49 94bf e0fc a23d 86de 1fbf 1a36 5ebf
00000320: 925e 35bf 7067 8e3f dfaf a73e 7572 99be
00000330: b8c7 bcbf dac6 c0bf 6392 80bf 0c19 783f
00000340: 946c 4c3f f12b 05be 8380 1040 a306 c23e
00000350: 790e a3bf 5e98 f03f 76dc 8e3f 25bc 4f3f
00000360: ecc4 86bf d916 f03f 1cf5 5e3e c189 d73e
00000370: 797e 70be 5286 1d3f d474 cb3f 1321 d13e
00000380: 2c30 0340 2a96 9dbe e4ef 9ebf 9200 a33e
00000390: 71d4 acbf 40ff 313e 81d7 0640 9c48 c63f
000003a0: dc7b 673f 4e92 44be d73d c03f dd5f 653f
000003b0: dd34 acbf ccb1 b13f 9222 76bf cc30 223f
000003c0: 07d0 09bf db2b 34be 540a 253f de4a 943f
000003d0: b0c5 2b3f 6abb b6bf 4166 b63f 2113 933e
000003e0: 1491 0abf e000 8abf 547e a1be 2fbe 913e
000003f0: a4e8 01be 6450 a13e 394f 23bf 5f55 ca3f
-0.118256524 -2.4457707 -0.6414085 0.61447966 -0.086944014 -0.8967332 -0.21628165 -0.77943784
-0.5232414 -0.52376693 -0.27565786 -1.5112823 -1.8799478 0.49997628 -2.3873727 0.24687037
1.7367562 -2.7697716 -1.4513932 -0.86267143 -1.588959 0.14373086 -2.0034235 0.83388823
-0.5152527 -0.40924376 -0.7385114 -1.4976902 -0.06784919 0.37329543 0.23754993 0.7897505
-1.3681844 0.55683196 0.6510357 1.1808107 0.835395 -1.701084 -0.406279 0.46127555
0.90266204 -0.46480757 -1.7476966 1.6362956 -3.161674 1.0162835 2.3775961 1.4160616
-0.39644554 -0.52719045 0.22496109 -0.4696462 0.5686463 0.85299027 0.24020852 0.4105112
0.5157505 0.93624735 1.4896744 0.91594166 -0.2932121 -0.19234917 2.2253 -0.7085546
1.1028533 -0.6891292 -1.1863859 0.9788342 -1.8996481 -0.045314945 0.6377337 -1.425391
-1.5585761 0.53087467 0.55622476 0.40967512 0.31612313 -0.42590863 1.6293042 -0.65630764
-1.3830972 1.0290557 -0.9931884 0.9519617 -1.227783 0.29396695 1.8048804 -1.5478108
0.6488026 -1.8565204 -1.5502511 0.96469295 -2.2143633 -0.4247789 -0.5293211 0.028871179
-0.040452223 1.6100061 -1.4241565 -0.70216393 -1.0516564 -1.9846528 0.08547303 1.2802641
0.41271958 -0.88171536 -0.17621297 -0.57790244 1.2301999 1.0957557 -0.30318007 0.77324384
-0.98722386 -0.6287378 0.33155096 -0.39249533 -0.26084542 0.548995 -0.6643689 -0.42083868
1.4001199 0.301847 1.4374665 1.3944739 0.82391435 1.355946 -2.3443751 0.72975487
-1.3899438 0.7400193 0.15121153 -1.6320163 -1.4023725 0.12570262 0.6286819 0.28398553
-0.24729647 0.2833086 -1.740906 -0.30049878 -2.4240158 -2.1239517 -1.0341755 -0.56178844
-0.30546036 -0.98753154 -0.21004488 0.7373442 -0.75078064 -0.11614505 -0.56558657 0.8732501
-0.6586429 0.69801706 -1.6869385 -0.1419786 -1.206996 -0.7414259 1.3901749 0.31508017
0.19731462 -0.66968876 1.2223332 0.2477512 0.87835824 1.1089892 -0.37972197 -0.25013372
0.050066873 0.5665072 0.7197268 -1.1717135 0.42811182 1.2749552 -0.7840953 0.48242718
0.72008705 0.99742347 0.76233244 0.048943985 1.0375018 1.5153787 -0.9149917 -0.05462044
0.13222735 0.6874812 -1.0665141 1.6354672 -0.04604172 -0.9276979 -1.3525896 0.887192
0.8408388 0.62282044 -0.33330035 0.38073802 -1.1585062 0.07958388 -0.6244892 -0.868013
-0.7084743 1.1125317 0.32751366 -0.29970136 -1.4748449 -1.5060685 -1.0044674 0.9691322
0.7985318 -0.13005044 2.2578437 0.37895688 -1.2738792 1.8796499 1.1161029 0.8114646
-1.0528846 1.8756973 0.2177319 0.42097285 -0.23485745 0.6153308 1.5895028 0.40845546
2.0498152 -0.3077863 -1.2416959 0.31836373 -1.3502332 0.17382526 2.1069033 1.5490909
0.9042337 -0.19196436 1.5018872 0.895994 -1.3453633 1.3882384 -0.961465 0.6335571
-0.5383305 -0.17594855 0.64468884 1.1585348 0.6709852 -1.4275944 1.4249955 0.28725532
-0.5412762 -1.0781517 -0.31541693 0.2846541 -0.12686402 0.31506646 -0.6379276 1.5807303

target_pos_embedding.weight f4 [1024, 8]
00000000: 6cfb 96be b0d0 913f 6be1 1abf bb69 76bf
00000010: c87d c63f 6b56 99bc 3167 38bf 8601 003f
00000020: 4bce 673f 4159 e0bf f27b 7dbf 96a4 863f
00000030: e9d8 fcbe 969e 16bf 014b ce3e e2b7 97bf
00000040: a977 093f b831 5e3f 2f08 273e ac8d e6bf
00000050: 20ac 543f 609e c0bf 5f1c 7dbd f438 babf
00000060: fb1c b83d e74b 693f d545 75bd 7ca7 e3bf
00000070: b142 9cbd d0f7 213b ed12 c0bf 35f7 913f
00000080: 985f 29be 686f 06bf 144e 323f 1bea 47bf
00000090: 4305 923e 220a 2abe cfc6 bf3e 3baf cc3f
000000a0: 578f 493f 2ba6 2bbe fcca 18bf 3ae8 a83a
000000b0: 875f 97bf 6db1 8abf 0f59 14bf ca84 f2bb
000000c0: d37c 8b3e 443b 013f fefc a6bd 63a4 153f
000000d0: 7e68 b1be 41a1 c23e f9fa bc3d 3cf2 07bf
000000e0: 61d4 733f 6c0e 083f f7f2 aebf 3104 da3f
000000f0: dbad b2bf a215 2f3e 9e01 0a3f 8e21 d13e
00000100: d9ce 7abf 8189 eb3e 24b7 5d3e 80f8 f3bf
00000110: 2c18 4fbf 9475 f93e 8de0 493f bae9 9fbe
00000120: 55ea dcbe a2f8 d9bf 4162 6abe 7ef9 443e
00000130: 6dea 0c3e f1e2 013d e574 8dbe 1e2e e43e
00000140: 7d2a c83e bb6d 3e3f 7491 f93f 0baa 673f
00000150: 6974 aebf 2cef 333c 7af6 c03e 6210 5bbe
00000160: c438 dc3e 40a4 f63f 5c47 a33e 959a b13f
00000170: 771a 583f ed89 cd3f d3b1 8e3f 7c09 373e
00000180: 35cf e5bf 8466 1b3f 9537 a4be 4a12 1fbf
00000190: 3074 a23e 6520 c63f ebb3 e93f 6663 4bbf
000001a0: f7fd 523e 5e2a a2bd e925 91bf 3699 25bc
000001b0: 3435 2440 2774 3c3f 5bd6 28bf 07a5 cfbe
000001c0: 611b 373e 3ca7 993f 51cb 113d c9c6 b33f
000001d0: e358 14bf 2438 85be 2873 9b3d b88d 223e
000001e0: 41a4 91be c7d6 473f 0b52 4d3f 02d8 3bbf
000001f0: 8002 95be d9e7 5a3f f08e 833f 112e 40bf
00000200: ec31 b8bf 18ff 69bf 57cf e7bf 633a 9abf
00000210: 41f2 de3f 79b8 46bf cc41 233f 5902 883f
00000220: e66a aebf 88b6 e03e c84c e03e 143a 5f3f
00000230: d3bc 463f 2c30 ad3d 6bb8 853f 8d61 24bf
00000240: 3c26 423f 1ca2 bd3f ddde fa3f 945e a9bf
00000250: 60e0 f3be d2e8 0ec0 377d d2be dd1f 863e
00000260: df6b d83e 3998 69bc 2dbd aebf dd76 cf3f
00000270: 75fd 41be 0c1c d0bf 4896 ea3f 4edd 653f
00000280: 94f6 2e3f e6c3 1e3d d94e 6abf df42 dbbe
00000290: c5ac bd3f 5b4a a93e 26b1 02bd a231 0f3f
000002a0: 83a5 403f d881 83bf 7ccc 33c0 1124 083f
000002b0: 7f23 5abe 1ac0 c5bd bfcf 51be 2c8d ddbf
000002c0: 3179 86bf 1239 abbe 3025 90be 2e56 0d3f
000002d0: 744a fa3d b3f9 843f 70cd 8a3e c8d8 5cbf
000002e0: 97e9 5e3f d827 a83e 7705 c5bf 6d2e a3be
000002f0: 6492 b8bf c32a 31bf 19ea afbc e3b3 16be
00000300: 001c 3c3f 7c1d 7c3f e78e f13e 0ab3 193f
00000310: 4638 3fbf 6cd9 b8bf cce3 28bf 9fed fcbf
00000320: be23 fb3d 4eb6 92be 37e8 21bf 8e4f a53f
00000330: 1650 7fbf 248a 903f 36bb 70be c7ab 2b3f
00000340: c55a d63e b11d dfbf 0a80 823e 66d2 713e
00000350: 1da2 0f3f 8524 423f 5d01 66bf eeec 5a3f
00000360: 3bf1 95be 69b2 3cbe 430f 76bf 3b81 89bf
00000370: b785 bebe 96e2 683e 7897 cfbe 55a5 09bf
00000380: ae2f 0e3d 4b0f 3abe 1185 a5bf 4239 42be
00000390: c6d6 5cbe 6a05 bdbd cab2 973e 89e1 e8bf
000003a0: 1849 623f 8ac1 9bbe 122b a1bf 39c7 c33e
000003b0: 9989 8abf 3606 f13e d021 51bd ab1b be3e
000003c0: ca26 cebe d91e 81be 7489 303f 938a d73e
000003d0: 6014 b8bf 3b54 38bf ca01 a13e 8f9d cc3e
000003e0: d96d d0bf 2f6f 773f 26f3 8a3f 44d3 8a3d
000003f0: d5d9 cabd 8530 3440 6a1f 7dbf 393a 88bf
-0.29488695 1.1391811 -0.6050021 -0.9625508 1.5507135 -0.018717965 -0.7203246 0.50002325
0.90549153 -1.7527238 -0.9901725 1.0518978 -0.4938424 -0.5883573 0.40291598 -1.1852992
0.5369821 0.86794615 0.16311716 -1.8011985 0.8307514 -1.5048332 -0.061794635 -1.4548631
0.089899026 0.9113144 -0.05988105 -1.7785487 -0.07629908 0.0024714358 -1.5005776 1.1403567
-0.16540372 -0.5251374 0.6965039 -0.7809159 0.2851964 -0.16605428 0.37456366 1.5990976
0.78734344 -0.16762607 -0.5968473 0.0012886592 -1.1826028 -1.0835396 -0.5794839 -0.0074010836
0.2724367 0.5048106 -0.08153723 0.5845396 -0.34650034 0.38013652 0.09227557 -0.53103995
0.9524594 0.53147006 -1.3667897 1.7032529 -1.3959306 0.17098096 0.5390872 0.40845913
-0.97971874 0.46003345 0.21651894 -1.9060211 -0.8089626 0.48722517 0.7885826 -0.31233007
-0.4314753 -1.7029002 -0.22889043 0.19235799 0.13761301 0.03171057 -0.27628246 0.44566435
0.39094916 0.74386185 1.9497514 0.9049384 -1.3629276 0.010982316 0.37688047 -0.21392968
0.4301206 1.9268875 0.3189038 1.38753 0.8441538 1.6057717 1.1148018 0.17874712
-1.795386 0.607033 -0.32073656 -0.6213728 0.3172927 1.5478636 1.8258032 -0.79448545
0.20604692 -0.07918237 -1.1339694 -0.010107329 2.5657473 0.73614734 -0.6595208 -0.40555593
0.17881538 1.2004161 0.03559429 1.404504 -0.5794813 -0.26019394 0.07590324 0.15874374
-0.28445628 0.780621 0.8020331 -0.73376477 -0.2910347 0.8551002 1.0277996 -0.7507029
-1.4390235 -0.9140487 -1.811015 -1.2049068 1.741768 -0.7762523 0.63772273 1.0625716
-1.3626373 0.4388926 0.4380858 0.87197995 0.7763187 0.08456454 1.0446905 -0.6421135
0.7583959 1.4815097 1.9599262 -1.3231988 -0.47632122 -2.2329602 -0.41111156 0.26196185
0.422698 -0.014257484 -1.3651482 1.6208149 -0.18944342 -1.6258559 1.8327112 0.8979081
0.68345 0.038761042 -0.9152656 -0.42824456 1.481835 0.3306454 -0.031907223 0.5593511
0.7525255 -1.0274 -2.8093557 0.5318003 -0.21302603 -0.09655781 -0.20489405 -1.7308707
-1.0505735 -0.3344198 -0.28153372 0.55209625 0.12221232 1.0388702 0.2710986 -0.8626828
0.8707518 0.32842898 -1.5392293 -0.31871358 -1.4419675 -0.69205874 -0.021473931 -0.14717059
0.73480225 0.9848249 0.47179338 0.60038817 -0.7469524 -1.4441352 -0.6597259 -1.9760016
0.12262677 -0.28654712 -0.63244957 1.2914903 -0.99731576 1.1292157 -0.23508915 0.67058986
0.41866127 -1.7430936 0.2548831 0.23615417 0.5610674 0.75836974 -0.8984583 0.85517776
-0.29285607 -0.18427433 -0.9611704 -1.0742563 -0.3721139 0.22742686 -0.4054525 -0.537679
0.03471344 -0.18169896 -1.2931234 -0.18967155 -0.21566305 -0.09229548 0.29628593 -1.8193828
0.8839278 -0.30421096 -1.2591269 0.38237932 -1.0823241 0.4707505 -0.051057637 0.37130484
-0.4026397 -0.25218847 0.68959737 0.4209791 -1.4381218 -0.72003525 0.31446677 0.39963958
-1.6283523 0.9665403 1.0855453 0.06778577 -0.099048294 2.8154614 -0.9887606 -1.0642768

encoder.layers.0.self_attn.in_proj_weight f4 [24, 8]
00000000: bd66 8fbe 9963 9ebe 5546 84be 0ad6 983d
00000010: 70f5 20be c85b e6bd 99d7 d83e b3eb 793e
00000020: 6dce acbe 7c0a e0be 5302 9cbc 0e7b 1d3d
00000030: c01e 35bd ba98 573e 9a61 c2be f621 893e
00000040: d1e8 cdbd ebfe 873e 30a7 f13d 9e85 b4be
00000050: 4dd4 f23d ee15 843e 59b8 823d 62de c43e
00000060: a1fc c73e a1ae 84bd 13b0 f4bc ad6f c8be
00000070: 0cf6 3fbd bcee ccbe 6993 54be 1060 583e
00000080: 12b2 59be 6d52 933e b1cc 123e 3251 9e3d
00000090: adfa 36be 3d25 083e c348 c23e 06af 3cbe
000000a0: 7228 933d 1ca5 55be 6450 2fbe 22e5 683e
000000b0: 654f 533e 1815 98be 89bf ccbb f1b0 1d3e
000000c0: 73ba d33e 536e b2be c57e 2dbe 5cd5 c0be
000000d0: de69 f8bd 2141 88be 1b94 88be 4e90 003d
000000e0: f0df a13e b949 74be 2b1d 87bc 50a8 303d
000000f0: d3ba 603e 2284 983e de61 d0be 15b4 943e
00000100: 5aed 71be c5d7 753e 9e3d b73e 6da2 54bd
00000110: c3e6 223d 7245 26be 8e6a 963e 9a6c d03e
00000120: 5ce8 c53e 9f6e f3bd 8ad1 1abe 56e0 ac3e
00000130: cc41 ad3e 982c a3be 059d 1b3e 3eda 15be
00000140: 6f4d 403e 7894 9a3e 65a3 80bd 12f0 923e
00000150: d00f b13e b12e 7ebe 3bd8 debe 027f 803c
00000160: 0823 0cbe 66fb c33e 715d 8dbe a941 6e3e
00000170: c25f 243e 5001 eb3d ac3a a5be 7e58 fa3d
00000180: 9218 83bd ab05 56be 79d2 2e3e 72ea 543e
00000190: b988 373e 0665 a5be 5968 01be 57e7 64be
000001a0: 04bf 153e 44f1 48be 23b5 c63e 7296 cebe
000001b0: dddf b4be f91b a7bd ef82 2f3e e272 a73e
000001c0: 3868 a83e 8269 8bbe 0d21 443d db8f 05be
000001d0: 2c12 f3bd b847 973e 8d66 c4ba 8950 28bd
000001e0: 0859 7abe 6f66 50bb 7df8 b13e 3272 8bbe
000001f0: 5ad2 76be b7c8 8f3e b55c 813e 8119 a33e
00000200: 20ac b13d 45d7 4e3e 26d7 03be f3c3 5f3e
00000210: 092f e7bc e118 b03e 664a cdbd 65cf a73e
00000220: 0e77 1cbe 3c96 b6be cf5f 71be 5db0 9e3e
00000230: 8739 933e 174f 3fbe 7c14 1ebe 7758 bf3e
00000240: 6419 8ebc 34cd b63e afdc a53e 29a9 68be
00000250: 41d5 b1be d609 0b3d fb66 b53e 362c 92be
00000260: c595 c9be 7de7 733e d966 323d 6f2a 6b3e
00000270: c719 41be 8b3a 1abe 1457 bcbe 01b8 b63e
00000280: 3eaf 9fbe 267b de3d b3b7 a43e 54d3 c6be
00000290: cca0 a1be 1b49 9a3e cdad 063e bcc4 d33e
000002a0: c12e 5d3e b311 31be 5116 263d f38f abbe
000002b0: 7d61 bdbe 6f8d ebbb 25ee 8e3e a8d7 1bbe
000002c0: 8fb3 8cbd 3821 2f3e fbe9 ccbd 479d cd3e
000002d0: 9e16 8abd 40a5 403e 8e24 0c3e 80b7 8cbe
000002e0: fa43 453e 790c 3a3e d2be 423e 1b8c d1be
000002f0: 36d6 84bd 91ad d0bc cbdf f4bd 16a7 cc3e
-0.2800807 -0.30935362 -0.2583491 0.074627 -0.15718627 -0.11247975 0.42351988 0.24406318
-0.3375124 -0.43758 -0.019044077 0.038447432 -0.04421878 0.21054354 -0.3796509 0.26783723
-0.10054172 0.26561674 0.117994666 -0.35258192 0.118568994 0.2579798 0.06382818 0.38450915
0.39059928 -0.0647862 -0.029869115 -0.39147702 -0.046865508 -0.4002589 -0.20759358 0.21130395
-0.21259335 0.28773823 0.14335896 0.077303305 -0.17869063 0.13295455 0.37946138 -0.18426141
0.07185449 -0.20863765 -0.1712051 0.22743657 0.20635755 -0.29703593 -0.0062484187 0.15399529
0.41353187 -0.34849796 -0.1694289 -0.3766278 -0.121295676 -0.2661219 -0.26675496 0.03138762
0.31616163 -0.23856248 -0.0164934 0.043129265 0.21946268 0.2978831 -0.40699667 0.29043642
-0.23625699 0.24008091 0.35789198 -0.051912714 0.039770853 -0.16237429 0.2937817 0.40707856
0.3865384 -0.11886334 -0.15118995 0.33764905 0.33839262 -0.3186996 0.15196617 -0.14634034
0.18779539 0.30191398 -0.06281165 0.28698784 0.34582376 -0.24822499 -0.43524346 0.015685562
-0.13685238 0.3827774 -0.27610353 0.23267235 0.16052154 0.1147486 -0.32271326 0.1222391
-0.06401171 -0.209006 0.17072476 0.20792559 0.1792325 -0.32303637 -0.12637462 -0.22353874
0.14623648 -0.19623286 0.3881007 -0.40349156 -0.35327044 -0.08159632 0.17139791 0.32704836
0.32892013 -0.27228934 0.047883082 -0.13043158 -0.118687004 0.29546905 -0.0014984176 -0.04109243
-0.24448025 -0.0031799336 0.34759894 -0.27235562 -0.2410368 0.2808282 0.25266042 0.31855395
0.08675408 0.20199306 -0.12875041 0.21852092 -0.02822067 0.3439398 -0.10023956 0.32775417
-0.15279791 -0.35661495 -0.23571704 0.3099393 0.28754827 -0.18682514 -0.15437502 0.3737218
-0.017346092 0.35703433 0.3239493 -0.2272078 -0.34733012 0.033944927 0.3543013 -0.28549355
-0.39372078 0.23818775 0.043555114 0.22965406 -0.1885749 -0.15061395 -0.36785185 0.3568726
-0.31188387 0.108633325 0.321714 -0.38833106 -0.3156799 0.301339 0.13152237 0.41361034
0.21599866 -0.17291908 0.040548626 -0.33508262 -0.3698844 -0.007188491 0.27916065 -0.15218985
-0.068701856 0.17102516 -0.10005566 0.40159056 -0.06742595 0.18813038 0.1368582 -0.2748375
0.19264212 0.1816882 0.19018105 -0.40927204 -0.0648617 -0.025473388 -0.119567476 0.39971226

encoder.layers.0.self_attn.in_proj_bias f4 [24]
00000000: 06d7 2b3c 72c4 02bc c875 223c 55ca 203c
00000010: 0403 09bc 00de 053c f4e2 0b3c 0517 023c
00000020: e14a 7638 f4b9 30b8 62af 23b8 e24e cb38
00000030: f56c 79b9 825a 03b9 acda 143a 42ae 7d38
00000040: a75e b63a a26a ecbb 9344 bdbb e62f 183c
00000050: b8bb 093c 0d5e fd3b c39d 31bc a407 cc3b
0.010488277 -0.0079814065 0.009915777 0.009813865 -0.008362535 0.008170605 0.008537997 0.007940059
5.8720707e-05 -4.2134852e-05 -3.9025566e-05 9.6944874e-05 -0.0002378708 -0.0001252685 0.00056783366 6.048219e-05
0.0013913707 -0.00721486 -0.005775997 0.009288764 0.008406572 0.007732159 -0.010840836 0.006226497

encoder.layers.0.self_attn.out_proj.weight f4 [8, 8]
00000000: bfc0 b2be 395e 2cbe 4e4e 4cbe b8aa 63be
00000010: 7a99 c33d b01a 813e 790d 843e b02a 893e
00000020: de2f 21bd bbf5 8dbd 6f2d 0e3e eef2 89be
00000030: 9124 a73e 338f 973d 8f5e 96be c155 7a3c
00000040: d9ce a03e 8dc3 73bd 1dae 8c3d 1210 69be
00000050: 51e1 473e 0ebc 8abe b300 a8bd f605 edbd
00000060: d223 8d3e 5c1f 883e 4924 5e3d 4429 1ebe
00000070: 0f9d ee3c 918c e03b 022a c63d a791 ea3d
00000080: 8443 e23c b766 69be aa62 473e 8690 a93e
00000090: 566f 373d bd6a 7e3e b0d4 15be efa2 9fbe
000000a0: a94b b0be 986d debd 9fb5 223e db62 26be
000000b0: cafc eabb d20f 4ebb bafd 5dbd 0c2f 32be
000000c0: 434e 403e db87 86bc 420f b23e 9a19 46be
000000d0: 7429 11be 506f 963e 9795 03bd 45c2 cc3d
000000e0: b83e 5cbe dd73 f8bd 9b76 e0bd 6ad2 ac3e
000000f0: 4a41 573e 72e1 ae3d 8bb5 c4bb ed2e b43e
-0.3491268 -0.16832818 -0.19951746 -0.22233093 0.09550758 0.25215673 0.2579153 0.2679038
-0.03935229 -0.06931635 0.13884519 -0.26943153 0.32645085 0.0740036 -0.29369017 0.015279234
0.31407812 -0.059512664 0.06869147 -0.22760037 0.19519545 -0.270966 -0.08203258 -0.115734026
0.2756639 0.26586425 0.054233823 -0.15445429 0.029127626 0.0068526943 0.09675981 0.11453562
0.027620085 -0.22793089 0.19471231 0.33118075 0.044783913 0.24845405 -0.14631915 -0.31178996
-0.34432724 -0.10860747 0.15889595 -0.16248648 -0.007171248 -0.0031442535 -0.05419705 -0.1740076
0.18779854 -0.016422203 0.34777266 -0.19345704 -0.1417597 0.293818 -0.032125082 0.099979915
-0.215083 -0.12131474 -0.10960122 0.33754283 0.21021 0.08539094 -0.006003087 0.35192052

encoder.layers.0.self_attn.out_proj.bias f4 [8]
00000000: 7375 01bb 4fcf 0a3c fd8d 08bc 3ef5 cdbb
00000010: 9c84 1b3c 717d 07bc 7f86 fa39 b489 0d3c
-0.0019753843 0.008472278 -0.008334634 -0.0062853387 0.009492066 -0.008269654 0.00047783923 0.008638788

encoder.layers.0.linear1.weight f4 [32, 8]
00000000: ac04 85be 7033 38be 4e95 1a3d e9e4 a3be
00000010: f21d b1be d775 5f3d 0ccc 3c3d 1bd1 963d
00000020: e44e 9cbd 3bff a4be 5f45 6ebe f26f e8bd
00000030: 4776 483c 8983 97be 22a3 e2bc 09f3 73be
00000040: ad89 75be 82d0 a4be 54dd 9d3c f2ed d9bd
00000050: 3eff 93bc 37b9 a2bc c720 813e edc4 00bd
00000060: 682c 72bd e7cb 8fbe 4677 61bd eaae 503e
00000070: 6158 843e b587 a4be e703 573d e5d3 76be
00000080: 31c7 a63e d829 63bd e1fa 793e 4209 87be
00000090: 386a 98be 9efd 423d 15e3 56bc 12bf 543e
000000a0: 157c a83d 79d4 3d3e 3ca4 963e 5506 e63d
000000b0: c133 613e 3bcd b13e b25c 25bc 5ad3 563e
000000c0: 410d 313e 4675 113e 23db 92bc 6a61 853e
000000d0: 149e ac3e 5be4 65be 430b 803e 2ff6 353c
000000e0: afa1 2e3e 7b57 993e 078e c6bc 0c56 6bbe
000000f0: b02c a23e 37c0 48bd cea9 de3d ebeb cb3b
00000100: 7f0c d23d fbce b4be a3a0 85bd c50b af3e
00000110: b2ad b7be 8b2c 903e 3024 5ebd bd51 003e
00000120: d0c2 d53d 6d08 3abe 950a 03be 462e 36be
00000130: d1a9 8fbe 70e2 833e 7eaf 35bd 2a50 c23d
00000140: aa77 96be 9e02 95be 5ef7 883a ac3c a23e
00000150: fdf4 883d 64f6 b2be 435e f2bd 7034 62be
00000160: 4e5c 993d 1547 a2be 16b7 81be 8985 2ebd
00000170: 3d1e 86bd e6e6 4e3d 6fba 173e d7d9 de3d
00000180: d87b 883e a950 1f3e 829b d23c 41b2 7b3d
00000190: feef 05be a0fd 4abe 102f 87be 1ea9 74be
000001a0: 1f03 053e e9b6 443e fea3 86be 6097 103e
000001b0: e8fb 653e b871 9dbe c492 2e3c a6fe 5dbc
000001c0: dc74 9d3e 747d a53e f257 873e 779d 8e3d
000001d0: 4e03 293e 290a 51be 3ef7 e9bd 50a6 853e
000001e0: 06a9 3f3e d398 953e 2d6b 023e 1405 acbe
000001f0: 6289 8dbe 30ab aebe cac7 383e 02cf 97be
00000200: 8e4d 683e 96c2 36be 34bf 1bbd 5a76 8f3e
00000210: 6269 75bd 7f17 b2be 0d4e 5f3d 2b74 303e
00000220: 821f a4be 9445 34bd 3a68 99be b43b 92be
00000230: 0431 a83e 8d15 743e 1811 f2bd 9b33 aabe
00000240: 6c0e 47be 5a43 703e 937d 77be 2697 9f3e
00000250: 3c30 a0bd c639 ff3c 3167 a03e 93c0 783d
00000260: dd53 adbe b4a8 3c3d be0d 4bbe 2dd2 a7bd
00000270: 5bbf 943e a418 69bd c78b a1bd f036 7b3e
00000280: feaf a53e 874f 843c aa1a 873e 77aa 6b3e
00000290: e1a2 3a3e 9dcd 67be 8d8c ab3e a14c 4b3e
000002a0: 980e 84be 2179 2d3e 4f9b 1ebe b1b6 de3d
000002b0: e5b3 b93d f00e 4d3e 719b f03d e0c6 8cbe
000002c0: c221 2bbe b389 493d d23d 94be b0b6 853e
000002d0: 5ec0 a0bd ba77 8bbe e932 913e 48d3 3cbe
000002e0: 8a58 643e fc6f 223e 7e79 243e 76ac 5b3e
000002f0: efd1 b9be 0dc8 213e 0f18 b5be fd09 9b3e
00000300: c7f1 a9be e8e8 07be f0b3 913e 9d57 6dbe
00000310: 047f d43c d5fe 7cbd 967c 32be c129 8bbe
00000320: d66f 453d 9958 803e d0c6 903c ad83 7fbe
00000330: 17d2 edbd ac93 323e 76fa 8c3e ab8e 4bbd
00000340: a6bf 87be abfd 393e 633a 5d3e fb12 dcbd
00000350: fb8f 993e 694e 383e d01d 1b3e e865 9bbe
00000360: 672d 0cbd c382 993d 7118 d93d a3aa 39be
00000370: 7150 84be c7d7 c8bd e155 503d 4d88 67bd
00000380: 6088 8d3e 3d75 8dba deec ffbd 05f9 e5bd
00000390: 2260 47be 94f0 3d3e 84a8 ed3d d153 8cbd
000003a0: c20e 003e f391 75bd e923 8fbc 83eb e939
000003b0: 4b61 a63d 2c52 a63e 035a a23e 442d 843e
000003c0: 5b7b 943e f643 0b3d 1974 413e 0642 563e
000003d0: 6a06 b9be 30f3 8ebe fccb afbe 1f1f 00be
000003e0: bb30 6e3e bd88 b6be 4338 28be 497c 7ebe
000003f0: 1eb5 7b3d 9d7e c6bb f98c 9ebe 96c7 3bbe
-0.25980127 -0.17988372 0.037740044 -0.32010582 -0.3459316 0.05455574 0.04609303 0.073641025
-0.07632235 -0.32225975 -0.2326865 -0.11349477 0.012235231 -0.2959254 -0.027665678 -0.2382318
-0.239783 -0.3219033 0.019270577 -0.106410876 -0.018066045 -0.019863708 0.2522032 -0.031437803
-0.05912438 -0.28085253 -0.05504539 0.20379224 0.25848678 -0.32134786 0.052493956 -0.24104269
0.32573846 -0.055459827 0.24412109 -0.2637425 -0.29768538 0.04760515 -0.013115664 0.20776013
0.08226792 0.18538083 0.29422176 0.112316765 0.21992399 0.3472689 -0.010092901 0.20979062
0.17290212 0.14204893 -0.017926758 0.26050884 0.33714354 -0.22450392 0.25008592 0.011106058
0.17053865 0.29949555 -0.024237646 -0.22982043 0.3167472 -0.049011435 0.108722314 0.006223192
0.1025629 -0.35314164 -0.0652478 0.34188667 -0.35874707 0.28158984 -0.05423373 0.1253118
0.10437548 -0.18167277 -0.12797005 -0.1779109 -0.28059247 0.25758696 -0.044356816 0.09487946
-0.2938817 -0.2910356 0.0010449698 0.31686914 0.06687353 -0.34953606 -0.11834385 -0.22090316
0.07488309 -0.31694856 -0.25334996 -0.042607818 -0.06548736 0.05051317 0.14817213 0.108813934
0.26656985 0.15558113 0.025708918 0.061449293 -0.13079831 -0.19823313 -0.26403093 -0.23892638
0.12989472 0.192104 -0.2629699 0.14120245 0.22459376 -0.30750823 0.010655109 -0.013549482
0.3075322 0.32322276 0.26434284 0.06963628 0.16505167 -0.20414032 -0.11424111 0.2610345
0.18716821 0.29218158 0.12736197 -0.33597624 -0.27643877 -0.3411498 0.18044963 -0.29650122
0.22685835 -0.17847666 -0.038024142 0.28019983 -0.059914954 -0.3478355 0.054517794 0.17231815
-0.3205529 -0.044011667 -0.2996233 -0.28561175 0.32849896 0.23836346 -0.118196666 -0.33242497
-0.19439095 0.23463193 -0.24168997 0.31170005 -0.078217 0.031155478 0.3132873 0.060730528
-0.33853045 0.046059325 -0.19829461 -0.08194385 0.29052243 -0.056908265 -0.078879885 0.24532676
0.32360834 0.016151203 0.2638753 0.23014246 0.18226196 -0.22637029 0.3350567 0.1985345
-0.25792384 0.16940738 -0.15488933 0.10874689 0.09067515 0.2002523 0.11748398 -0.2749548
-0.16712096 0.049203586 -0.28953415 0.26115942 -0.07849191 -0.27239782 0.28359154 -0.18439972
0.222994 0.15863031 0.1606197 0.21452507 -0.3629298 0.1579897 -0.35369918 0.30281058
-0.33192274 -0.1327244 0.28457594 -0.23177953 0.025939472 -0.061766464 -0.17430338 -0.27180293
0.04820236 0.25067595 0.017672926 -0.24952574 -0.11612337 0.17439145 0.27534837 -0.049696606
-0.26513404 0.18163173 0.21604304 -0.10745808 0.2999266 0.17998661 0.15148091 -0.30351186
-0.034222987 0.07495644 0.10600365 -0.18131499 -0.25842622 -0.09806781 0.05086315 -0.05652647
0.27643108 -0.0010792386 -0.12496351 -0.11229137 -0.19470266 0.18548805 0.116044074 -0.06851924
0.1250563 -0.05995364 -0.017473178 0.00044616693 0.08124026 0.32484567 0.31709298 0.25815785
0.29000363 0.03400036 0.18891944 0.20923623 -0.36137706 -0.27919912 -0.34335315 -0.12511872
0.23260777 -0.35651198 -0.16427712 -0.24852099 0.061452024 -0.006057574 -0.3096693 -0.18337855

encoder.layers.0.linear1.bias f4 [32]
00000000: 8749 1cbe ca6a eebd 3146 0fbe 541e 9abe
00000010: 0351 6b3e b659 413d fd5d 96be ac5e 2d3e
00000020: 5f76 283e e871 8c3e c8c4 883e ac25 773b
00000030: 5add 883e c92d 843e d99a 803e 8631 a63d
00000040: 9d6d a0be 848c dcbd 6e44 f9bd 45a7 473d
00000050: b627 45bd 06b1 58be 68ef 55bd 2f89 8e3e
00000060: 49a4 053e 8c27 2abe de83 01be 346c c53c
00000070: 74bc d03d f748 6e3e c50e 923e cb37 19be
-0.15262423 -0.11641462 -0.1399162 -0.30101264 0.22980122 0.047204696 -0.29368582 0.16930646
0.16451405 0.27430654 0.26712632 0.0037711663 0.26731378 0.2581618 0.2511814 0.081149146
-0.31333628 -0.10768989 -0.12171255 0.048743505 -0.048133574 -0.21161279 -0.05223027 0.27839038
0.13050951 -0.16616648 -0.1264796 0.024099447 0.101921946 0.23270021 0.28526893 -0.1496269

encoder.layers.0.linear2.weight f4 [8, 32]
00000000: 5241 08be 970e 053d 4da8 e43d 670e 36bd
00000010: aab3 723d 2c98 e13d 1987 f13d a057 223c
00000020: 085e a83d 2ee1 173e d1f9 003e 7170 82bc
00000030: c1bf 153e 3070 863c b6ae ad3c e9e4 233e
00000040: a75b d4bd 306f 18bc 3773 82bc c3cd ec3d
00000050: 13e0 14be 9687 ef3d 56c3 a93d 84b3 25be
00000060: afbf 68bd e52c 41bd 5037 1fbe a859 0e3e
00000070: 037d 183d 49f9 7c3c 4d47 b0bd 053c 443d
00000080: 8149 f6bd 62a8 413d c621 c5bc 3f26 013e
00000090: 730c 11be 851f 183e e76c 2dbd 1916 8ebd
000000a0: 9486 2bbd 1d47 01bd 36fc 153e 8356 a3bd
000000b0: 3281 653c ea2b b93c 89fd ffbc 3d66 acbd
000000c0: dd2b 013d 53af 763d 34a0 013e 4e02 603d
000000d0: 8dda 8e3d 28ef 83bc b538 863d 951f 373e
000000e0: 066c f83d 4e53 79bd 8438 acbd 89b0 733c
000000f0: cb22 b3bd 29fc 5dbd 96c1 4c3d 1b95 f6bc
00000100: 81ae 30bd e16b 293e 76e4 4bbd be09 193e
00000110: e35a 803d 53d7 253e e757 dc3d 1db1 36be
00000120: f524 4bba 4119 013e 6765 1f3e a826 02be
00000130: ca15 b63d 3036 263e 3225 03be f8d3 b7bb
00000140: 010e e23d 3963 003e dee2 043d f2f6 2ebe
00000150: c808 b23d de7e 20bd a7b7 1bbe 9d18 46bd
00000160: 94a7 18bd 887e 2e3c 6c27 16be 8955 853d
00000170: 10f2 05be 00cc cf3d 80f3 bdbd e7f4 21be
00000180: b50f da3d caa9 d23d 444c 22be 6c9f 3bbe
00000190: 8b46 68bd f017 34be 4c42 0ebe 62dc fd3d
000001a0: 0d88 32bd 75a2 0ebe 5b3e d4bd cffc 15be
000001b0: 9613 0b3d 8707 c43d cbe2 a73d ab93 8a3d
000001c0: 0723 20be 580e ef3d 1974 553d 808a 27be
000001d0: 971e b7bd 0c23 38be 8266 0dbe 57f1 0cbe
000001e0: 4642 1abe 9d39 2d3d 68c5 183e d927 543c
000001f0: bf25 b03d 8657 c8bd 6e66 80bd 0802 0d3e
00000200: b59d 4f3c e770 f13c 94b1 d1bc c5a7 8c3c
00000210: 71eb 17be a7b5 323e cfd2 babd cf76 3f3d
00000220: c9a4 1f3e c010 afbb 3a53 593c ceb0 9a3d
00000230: f40f 0b3e ffb9 3c3e 508d c73c e9ae ffbc
00000240: eb72 91bd e5bb 87bd b9e4 483b 7018 243e
00000250: 2c7d 06be 084b 19be 02ff 83bc eeab 9ebd
00000260: 2909 2abe 1d0e c73c 0240 bfbc 6bba 5e3d
00000270: a690 26be c62a e3bd 7239 df3d 8bda ca3d
00000280: 529c 91bd eb2c c9bd 39e9 243c 6fa0 d33d
00000290: b9f7 05bc 030f d83b 3820 2ebe f634 a8bd
000002a0: 12a1 30be 2e12 ce3d c4f7 03bd 2b1b 0dbe
000002b0: 1414 4cbd e85e 36be 3c8c 133b 6395 5d3d
000002c0: a99e 98bc 4e45 113d 0546 02be a97a febd
000002d0: a43c 14be b600 0a3e 49bb 98bd e841 6ebd
000002e0: 1c89 2ebd 1c8a 393d df1b 233e c874 00be
000002f0: 3fe6 113e 887c 08bd 846c 00be 2012 6cbd
00000300: a3d1 263e 53a4 a1bd 8021 a33b fb13 d93d
00000310: 20ee b0bd f311 72bc cf1c bebd 382a c83d
00000320: 91ba ba3d a82e c9bd fa1f e1bd 70bf 733d
00000330: d5ac ae3d 2288 d23d 210a 34be af8d 083e
00000340: e508 2ebe 72a2 2ebe 2ab2 833d 6acd e6bc
00000350: 7792 e83b 3c22 0dbe 09aa 353e 6505 05be
00000360: 6470 273e 9144 3c3e 2c3c 62bd 9fab 053e
00000370: 9962 89bc 00ad 3c3e 3cfa a73d 65ec 09be
00000380: 1d34 323e fae5 c1bd 9d7f 9a3d a0aa 143c
00000390: da3d 08bd 5bd9 40bc ef43 a23d aac4 243e
000003a0: 8d7d 343d 37cf f3bd 40e0 b8bc 23e4 d73d
000003b0: 1fbc d43d 94ed b0bd ef72 9b3d 60d3 b43d
000003c0: b39c 813d afcd 7b3d 104b 2cbd 506c 2e3e
000003d0: df8c 14bc 547e b33d abc4 693d 8115 693d
000003e0: b629 013e ccd1 12be 0a84 6dbd 380c 243e
000003f0: 7920 c5bd 5396 56bb 27a5 0f3e bd46 c9bd
-0.13306168 0.032484617 0.11164913 -0.04444733 0.059253372 0.110153526 0.11793346 0.009908587
0.0822106 0.14831993 0.12595297 -0.015922757 0.1462393 0.016410917 0.021201473 0.16005291
-0.10369044 -0.009303853 -0.01592408 0.115626834 -0.14538603 0.11695783 0.082892105 -0.16181761
-0.05682343 -0.047161955 -0.15548444 0.13901389 0.037228595 0.015440294 -0.086073495 0.0479088
-0.120257385 0.047279723 -0.024063956 0.12612246 -0.14164905 0.14855774 -0.042340185 -0.069378085
-0.04187639 -0.03156196 0.14646992 -0.07975485 0.014007853 0.022603948 -0.031248825 -0.08417938
0.031535972 0.060225796 0.12658769 0.054689698 0.06975279 -0.01610525 0.06553785 0.17883141
0.12129979 -0.06087046 -0.08409217 0.014873632 -0.087468706 -0.054195557 0.049989305 -0.030100396
-0.04313517 0.16545059 -0.049778424 0.14945123 0.06267335 0.16195421 0.107589535 -0.17841001
-0.00077493425 0.1260729 0.15566026 -0.12710059 0.08890875 0.16231608 -0.12807158 -0.0056099854
0.11037827 0.1253785 0.03244292 -0.1708639 0.08693081 -0.03918349 -0.15206777 -0.048363317
-0.03726919 0.010650285 -0.14663476 0.06510455 -0.13080621 0.10146332 -0.092749596 -0.15816079
0.10647527 0.10286291 -0.15849406 -0.18322533 -0.0567079 -0.17587256 -0.13892478 0.1239555
-0.04358678 -0.1392916 -0.10363456 -0.1464722 0.033954225 0.09571748 0.08197554 0.06766447
-0.15638362 0.11672658 0.052112672 -0.16361427 -0.089413814 -0.1798212 -0.13808635 -0.13763939
-0.15064344 0.042291272 0.14919055 0.012948954 0.086009495 -0.09782319 -0.06269537 0.13770306
0.012671878 0.029472781 -0.025597371 0.017169842 -0.14835908 0.17452107 -0.0912224 0.046744164
0.15590204 -0.005342573 0.013264472 0.07553254 0.13580304 0.18430327 0.024359375 -0.031211333
-0.07101997 -0.06627635 0.0030653907 0.16024947 -0.13133687 -0.14970028 -0.016112808 -0.07747637
-0.16605057 0.024298722 -0.023345951 0.054377 -0.16266116 -0.11092143 0.10899629 0.09904965
-0.07109894 -0.098230205 0.01006537 0.10333335 -0.008176737 0.0065935864 -0.17004478 -0.082132265
-0.17248943 0.10062061 -0.03221871 -0.13779895 -0.049823835 -0.17809641 0.0022514006 0.054097544
-0.018630343 0.035466485 -0.12722023 -0.12425739 -0.14476258 0.13476834 -0.07457597 -0.05816832
-0.042611226 0.045297727 0.159286 -0.12544549 0.14247988 -0.033321887 -0.12541395 -0.057634473
0.16290908 -0.078926705 0.0049783587 0.10599514 -0.08639169 -0.014774787 -0.092828386 0.097736776
0.09117616 -0.09823352 -0.10992427 0.05950874 0.08529059 0.102798715 -0.17581989 0.13335298
-0.1699558 -0.17054155 0.064304665 -0.028174121 0.007097538 -0.1378259 0.17740645 -0.12990339
0.16351467 0.18385531 -0.055233166 0.1305375 -0.016770648 0.1842537 0.08202025 -0.13469084
0.17402692 -0.09467693 0.075438716 0.009073883 -0.03326211 -0.011770572 0.079231136 0.16090646
0.044065047 -0.119047575 -0.022567868 0.105415605 0.10387444 -0.086390644 0.07590281 0.08829379
0.06328716 0.061475452 -0.042063773 0.17033505 -0.009066789 0.087643296 0.057072323 0.056905273
0.12613568 -0.14337844 -0.05798725 0.16020286 -0.09625334 -0.0032743409 0.14027844 -0.098279454

encoder.layers.0.linear2.bias f4 [8]
00000000: 18c8 98bd 9274 6c3d c236 29be 1de1 14be
00000010: c220 733d d92f bb3d c4bc be3d 4e6b cf3d
-0.0746004 0.057728358 -0.16524795 -0.14538999 0.059357412 0.091399856 0.09313348 0.101278886

encoder.layers.0.norm1.weight f4 [8]
00000000: 96fa 7d3f 5245 813f 8153 7e3f 5ed0 7f3f
00000010: 4611 813f 378e 7c3f 8f38 813f de29 7e3f
0.9921049 1.009928 0.99346167 0.9992732 1.0083396 0.986545 1.0095385 0.99282634

encoder.layers.0.norm1.bias f4 [8]
00000000: 8097 54bb f46a 0d3c eba4 08bc 0219 c1bb
00000010: f9a2 223c b918 0abc 8740 cabb ac6e 113c
-0.0032438934 0.008631457 -0.008340101 -0.0058928737 0.009926551 -0.008428746 -0.006172243 0.008876484

encoder.layers.0.norm2.weight f4 [8]
00000000: 87be 7d3f db33 813f 4f98 7e3f 5e13 813f
00000010: ca77 7f3f 5677 7c3f e39f 803f fd9c 803f
0.99118847 1.009395 0.99451154 1.0084035 0.9979216 0.9861959 1.0048794 1.0047909

encoder.layers.0.norm2.bias f4 [8]
00000000: 069a 1cba c5d6 0f3c 0317 0bbc 61e6 f8bb
00000010: 42ec 253c 7d9f 0abc cdf5 b53b 85c0 143c
-0.0005973879 0.008779232 -0.008489373 -0.0075958227 0.010127129 -0.0084608765 0.0055529834 0.009079103

encoder.layers.1.self_attn.in_proj_weight f4 [24, 8]
00000000: 451d 88be 3945 9dbe 636e 87be b4d0 9a3d
00000010: 70ad 1ebe 29de e1bd 9632 e33e ddae 843e
00000020: 6576 b6be 1e70 e2be 321e 52bc 791f 203d
00000030: 268b 2fbd 4197 583e bd3b c5be 2325 813e
00000040: 6484 bdbd 4eea 883e 26db e13d 8467 b4be
00000050: 413d f63d 67e2 8b3e ae41 983d 3673 ce3e
00000060: 2e32 d13e fc19 80bd 16e2 1ebd e36a c8be
00000070: 6c1d 34bd d290 c8be 339d 4dbe 8190 6b3e
00000080: 356d 5bbe 2e13 923e 76ac 123e 2d2b 9b3d
00000090: 528c 34be 22fd fb3d b113 c13e 975c 45be
000000a0: eabc 9a3d 8ef2 53be 76cc 2fbe 4d58 6a3e
000000b0: da14 513e 2118 94be 2d22 80bb fcb2 293e
000000c0: 76f3 d63e 2d0c b0be 6684 2ebe 4c50 c0be
000000d0: c25d fbbd 46ff 85be d8c6 87be e7ac 3d3d
000000e0: 2eea a23e 7809 73be 68b9 87bc fdfe 343d
000000f0: f896 5d3e a145 9e3e 4e01 ccbe 94b8 983e
00000100: c9ef 82be 2abe 7e3e 0c81 b63e 36b5 14bd
00000110: a49e 253d ecde 39be 95f9 8c3e 0aef d93e
00000120: e2c1 c73e 71b6 0dbe 7354 2fbe f31f aa3e
00000130: 56fc b13e 79c3 9ebe 6d53 203e 773e 1cbe
00000140: 857e 403e ee34 9a3e ca7f 73bd 80f2 923e
00000150: fdf7 ae3e eb69 7dbe 90e7 debe f9fe 7c3c
00000160: 9b2e 0cbe a2e0 c33e c7cf 8cbe f7db 6c3e
00000170: 87da 233e c972 e23d 3190 a5be f7d2 f83d
00000180: c477 8abd 3338 60be 7e7b 353e fe24 543e
00000190: 691b 353e ddae a3be 6462 f0bd 92ef 63be
000001a0: 9c58 163e 8b74 41be 36d1 c33e 0830 cfbe
000001b0: bfb4 b4be 07d0 a9bd 5848 2e3e 3a12 a83e
000001c0: dba3 ac3e ef82 8bbe cb85 4f3d 00e9 01be
000001d0: 00c4 03be 9458 993e 9a6a 88bb 326e 30bd
000001e0: f554 7bbe 4ba3 c0bb 23b9 ad3e 7169 8bbe
000001f0: ec44 76be 515d 8e3e f594 803e 4406 a43e
00000200: 331a bd3d 9218 473e 0403 05be b46d 6a3e
00000210: 305a a7bc 0ecf b23e 198e c5bd 59c8 ab3e
00000220: 436d 22be 2d90 b7be 0c16 6abe 6913 9f3e
00000230: 52b1 913e 5a94 3ebe 38fb 20be 4a3f b73e
00000240: 8e10 9dbc 808e be3e c48a a33e 96d6 74be
00000250: 4429 b3be ccc3 bc3c a593 b93e 8ab7 90be
00000260: 0a43 c2be 7aad 743e 29cc ff3c 7d52 6b3e
00000270: 8c31 37be bda9 19be 028b b9be f27b c13e
00000280: 932f 99be f407 dc3d e317 9f3e ef2a c5be
00000290: cf34 9fbe c5d5 9a3e 5cb5 053e 1ace db3e
000002a0: 8d3f 6b3e 84a2 2fbe 103b 0e3d 4420 abbe
000002b0: 2604 bdbe 9216 e1bb a0cc 903e 3d7b 09be
000002c0: 50f0 a5bd a0f3 2c3e 17d0 bdbd 2d62 cd3e
000002d0: 5d6b 93bd 8009 3f3e dcaa 083e 92c2 98be
000002e0: ff2c 413e 93a8 383e 65cf 3f3e 6a1d ccbe
000002f0: 24e1 7fbd 3533 cdbc e5a5 06be 97da cf3e
-0.2658483 -0.30716875 -0.26451406 0.07559338 -0.15495849 -0.11028702 0.44374532 0.2591466
-0.35637203 -0.44226164 -0.012824582 0.039092515 -0.04285731 0.21151449 -0.3852214 0.25223646
-0.09253767 0.2674126 0.11028127 -0.35235226 0.12023402 0.2732117 0.074344024 0.40322274
0.40858597 -0.06254956 -0.03878983 -0.39144048 -0.04397337 -0.3917299 -0.20079498 0.23004343
-0.21428378 0.28530258 0.14323601 0.075765945 -0.17631653 0.123041406 0.37710336 -0.19273601
0.07555564 -0.20697996 -0.1716784 0.22885247 0.2041811 -0.2892466 -0.003910324 0.16572183
0.4198262 -0.3438429 -0.17042693 -0.37561262 -0.12273742 -0.2617132 -0.26518893 0.04630747
0.3181929 -0.23734081 -0.0165679 0.04418849 0.21639621 0.30912498 -0.39844745 0.29828322
-0.25573567 0.2487723 0.3564533 -0.03630563 0.040434495 -0.18151444 0.27534166 0.42565185
0.39015108 -0.13839127 -0.17122059 0.332275 0.3476283 -0.3100851 0.15656824 -0.15258203
0.18798263 0.30118507 -0.05944804 0.28700638 0.34173575 -0.24747436 -0.43536043 0.01544165
-0.13689654 0.3825732 -0.27502272 0.23130785 0.1600133 0.1105705 -0.32336572 0.12149613
-0.06761125 -0.21896438 0.1772289 0.20717236 0.17686237 -0.31969348 -0.117375165 -0.22259358
0.1468224 -0.18892114 0.38245553 -0.40466332 -0.35294148 -0.08291631 0.17019784 0.32826406
0.33718762 -0.27248332 0.050664704 -0.12686539 -0.12867737 0.29950392 -0.0041630985 -0.04307384
-0.24544127 -0.005878841 0.3393031 -0.27228883 -0.24049729 0.2780557 0.25113645 0.3203603
0.09233513 0.19442967 -0.12989432 0.22893411 -0.020428747 0.34923595 -0.096462436 0.3355129
-0.15861993 -0.35852185 -0.22859973 0.31069496 0.28455597 -0.18611279 -0.15720832 0.35790473
-0.019172933 0.37218094 0.31941807 -0.23909983 -0.3499242 0.023042582 0.36245456 -0.2826503
-0.37941772 0.23894301 0.03122528 0.22980686 -0.17889994 -0.15006156 -0.36238867 0.37789875
-0.2991911 0.107437044 0.31072912 -0.38509318 -0.31094977 0.30241218 0.13057464 0.4293068
0.22973461 -0.17151839 0.034724295 -0.33423054 -0.36917228 -0.0068691457 0.28281116 -0.13425918
-0.081024766 0.1688981 -0.092682056 0.40113965 -0.07198212 0.18655968 0.13346428 -0.29835945
0.18864821 0.18033056 0.18731458 -0.3986619 -0.06247057 -0.025048831 -0.13149221 0.40596458

encoder.layers.1.self_attn.in_proj_bias f4 [24]
00000000: 056b 233c b21a 1fbc 5c9d 2a3c 3038 2a3c
00000010: af68 04bc bc8d 023c 1692 0d3c d4c7 023c
00000020: c74b 9138 ecd4 6436 fe3d 7eb8 cd92 0339
00000030: b0a8 2538 d3f3 bab9 76b6 c339 e3ba 0f38
00000040: 2b51 84bb 2946 06bc c796 c93b 68d0 1d3c
00000050: 7ca6 e93b 6150 073c 25ab 34bc 40d1 ce3a
0.009974246 -0.0097109545 0.010413494 0.010389373 -0.008081599 0.007968362 0.008640787 0.007982213
6.9282534e-05 3.4098584e-06 -6.0616054e-05 0.00012547821 3.9496168e-05 -0.00035658348 0.00037329242 3.426791e-05
-0.0040379963 -0.008195438 0.0061520073 0.009632207 0.007130442 0.00825891 -0.011027132 0.0015778914

encoder.layers.1.self_attn.out_proj.weight f4 [8, 8]
00000000: d24e b6be cd63 2cbe 89d9 4dbe 5b87 5fbe
00000010: 1320 c93d b29e 803e cfad 813e b27f 8d3e
00000020: 02bd 1bbd e2ea 87bd 3947 0f3e 8101 8abe
00000030: b6a9 a53e 2dff 9c3d a4e9 95be 5c0b 5c3c
00000040: 4d11 a03e 1887 79bd 967d 883d 26d2 66be
00000050: 7b16 453e 0196 8cbe 6952 a9bd e89f eabd
00000060: 6c8f 8d3e c763 853e 14b4 543d 3464 21be
00000070: 4072 cb3c 0482 15bc 9761 c93d 3010 e83d
00000080: 4dfc f33c 5960 6abe 2513 493e 8f8b a73e
00000090: 8e74 2e3d f947 7e3e d237 15be c223 a0be
000000a0: b6d8 b0be 33d4 dabd 4bd9 203e f224 24be
000000b0: bd04 9abb 3f44 73bb eb7a 60bd d19b 30be
000000c0: fc24 3e3e 841b c9bc d938 b53e 13d0 48be
000000d0: 0050 f9bd 95ea 9d3e 8fd2 1dbd 9151 f43d
000000e0: 81e8 5abe 76f2 fabd 6683 debd d6a3 aa3e
000000f0: 5873 583e de92 af3d 93b8 b6bb cc8e b33e
-0.3560701 -0.16834946 -0.20102514 -0.21828978 0.09820571 0.25121075 0.25327918 0.27636486
-0.03802205 -0.06636597 0.13992013 -0.26954272 0.32356042 0.076658584 -0.29279816 0.013430443
0.312632 -0.06091985 0.066645786 -0.22541103 0.19246857 -0.27458194 -0.082676716 -0.11456281
0.27648485 0.26052687 0.05192955 -0.1576088 0.024834752 -0.009125236 0.09833067 0.113312125
0.029783392 -0.22888316 0.1963621 0.32723662 0.042591624 0.24832143 -0.14572075 -0.3127728
-0.34540337 -0.10685005 0.1570789 -0.16029719 -0.004700272 -0.0037119535 -0.054804724 -0.17246939
0.18568796 -0.024549253 0.35394934 -0.19610624 -0.12173462 0.30843034 -0.038530882 0.1192962
-0.21377756 -0.12253277 -0.10864906 0.33328122 0.2113775 0.085729346 -0.005576202 0.35069883

encoder.layers.1.self_attn.out_proj.bias f4 [8]
00000000: ea15 2bba c972 083c 3aad 0abc 0b74 f6bb
00000010: 2226 1f3c ffee 08bc ef87 f03b c4c6 0f3c
-0.0006526398 0.008328148 -0.008464152 -0.0075211576 0.009713681 -0.008357762 0.0073404233 0.008775417

encoder.layers.1.linear1.weight f4 [32, 8]
00000000: ad0f 7fbe 4d5d 39be 53cc de3c 0511 a1be
00000010: ccaf b1be 25a1 533d 5a20 2e3d 6df2 903d
00000020: 99b9 b9bd 640c a8be b2b5 68be 1e53 d3bd
00000030: 1e88 653c c4e1 96be d425 e7bc 5404 82be
00000040: 2fb5 76be d3e4 a3be 1a21 a73c 08e8 dbbd
00000050: f5c7 a7bc 0ddc 99bc cb7f 813e 4367 cebc
00000060: 3c8d 5cbd 7e92 93be 51cf 81bd 4dfe 4e3e
00000070: 1639 863e 4adf a1be 9496 593d 40d0 70be
00000080: 6d38 a73e 049f 63bd ab76 833e 2f2d 87be
00000090: aadd 98be 6cb5 423d a166 5cbc 794c 553e
000000a0: af10 a93d 702a 413e 3433 963e 8e9c e33d
000000b0: e8da 613e 59e7 b13e d4c7 25bc dd74 5c3e
000000c0: e4c6 2b3e fa4a 023e 7434 40bc a785 853e
000000d0: ceee a83e 6322 59be 9eba 733e 44d2 193c
000000e0: 80b7 373e 58e8 983e 0ce6 00bd dad5 6abe
000000f0: 662e 9c3e f395 75bd 1561 e03d b843 8c3c
00000100: 680a ce3d c7b2 b4be 9818 95bd ffba aa3e
00000110: e27d b7be 05fd 923e 5c2f 61bd 0757 003e
00000120: 48ad d53d b294 38be 4d00 ebbd 918d 36be
00000130: 035c 90be 2d91 863e 009d 36bd 7576 c53d
00000140: 8e25 97be 3e9a 99be 02b1 5ebb 457e a03e
00000150: c1c5 8c3d d323 aebe 1ddd dcbd 31ad 62be
00000160: adb6 993d e7ed 9fbe e59d 82be 5f1a 2bbd
00000170: 5679 8bbd 5803 2f3d 66a9 183e 72bc df3d
00000180: e1d9 8a3e d313 203e 74ec c43c 9b2d 7d3d
00000190: 5b85 10be e232 4fbe 1e2a 88be 7eb4 69be
000001a0: 5bc2 083e 63cc 4d3e 4173 89be 06ca 0f3e
000001b0: 9451 633e 9740 9fbe a41b 193c 8059 35bc
000001c0: f07e 9a3e c241 a43e 2b84 813e d081 913d
000001d0: f592 2f3e 0440 51be e421 eabd dc60 823e
000001e0: c795 3d3e 201a 943e a945 173e 489b abbe
000001f0: 1159 8abe 256b adbe 4c68 373e 65ea 98be
00000200: 48be 663e 12fa 34be 537d f9bc 5626 953e
00000210: 1a7b 65bd 8125 acbe 1af3 5c3d e552 2c3e
00000220: 4dec a3be 4a23 3abd 5173 97be d30f 92be
00000230: 14ec a83e d7c9 743e 8337 f4bd b449 abbe
00000240: 2506 45be 910a 6f3e c72c 76be 2518 9d3e
00000250: e21d a1bd d2c7 f33c 6f30 a13e f9c2 623d
00000260: 1ae4 acbe 37e5 3e3d 42b0 4ebe 9bb1 a7bd
00000270: ca65 943e f3ad 74bd bdd7 a8bd 0a9d 7b3e
00000280: c41a a33e 9192 573c 9f23 8c3e da36 6c3e
00000290: 5a58 2f3e b61d 64be 6022 ab3e e2e9 493e
000002a0: 0245 85be e4c2 263e 6ee3 17be 61eb df3d
000002b0: 5518 c43d b258 4c3e b509 ee3d 2ee7 8abe
000002c0: 11fd 28be 79b3 4d3d 1302 95be 7abd 7c3e
000002d0: 6da6 b9bd e9c5 8bbe aab8 913e 03c0 37be
000002e0: 7e9b 603e 5ae1 213e a8ae 1c3e fd1e 5d3e
000002f0: 22f5 b8be d789 2d3e 02ae b0be 4bf1 9b3e
00000300: a020 aabe 884f 09be 21da 913e 085d 6cbe
00000310: a590 a23c f203 67bd c3bf 33be 41b2 88be
00000320: 2428 4c3d 30d8 803e a4ca d13c f8e7 7fbe
00000330: 3ea8 dbbd af6c 313e e5ef 8c3e 9423 4cbd
00000340: ae99 87be 541b 393e 97cb 5d3e 5739 dcbd
00000350: ea51 9a3e 2f39 3b3e 8d2e 1a3e 7ec6 9abe
00000360: 587c 01bd 9e33 983d 6c2b d73d f2f6 38be
00000370: 2aab 83be a271 c9bd 283b 513d 24fc 3fbd
00000380: 935e 8d3e 1437 d0ba 977c f7bd c3c5 e5bd
00000390: b37b 46be f14f 403e fffb eb3d 4d3d a1bd
000003a0: a1ab e43d 3181 77bd a7de cb3a 64e5 3f3a
000003b0: ccea b33d 8551 a63e 30d0 a13e 7bbc 843e
000003c0: 01ea 933e 99eb 093d d175 3d3e 6adc 573e
000003d0: 6320 b9be 0505 8fbe 3fcd acbe 392e f2bd
000003e0: 433f 753e 33c7 b8be 52bd 3dbe df8d 7fbe
000003f0: 31f1 6b3d 2243 76bc 3c4a 9dbe 3858 3cbe
-0.24908324 -0.18101998 0.027197039 -0.31458297 -0.34704435 0.05166735 0.04251132 0.07077489
-0.09068603 -0.32821953 -0.22725561 -0.10318588 0.014009504 -0.2946912 -0.02821628 -0.25393927
-0.24092554 -0.32010517 0.020401526 -0.10737616 -0.02048109 -0.018781686 0.2529281 -0.025195723
-0.05384563 -0.28822702 -0.063383706 0.20214196 0.26215428 -0.3161567 0.053122118 -0.23516941
0.32660237 -0.05557157 0.25676474 -0.2640166 -0.29856616 0.0475363 -0.013452203 0.20829953
0.08255135 0.18863845 0.2933594 0.11113845 0.22056162 0.34746817 -0.0101184435 0.21528955
0.1677509 0.12723914 -0.011731256 0.2607853 0.32994694 -0.21204524 0.23801658 0.00938851
0.17941093 0.29864764 -0.03146939 -0.2293314 0.3050415 -0.059957456 0.10956017 0.017122135
0.100605786 -0.35292646 -0.072800815 0.33345792 -0.35838228 0.28708664 -0.054976806 0.12533198
0.104334414 -0.18025473 -0.11474667 -0.17827441 -0.281952 0.26282635 -0.04458332 0.096417345
-0.2952084 -0.3000049 -0.0033980017 0.31346336 0.06873656 -0.34011707 -0.107843615 -0.2213638
0.07505546 -0.31236193 -0.2551109 -0.041773196 -0.06810252 0.0427278 0.1490837 0.10924615
0.27119353 0.15632562 0.02403853 0.06181107 -0.14113371 -0.20234254 -0.26594633 -0.22822759
0.1335539 0.20097499 -0.26845744 0.1404191 0.22199088 -0.31103966 0.009344969 -0.011068702
0.3017497 0.3208142 0.2529615 0.07104838 0.17145903 -0.20434576 -0.114322454 0.25464523
0.18514167 0.28926182 0.14772667 -0.33516908 -0.27021077 -0.33870807 0.1791088 -0.2986633
0.22533524 -0.17673519 -0.030455267 0.2913081 -0.056025602 -0.33622363 0.053942777 0.16828497
-0.3201622 -0.04544381 -0.29580167 -0.28527698 0.32992613 0.23905121 -0.119246505 -0.3345467
-0.19240625 0.23343875 -0.24040519 0.30682483 -0.07867028 0.029758368 0.31482264 0.05536172
-0.33767778 0.046605315 -0.20184425 -0.081881724 0.2898391 -0.059736203 -0.08244274 0.24571624
0.31856358 0.013157503 0.27370927 0.23067799 0.17123547 -0.22276959 0.33424664 0.19718125
-0.2602921 0.16285282 -0.14832851 0.10933567 0.095749535 0.1995571 0.11622945 -0.271295
-0.16502787 0.050219987 -0.29103145 0.24681655 -0.09064946 -0.2729943 0.284612 -0.1794434
0.21934316 0.15808621 0.15301001 0.21593852 -0.36124521 0.16947113 -0.34507757 0.3045753
-0.33228016 -0.13409245 0.28486732 -0.23082364 0.019844363 -0.056400247 -0.1755362 -0.26698497
0.04984297 0.25164938 0.025609322 -0.24990833 -0.10725449 0.17326616 0.27526775 -0.049838617
-0.26484436 0.18076831 0.21659695 -0.10753124 0.3014062 0.18283533 0.1505682 -0.30229563
-0.031612724 0.0743172 0.10506329 -0.18062952 -0.25716525 -0.09836127 0.051081806 -0.04687132
0.27611217 -0.0015885555 -0.120843105 -0.11219361 -0.19383125 0.18780495 0.11522674 -0.0787302
0.11165548 -0.06042594 0.0015554026 0.00073202536 0.08785018 0.3248407 0.31604147 0.2592505
0.28889468 0.03367195 0.18501975 0.21080175 -0.36157522 -0.27933517 -0.3375034 -0.118252225
0.23949914 -0.36089477 -0.18529251 -0.24956463 0.057603065 -0.015030654 -0.307207 -0.18393028

encoder.layers.1.linear1.bias f4 [32]
00000000: c0fd 23be bbc4 efbd 7e7c 0ebe d316 9cbe
00000010: 9378 6b3e 7efd 433d 107f 9dbe 2a34 2d3e
00000020: b52a 293e 4765 8c3e 3a64 883e 8588 9d3b
00000030: 9afb 883e 685e 843e 7357 773e ff3d a43d
00000040: 2206 a2be d324 ddbd 5b7c f7bd 498b 473d
00000050: 37b6 5bbd e7e6 58be df4b 52bd f1aa 8e3e
00000060: dde2 053e f1d3 29be f8c4 01be deaf c53c
00000070: 0161 d03d 6615 6e3e d128 923e 4c95 0dbe
-0.16014767 -0.11707445 -0.13914678 -0.30486163 0.22995214 0.04784917 -0.30761003 0.1691443
0.16520198 0.27421018 0.26638967 0.004807534 0.26754457 0.25853276 0.24154453 0.08019637
-0.31645304 -0.10798039 -0.12084266 0.048716817 -0.05364057 -0.21181832 -0.051341888 0.27864793
0.13074823 -0.16584755 -0.12672794 0.024131712 0.10174752 0.2325035 0.28546765 -0.13826483
