models/ts_views_models/ts-v12.ckpt (torch, 330768 bytes, 201 tensors)

input_pos_embedding.weight f4 [1024, 8]
0	0xbf616cfd	-0.8805693
1	0xbf34ca3f	-0.70621103
2	0xbfc67931	-1.5505735
3	0x3f974753	1.1818641
4	0x3d2d85e1	0.042364005
5	0x3eb74957	0.3579814
6	0x3ee0ebec	0.43929994
7	0x3f68fd78	0.9101176
8	0x3fe93bea	1.8221409
9	0xbf445033	-0.76684874
10	0xbf80911c	-1.0044284
11	0xbdec146c	-0.11527333
12	0xbd09d03a	-0.033645846
13	0x3f0b3d18	0.54390097
14	0x3eb47cfd	0.35251608
15	0xbf78e5da	-0.97225726
16	0x3f72df1f	0.94871706
17	0x3dc95e63	0.09832456
18	0xbf63335b	-0.8875024
19	0x3f83b2e5	1.0288969
20	0x3f3fcb9a	0.74920046
21	0xbf983797	-1.1891965
22	0xbf8ff382	-1.1246188
23	0x3ec9522f	0.39320514
24	0x3eb8ba90	0.36079836
25	0x3c20c75c	0.009813156
26	0x3f1eadbf	0.61983865
27	0x4018cb01	2.3873904
28	0xbf995596	-1.1979244
29	0xbee4dbdc	-0.4469899
30	0x3e700cd1	0.23442389
31	0x3f090cc4	0.53535104
32	0x3ec51880	0.38495255
33	0x3f22c358	0.6357932
34	0xbf28f1b3	-0.65993804
35	0x40242c4d	2.565204
36	0x3e1e1f5a	0.15441647
37	0xbe69decb	-0.22838895
38	0x4007f031	2.1240351
39	0xbf94a903	-1.1614078
40	0x3f088ef8	0.53343153
41	0xbdf45ff6	-0.119323656
42	0xbf4729c0	-0.7779808
43	0x3cff142d	0.03113755
44	0x3e0229a8	0.12711203
45	0x3e3f719c	0.18695682
46	0xbf88cc7d	-1.0687405
47	0xbf1e3675	-0.61801845
48	0x3f67a560	0.9048672
49	0x3d40e40f	0.047092494
50	0x3f40863a	0.75204813
51	0x3fb1b2b6	1.3882663
52	0x3f34c7ff	0.7061767
53	0xbdc62daa	-0.096766785
54	0xbfa7b951	-1.3103429
55	0xc0125405	-2.2863781
56	0x3f834ecd	1.0258423
57	0x3f5a8e48	0.85373354
58	0x3f0ef606	0.5584415
59	0xbe01a623	-0.12661032
60	0x3f8a6d7e	1.0814664
61	0xbf634709	-0.88780266
62	0xbf849ec2	-1.0360949
63	0x3f909c15	1.1297632
64	0xbf1e8f9c	-0.6193788
65	0x3de0f03b	0.1098332
66	0xbfb9fa0d	-1.4529434
67	0x3fbba26e	1.4658945
68	0x3ee6ea16	0.45100468
69	0xbcecebe3	-0.028921073
70	0x3f37f553	0.7185871
71	0x3fa8e88f	1.3195971
72	0xbed2a330	-0.41140127
73	0xbee73184	-0.45154965
74	0x3eb8d27a	0.3609808
75	0xc00504c9	-2.078417
76	0xc022b769	-2.5424445
77	0xbf2dca69	-0.6788698
78	0xbe3b4c54	-0.18290836
79	0x3fb799a8	1.4343767
80	0xbda4d8c3	-0.080491565
81	0x3f2c2416	0.6724256
82	0x3e916f12	0.28405052
83	0x3fbeb33b	1.4898447
84	0xbf5baf9f	-0.8581485
85	0xbf1c3963	-0.61025065
86	0x3e4e7701	0.20162584
87	0xbf1130e5	-0.5671523
88	0x3f19efc6	0.6013149
89	0x3f0f69cb	0.560208
90	0xbf691e15	-0.91061527
91	0xbf013081	-0.50464636
92	0x3e94721d	0.28993312
93	0xbfd1b37f	-1.6382903
94	0x3f239b23	0.63908595
95	0xbe86816c	-0.26270616
96	0xbffd583b	-1.9792551
97	0x3f5b17a5	0.85582954
98	0x3f022717	0.50840896
99	0x3e7a50f2	0.2444494
100	0x3c45805c	0.012054529
101	0xbfbbdff7	-1.4677724
102	0x3f224c0d	0.63397294
103	0x3fa67aef	1.3006266
104	0xbf525243	-0.8215677
105	0x3f1b1f07	0.6059422
106	0x3f8ecff4	1.1157212
107	0xbfc23126	-1.5171249
108	0xbf9e6bae	-1.2376611
109	0xbe6d8c9f	-0.23198174
110	0x3e08f7f8	0.13375843
111	0xbf0dd1ab	-0.5539805
112	0xbde63d05	-0.11242107
113	0x3f893f92	1.0722525
114	0x3f990f0c	1.1957717
115	0x3f5cdda6	0.8627571
116	0xbee4d45e	-0.44693273
117	0x3e9a914d	0.3018898
118	0xbe43d364	-0.19123608
119	0xbe922695	-0.2854506
120	0x3e2c1789	0.16805853
121	0xbf95c5b0	-1.1700954
122	0xbcd364f4	-0.025804974
123	0x3e90664f	0.28203055
124	0x3ec76d65	0.3895065
125	0xbf2eaf67	-0.6823639
126	0x3df6cc0e	0.12050639
127	0xbe0e15e3	-0.13875537
128	0xbfde8841	-1.7385331
129	0xbf09fa7f	-0.5389785
130	0x3e085c65	0.13316496
131	0x3fbf68fd	1.4953915
132	0x3f714aba	0.9425465
133	0xbf89c3f2	-1.0762923
134	0x3fa5fc0b	1.2967542
135	0xbea88382	-0.32912832
136	0x3f4ef1a7	0.8083748
137	0xbfb50907	-1.414338
138	0xbf0927dd	-0.5357645
139	0x3f2113ed	0.6292103
140	0x3ecda07d	0.40161505
141	0x3eb12002	0.34594733
142	0x3fc90f3a	1.5707772
143	0xbe3851c8	-0.17999947
144	0xbfaf49bf	-1.369438
145	0xbfb06265	-1.3780028
146	0x3ef25611	0.47331288
147	0x3fd59a72	1.6687758
148	0xbfa13ad5	-1.2596079
149	0xbef6dcd7	-0.48215362
150	0x3f74d6e9	0.95640427
151	0xbf844731	-1.0334226
152	0xbf2bc421	-0.67096144
153	0x3e3cf221	0.1845174
154	0xbf5b91b1	-0.8576918
155	0xbebdc918	-0.37067485
156	0xbf97b879	-1.1853172
157	0xbf6a0a2f	-0.9142179
158	0x3cc2c061	0.023773374
159	0x3e6b2009	0.22961439
160	0xbe29bd4e	-0.1657612
161	0xbf571f61	-0.84032255
162	0x3f93aa7b	1.1536402
163	0x3f29e472	0.66364205
164	0xbce4deda	-0.027938295
165	0x3c1a07f9	0.009401315
166	0xbf33ce3b	-0.7023656
167	0xc006fe1a	-2.1092591
168	0xbf0c365c	-0.54770446
169	0x3ee58763	0.44829854
170	0xbe33f830	-0.17575145
171	0xbf89f466	-1.077771
172	0xbf15d46b	-0.5852725
173	0xbf401981	-0.75038916
174	0x3f5d11ff	0.86355585
175	0xc00056fb	-2.0053089
176	0x400b3060	2.1748276
177	0x3e0faca7	0.14030705
178	0xbe709002	-0.23492435
179	0xc0635ce3	-3.5525444
180	0xbeb9ae94	-0.36266005
181	0xbf224554	-0.63387036
182	0x3fb796fe	1.4342954
183	0x4032f65d	2.7962868
184	0xbf91e3d8	-1.1397657
185	0xbfc7a073	-1.559584
186	0x3f0e5903	0.5560457
187	0xbf5aa925	-0.85414344
188	0x4015ebc1	2.3425143
189	0xbf422a74	-0.7584603
190	0xbf2db064	-0.67847276
191	0x400ff194	2.2491198
192	0xbe4496c2	-0.19198135
193	0x3fc2b529	1.5211536
194	0x3d856c14	0.06514755
195	0xc04d0353	-3.203328
196	0xc00f69e6	-2.2408385
197	0x4031ea7e	2.7799373
198	0xbf4b5bc8	-0.7943692
199	0xbf37dc62	-0.7182065
200	0xbf7e0acc	-0.99235225
201	0x3f1dd69a	0.6165558
202	0xbe7b66db	-0.24550955
203	0xbfd2b686	-1.6461952
204	0xc0081cc4	-2.1267557
205	0x3fdbee49	1.7182094
206	0x3f8a2feb	1.0795873
207	0xbe672192	-0.225714
208	0xbe468bc4	-0.19389254
209	0x3de20550	0.110361695
210	0x3e6981cb	0.22803418
211	0x3f414378	0.75493574
212	0xbf346566	-0.7046722
213	0x3f860456	1.0470073
214	0x3f5dc17f	0.86623377
215	0x3ed91772	0.424007
216	0xc0273d81	-2.613129
217	0x3bce5c24	0.006297605
218	0x3f876b13	1.0579551
219	0xbf918897	-1.1369809
220	0xbf76c6a5	-0.9639686
221	0xbf64453f	-0.8916816
222	0x3fa94110	1.322298
223	0xbee3aee6	-0.44469374
224	0x3f9faee6	1.247525
225	0x3f6f56ee	0.9349202
226	0x3d201a81	0.039087776
227	0xbf3e1b0e	-0.7426003
228	0x3c998852	0.01874176
229	0xbb5196d3	-0.0031980767
230	0x3f3ac287	0.72953075
231	0xbd88b7f5	-0.06675712
232	0x3ef8bb0d	0.48580208
233	0xbfe7f2ad	-1.8120934
234	0xbe245eb9	-0.16051759
235	0xc037bf5f	-2.8710554
236	0xbe86b370	-0.26308775
237	0x3f61f9c3	0.8827173
238	0xbdba4e11	-0.09096921
239	0x3f71a957	0.9439902
240	0x3eee71d6	0.46571225
241	0x3dc9f785	0.09861664
242	0x3ef3e282	0.4763375
243	0x3fada014	1.3564477
244	0xbeb4c33f	-0.3530521
245	0xbf2acf85	-0.667229
246	0xbedcbe9f	-0.43114182
247	0xbf9c26c4	-1.219933
248	0x400aa22e	2.1661487
249	0x3f253cdf	0.64546007
250	0x3face2b7	1.3506688
251	0xc019688b	-2.3970058
252	0xbf01f085	-0.5075763
253	0x3cd614a2	0.026132885
254	0xbee20eb9	-0.44151857
255	0x3f9a853f	1.2071913

target_pos_embedding.weight f4 [1024, 8]
0	0x3fde661b	1.737491
1	0xbce43335	-0.027856449
2	0xbf9ed588	-1.2408915
3	0x40079b7d	2.1188653
4	0x3f8f93c6	1.1216972
5	0xbc50f315	-0.012753268
6	0xbf57f0b4	-0.8435166
7	0xbefb2680	-0.4905281
8	0x3f3c31f5	0.7351373
9	0x3e8aa056	0.27075452
10	0xbe54393f	-0.20724963
11	0x3e1d151c	0.15340084
12	0xbfe39c17	-1.778201
13	0x3e45d0be	0.1931791
14	0xbfd8d0f7	-1.6938771
15	0xc019f6fd	-2.4057
16	0xbf4fcfd8	-0.8117652
17	0x3ba81163	0.005129026
18	0xbe060338	-0.13087165
19	0xbd7fa513	-0.062413286
20	0xbf947d0f	-1.1600665
21	0xbfa1b889	-1.2634441
22	0xbf83da03	-1.0300907
23	0xbd111b85	-0.035426635
24	0x3fadd806	1.358155
25	0xbfa4dcea	-1.2879918
26	0x3ff15f9c	1.8857303
27	0xbf859617	-1.0436429
28	0xbfde7170	-1.7378368
29	0xbf998da8	-1.1996355
30	0xbf44d689	-0.76889855
31	0xbf34ef36	-0.70677507
32	0xbf71f786	-0.94518316
33	0xbf20bac9	-0.6278501
34	0xbea03280	-0.31288528
35	0xbedd247e	-0.43191904
36	0x3ffce18d	1.9756333
37	0xbe85cc41	-0.26132396
38	0xbec4dab7	-0.38448116
39	0xbf7c5b0d	-0.9857643
40	0x3f1920c4	0.5981562
41	0x3ee4e4ed	0.44705907
42	0x3ecd1633	0.40056
43	0x3fd1668c	1.635942
44	0x3da46484	0.08026984
45	0xbfa84175	-1.3144976
46	0xbe94f97b	-0.29096588
47	0xbf141567	-0.5784516
48	0xbfa46b96	-1.2845333
49	0x3fbe16be	1.485069
50	0x3e20a4a5	0.15687807
51	0xbf1ce966	-0.6129364
52	0x3f547f12	0.83006394
53	0xbf5e7a5e	-0.8690547
54	0xbf8f230d	-1.1182572
55	0xbda3a799	-0.07990951
56	0x3f9d14e6	1.2272003
57	0xbd4f40fa	-0.050599076
58	0xbf2f7ef6	-0.685531
59	0xbf642bc8	-0.89129305
60	0xbf9ceab6	-1.2259128
61	0x3f6d0d9e	0.92598903
62	0xbc90a43e	-0.017656442
63	0x3e37d80a	0.17953506
64	0x3f2d4b28	0.67692804
65	0xbfa3da58	-1.2801008
66	0x3f400d75	0.75020534
67	0xbf1498c9	-0.5804563
68	0xbe3a667d	-0.18203159
69	0xbefd17ed	-0.49432316
70	0x3fb331b1	1.399954
71	0xbf7d1792	-0.9886409
72	0xc0101fa3	-2.251931
73	0xbd9d73ef	-0.07688128
74	0xbe3eac6d	-0.18620463
75	0xbca161e4	-0.019699998
76	0xbe476044	-0.19470316
77	0x3ff3dd45	1.9051901
78	0xbf95af45	-1.1694113
79	0x3f17c1c5	0.59280044
80	0xbf3e558c	-0.74349284
81	0x3f1d7645	0.6150859
82	0xbf032c98	-0.5123992
83	0x3ead7986	0.33881778
84	0x3fba539f	1.4556769
85	0xbf15d533	-0.5852844
86	0x3ec8441b	0.3911446
87	0xbf5f0c80	-0.8712845
88	0xbfa26122	-1.2685893
89	0x3e51fb4f	0.20506023
90	0xbfbdf8f9	-1.4841605
91	0xbf0342d0	-0.5127382
92	0xbe4d0651	-0.20021941
93	0x3f6d45db	0.92684716
94	0x3e14bf92	0.14526203
95	0x3f81a39f	1.0128058
96	0xbe0b34f6	-0.13594422
97	0x3fe7e3f8	1.8116446
98	0x3f2e49f1	0.68081576
99	0xbfcfebc8	-1.624383
100	0x3f053fa0	0.5205021
101	0x3f1e95fa	0.61947596
102	0x3f85c08d	1.0449387
103	0xbfda6973	-1.706343
104	0x3f5dc6f0	0.8663168
105	0x3db63347	0.08896499
106	0x3f852b69	1.0403873
107	0x3f2e8cf1	0.6818381
108	0x3f94d9f8	1.1629019
109	0x3edf2f9e	0.43591017
110	0x3efe851a	0.49710923
111	0x3fe56293	1.7920707
112	0x3f19d70c	0.6009376
113	0x3f205e51	0.62643915
114	0x3dda450c	0.10657701
115	0x3d73545a	0.059406616
116	0xbfb4b3bf	-1.4117354
117	0x3ee9be36	0.45652932
118	0xbf1d1cbc	-0.6137197
119	0xbe6942d4	-0.22779399
120	0xbfb9fadf	-1.4529685
121	0xbe2cba6f	-0.16867994
122	0x3f26cc16	0.6515516
123	0xbedac1d6	-0.4272601
124	0xbf84645a	-1.0343125
125	0x3f9a0230	1.2031918
126	0xbf0f8e53	-0.56076545
127	0x3e1ae518	0.15126455
128	0x3eef046b	0.46683058
129	0xbf821ca6	-1.0164993
130	0x3ecedf49	0.40404728
131	0x3f6d03be	0.92583835
132	0x3d8fd712	0.07023443
133	0xbf828e37	-1.019965
134	0xbe459bc9	-0.19297709
135	0x3f6d2179	0.926292
136	0x3f7a4300	0.97758484
137	0xbf3f7a14	-0.7479565
138	0x3d9ecfca	0.07754476
139	0x4038d31b	2.8878849
140	0xbf73450c	-0.9502723
141	0xbf8d5262	-1.1040766
142	0x3dd4397d	0.103625275
143	0xbf63a832	-0.8892852
144	0xbe480a85	-0.19535263
145	0xbe3420ee	-0.17590687
146	0x3fb6b15a	1.4272873
147	0xbd2d8822	-0.042366154
148	0x3e5f1220	0.21784258
149	0xbe4a7f81	-0.19775201
150	0xbe9a9965	-0.30195156
151	0x3ef45f79	0.4772909
152	0xb98e992f	-0.0002719848
153	0x3e6f8812	0.2339175
154	0xbd19cd06	-0.03754904
155	0xbfda5940	-1.7058487
156	0xbfc37c33	-1.5272278
157	0xbf8cc566	-1.0997741
158	0x3e44b420	0.19209337
159	0x3ecb6e8b	0.39732775
160	0x3f922ab2	1.141928
161	0xbf16cf7c	-0.58910346
162	0xbff3663a	-1.9015572
163	0xbe91aed4	-0.28453696
164	0x3f2d634f	0.6772966
165	0xbfca4bb4	-1.5804353
166	0x3f1a1436	0.6018709
167	0x3e8e80a5	0.27832523
168	0x3eecab46	0.4622442
169	0x3fe02ed8	1.7514296
170	0x3ec6aaa4	0.38802063
171	0x3eed804a	0.4638694
172	0x3f85ccca	1.0453122
173	0x3e51b2ee	0.20478413
174	0x3f01893e	0.5060004
175	0xbf23665a	-0.6382805
176	0x3e8c8213	0.2744299
177	0x3f454bc2	0.7706872
178	0x401d447d	2.4573052
179	0xbf50deb2	-0.81589806
180	0xbf42c287	-0.76078075
181	0x3e24fbbb	0.16111653
182	0x3fc1e62d	1.5148369
183	0x3f4a5a89	0.79044396
184	0xbf26a33e	-0.6509284
185	0xbedb670a	-0.4285205
186	0xbeaf49d3	-0.3423601
187	0xbf08cb2f	-0.53435034
188	0x3e854c11	0.26034597
189	0x3f2fc314	0.6865704
190	0x3f96aca0	1.1771431
191	0x4012983f	2.2905424
192	0x3d201b19	0.039088342
193	0x3f068c19	0.5255752
194	0xbf9bd3cd	-1.2174011
195	0x3f575f8d	0.84130174
196	0x3ed71739	0.42009905
197	0xbfac6710	-1.3468952
198	0x3fa6c963	1.3030208
199	0xbfdf259d	-1.7433354
200	0xbfaeb2a5	-1.3648268
201	0xbfc1bd3e	-1.5135877
202	0xbfdf90df	-1.7466086
203	0x3fdbe68f	1.7179736
204	0xbf94be05	-1.1620489
205	0xbfecedc1	-1.8510057
206	0xbf3139ee	-0.6922902
207	0xbd38aa20	-0.04508412
208	0x3e781a0b	0.24228685
209	0x3f66a9b4	0.90102696
210	0xbeea9eb7	-0.45824215
211	0x3f610466	0.87897336
212	0xbfc03085	-1.5014807
213	0x3f89ba5a	1.0759995
214	0xbf0b5389	-0.5442434
215	0xbf9fbc35	-1.2479311
216	0xbe6eda70	-0.23325515
217	0x3f9a78a9	1.2068073
218	0xbf20d197	-0.6281981
219	0xbf3dc8df	-0.7413463
220	0x3f291c61	0.6605893
221	0xbf22e40d	-0.6362923
222	0xbff30fa1	-1.8989145
223	0x3f00a24f	0.50247663
224	0xbfd9f13d	-1.7026745
225	0xbf84cb94	-1.0374627
226	0xbf8e2b28	-1.110692
227	0x3f7026d9	0.93809277
228	0x3f372942	0.7154733
229	0xbec18194	-0.37794173
230	0x3fbb2d4b	1.4623197
231	0x3f6e1cbd	0.930126
232	0xbf15c556	-0.58504236
233	0x3f05c388	0.5225148
234	0xbea4db63	-0.3219863
235	0x3f8ea09d	1.1142765
236	0x3f69bcc1	0.9130364
237	0x3f318b3a	0.6935307
238	0x3fbdae29	1.4818774
239	0x3f62b4a7	0.88556904
240	0x3f07f686	0.5311054
241	0x3d9b9130	0.07596052
242	0xbe7a7d1a	-0.24461785
243	0x3c38a9c1	0.011270941
244	0x400810af	2.1260183
245	0x3ee33645	0.44377342
246	0xbe2e756f	-0.17036985
247	0x3f562ed1	0.83665186
248	0xbfc6351d	-1.5484959
249	0x3fd8e907	1.6946114
250	0xbf50a984	-0.8150866
251	0xbf341e2c	-0.7035854
252	0xbf15b472	-0.5847846
253	0x3f9af2cf	1.2105349
254	0x3f1788f0	0.59193325
255	0x3fc3d33d	1.529884

encoder.layers.0.self_attn.in_proj_weight f4 [24, 8]
0	0xbe887314	-0.26650298
1	0xbe6ad0ff	-0.22931288
2	0x3e611a02	0.21982577
3	0x3eb21729	0.34783295
4	0xbea5ae67	-0.3235962
5	0xbdfcae82	-0.12337972
6	0x3ebb07d2	0.36529404
7	0x3ecad27e	0.39613718
8	0xbe0f04a4	-0.13966614
9	0xbecf4184	-0.40479672
10	0x3e8a500c	0.27014196
11	0x3db93607	0.09043508
12	0x3e6faf03	0.23406605
13	0xbe25eda7	-0.16203938
14	0x3ec84cfd	0.39121237
15	0xbe85bc8a	-0.26120406
16	0xbe20d72c	-0.15707082
17	0xbe5301b7	-0.20606123
18	0x3cbc173c	0.022960298
19	0xbe06192f	-0.13095544
20	0x3d945220	0.072422266
21	0xbe0cad9f	-0.13738106
22	0xbd862a85	-0.06551079
23	0xbde724fc	-0.11286351
24	0x3eca9b18	0.39571452
25	0x3ec3fd0a	0.3827899
26	0x3e3f9758	0.18710077
27	0xbe7cfeae	-0.24706528
28	0x3ea8b0cc	0.32947385
29	0xb93b910f	-0.00017887748
30	0x3e0820b2	0.13293722
31	0x3cc901d4	0.024537005
32	0x3c843a9f	0.016141234
33	0xbd342afc	-0.043986306
34	0xbe9e1657	-0.3087642
35	0x3ed985aa	0.4248479
36	0xbd512d43	-0.051068556
37	0x3ed36b9d	0.4129304
38	0x3edd9dd9	0.4328449
39	0xbdeff5f6	-0.11716835
40	0x3ec8bd71	0.39207032
41	0xbe6c5859	-0.23080577
42	0xbeb336ef	-0.35002849
43	0xbe3715b4	-0.17879373
44	0xbd53f64b	-0.051748555
45	0x3e1c35d3	0.15254907
46	0x3e8ee9e0	0.27912807
47	0xbcc448ad	-0.023960436
48	0x3e1f4879	0.1555499
49	0x3e579357	0.210523
50	0x3ebfcbc0	0.37460136
51	0xbe8eeb73	-0.27914008
52	0x3e8a9b7d	0.27071753
53	0xbe20f696	-0.15719065
54	0x3d4c71f2	0.049913354
55	0xbe20c286	-0.15699205
56	0x3ebc6a44	0.36799824
57	0x3df3471f	0.118788
58	0xbeccfd64	-0.40037072
59	0x3e18ab78	0.1490916
60	0xbe55dfea	-0.20886198
61	0xbd679b15	-0.056544382
62	0xbe6a40c0	-0.22876263
63	0x3e8c3237	0.2738206
64	0x3e7fa627	0.24965726
65	0x3ecf4dac	0.40488946
66	0x3ea2f39f	0.31826493
67	0xbd013c2d	-0.03155153
68	0x3ac4c232	0.0015011488
69	0x3e79d6c2	0.2439833
70	0x3e948c4e	0.29013294
71	0x3df94f73	0.12173357
72	0x3ecd7937	0.40131542
73	0xbeb1f2bf	-0.34755513
74	0x3ea0f7d8	0.3143909
75	0x3d3f068c	0.046637103
76	0xbe80d978	-0.25165915
77	0xbe2cd7f6	-0.16879258
78	0xbe283671	-0.16427018
79	0x3ea28ab5	0.3174645
80	0x3e4caaac	0.19986981
81	0x3e3e71e8	0.1859814
82	0x3dd24c96	0.10268514
83	0xbeaa6597	-0.33280632
84	0x3e884fa4	0.2662326
85	0xbd7d9f0f	-0.06191927
86	0xbe9ae968	-0.302562
87	0x3e32a059	0.1744398
88	0x3ec9aa8a	0.39387923
89	0xbe73e43b	-0.23817532
90	0xbe52169b	-0.20516436
91	0x3e083ffc	0.13305658
92	0xbe149bca	-0.14512554
93	0x3eb7e606	0.3591768
94	0x3ec6e24b	0.38844523
95	0x3e1a16c8	0.15047753
96	0x3e145f0e	0.14489385
97	0x3dc42ddc	0.095790595
98	0xbe910be5	-0.28329387
99	0xba2b5ea2	-0.0006537234
100	0xbe4e1f8b	-0.2012922
101	0x3d681ef4	0.056670144
102	0x3ecce916	0.4002158
103	0x3e19e22d	0.15027685
104	0xbe84738f	-0.25869414
105	0xbecb6582	-0.39725882
106	0x3edbf4d9	0.4296024
107	0xbea4899b	-0.32136235
108	0x3dcee88e	0.1010295
109	0x3cb229bc	0.021748416
110	0x3e41efb6	0.18939099
111	0xbdf4943d	-0.11942337
112	0xbd939df3	-0.07207861
113	0x3ebf3768	0.3734696
114	0xbe883681	-0.26604083
115	0xbe71eb03	-0.23624806
116	0x3ec9ce9f	0.39415452
117	0x3e607614	0.21920043
118	0xbeca74df	-0.3954229
119	0xbe000e0c	-0.12505358
120	0x3e2df2a9	0.16987099
121	0x3e3d97c0	0.1851492
122	0x3ecc363d	0.3988513
123	0x3ea78ee9	0.3272622
124	0xbdc05952	-0.093920365
125	0xbe375c82	-0.17906383
126	0x3e9c77d2	0.30560166
127	0x3e6cafe5	0.23113973
128	0x3cba9452	0.022775803
129	0x3e9b6ea0	0.30357838
130	0x3e85a58d	0.26102868
131	0x3e5a1bd7	0.21299683
132	0x3e0d83ae	0.13819763
133	0x3ea33ca7	0.31882212
134	0xbe31980e	-0.1734316
135	0xbec60f4c	-0.38683546
136	0xbe9bd05b	-0.304324
137	0x3e897bfd	0.26852408
138	0x3e2ad9d9	0.16684665
139	0x3d1d39a1	0.038385037
140	0x3ebcfd82	0.3691216
141	0x3eb053ff	0.34439084
142	0xbe9ce057	-0.30639908
143	0xbe9ddad0	-0.30831003
144	0x39db9c9e	0.00041887624
145	0xbeebf8fe	-0.46088403
146	0xbeab96cb	-0.33513483
147	0x3e478312	0.19483593
148	0x3ea93ed9	0.3305576
149	0x3eba4640	0.36381721
150	0xbe7fdeac	-0.24987286
151	0x3e0f4873	0.13992481
152	0x3e2bb80e	0.1676943
153	0xbeca8283	-0.39552698
154	0x3eb8e639	0.36113146
155	0x3d530dc7	0.05152681
156	0xbe4c43c8	-0.19947731
157	0x3dbb5894	0.09147754
158	0x3e5d48a0	0.21609735
159	0x3ec94812	0.39312798
160	0xbea4d9af	-0.3219733
161	0x3e42e9f7	0.19034563
162	0x3dd87583	0.105692886
163	0xbe21029c	-0.15723652
164	0x3eb2e449	0.34939793
165	0x3e6314a1	0.22175838
166	0x3e4bdfad	0.19909544
167	0xbe714b2d	-0.23563834
168	0x3e1bb001	0.15203859
169	0x3ec5c321	0.38625434
170	0x3ec42ddf	0.38316247
171	0xbeb724d2	-0.3577028
172	0x3e3905b6	0.18068585
173	0xbe5cbf18	-0.21557271
174	0xbe015d84	-0.1263333
175	0xbecf7927	-0.4052212
176	0x3eca6060	0.39526653
177	0xbd11dd13	-0.035611223
178	0xbe84390b	-0.2582477
179	0x3eb423bf	0.35183522
180	0x3e0222b5	0.12708552
181	0xbdbf81b7	-0.09350913
182	0x3cc18e2d	0.023627365
183	0x3db69d9e	0.08916782
184	0x3e9f7514	0.3114401
185	0xbecd4c14	-0.40097106
186	0xbe9e05a1	-0.3086367
187	0x3e00a658	0.12563455
188	0xbe2ac2bc	-0.16675848
189	0xbe58072a	-0.21096483
190	0x3e297369	0.16547932
191	0x3e6688cf	0.22513126

encoder.layers.0.self_attn.in_proj_bias f4 [24]
0	0xba1f1289	-0.00060681306
1	0xba5825aa	-0.00082453585
2	0xb91447c9	-0.00014141122
3	0xba4120a6	-0.0007367231
4	0xb8560dc9	-5.1034414e-05
5	0x3977f725	0.00023647824
6	0xb8b60e2b	-8.681075e-05
7	0xb910dcad	-0.00013815118
8	0xb8b4fcfc	-8.630191e-05
9	0x38613321	5.3691798e-05
10	0x38dab769	0.00010429213
11	0xb840f2f1	-4.6002624e-05
12	0xb8073a8a	-3.2241027e-05
13	0x359f7c3b	1.1882579e-06
14	0x36c751d9	5.9401905e-06
15	0xb71be7b8	-9.292671e-06
16	0xbbfd7837	-0.007735278
17	0xbae673e2	-0.0017582143
18	0x3c470cac	0.012149017
19	0x3b0a10ed	0.0021067217
20	0x3b0e193f	0.0021682528
21	0x3b5dd1eb	0.0033847045
22	0xba857c38	-0.0010184115
23	0xba34ef94	-0.0006902155

encoder.layers.0.self_attn.out_proj.weight f4 [8, 8]
0	0x3da6034f	0.081061
1	0x3e2be858	0.16787851
2	0xbeb038a4	-0.34418213
3	0xbdf0bf1b	-0.117552005
4	0x3dea0e52	0.11428513
5	0xbe660dbe	-0.2246618
6	0x3d953e34	0.07287255
7	0xbe27331d	-0.16328092
8	0xbe5021ab	-0.20325343
9	0x3b083897	0.0020785683
10	0x3c38fa97	0.011290214
11	0xbe16662e	-0.14687416
12	0x3dfee078	0.12445158
13	0xbe38f349	-0.18061556
14	0xbddc1489	-0.10746104
15	0xbda38ea6	-0.079861924
16	0x3e5e1fb1	0.21691777
17	0x3dde0079	0.10839934
18	0x3d6f6fc4	0.058456197
19	0xbdf10853	-0.11769166
20	0xbe89905a	-0.26867944
21	0x3c12f9c7	0.008970684
22	0x3d7cf3a0	0.061755776
23	0x3e5b34c4	0.21406847
24	0x3e484331	0.19556881
25	0x3e2b271d	0.1671414
26	0xbe4856b3	-0.19564323
27	0x3cf2256b	0.029558858
28	0x3dcdb0e3	0.10043504
29	0xbebfd086	-0.37463778
30	0x3d848506	0.06470685
31	0x3df5d739	0.12003941
32	0xbdf03b61	-0.11730076
33	0x3e8f2349	0.27956608
34	0x3e44c99c	0.19217533
35	0x3dde8347	0.10864883
36	0xbe8f17e1	-0.27947906
37	0xbcd6a47a	-0.026201475
38	0x3d5c5898	0.053795427
39	0x3e4fa864	0.2027908
40	0xbd633cb9	-0.05547783
41	0xbe1a7283	-0.15082745
42	0x3eb29b97	0.3488433
43	0xbe58dc8e	-0.21177885
44	0x3d591dc7	0.053006914
45	0xbe97ea29	-0.29670838
46	0xbe4a77f5	-0.19772322
47	0x3d10500c	0.03523259
48	0xbe364c34	-0.17802507
49	0xbcc55dbf	-0.024092553
50	0x3e9646bb	0.29350838
51	0x3cc16adb	0.023610523
52	0x3e91a530	0.2844634
53	0xbe714fa9	-0.23565544
54	0xbe6dda16	-0.23227724
55	0xbea926bc	-0.33037364
56	0x3e00502f	0.12530588
57	0x3e863cbe	0.26218218
58	0x3e8fc4bf	0.28079793
59	0x3e11b4c9	0.1422912
60	0xbd6619de	-0.056177013
61	0x3e6a3f9c	0.22875828
62	0x3e202f39	0.15643014
63	0x3e3e8b44	0.18607813

encoder.layers.0.self_attn.out_proj.bias f4 [8]
0	0xbc0d7870	-0.008634672
1	0x3bc987f6	0.006150241
2	0xbc8bbb0b	-0.017056962
3	0xbc6b4485	-0.014359598
4	0x3c361007	0.01111222
5	0x3c66a1ab	0.014076631
6	0xbb5fbc82	-0.003413946
7	0x3c4db244	0.012554709

encoder.layers.0.linear1.weight f4 [32, 8]
0	0x3e900fc4	0.28137028
1	0xbe0c6473	-0.13710193
2	0x3e8a3fd5	0.27001825
3	0xbe06cd74	-0.13164312
4	0x3d992e08	0.07479483
5	0xbd5dc809	-0.054145847
6	0x3b64e24c	0.0034924923
7	0x3de55021	0.11196924
8	0x3e9fd8db	0.31220135
9	0x3ddd2908	0.10798842
10	0x3e45a0fe	0.19299695
11	0xbd7ad28b	-0.061235946
12	0x3de0c4ff	0.10975074
13	0x3e9d4515	0.30716768
14	0x3eab5131	0.33460382
15	0x3e800338	0.25002456
16	0x3da92bd9	0.082603164
17	0x3e259428	0.16169798
18	0x3ea2966f	0.31755397
19	0x3d8c351f	0.068460695
20	0x3db15f04	0.08660701
21	0xbd94199b	-0.07231446
22	0xbd8a863e	-0.06763886
23	0x3d2f73d5	0.042835075
24	0x3e38a4cf	0.1803162
25	0xbe76a4d6	-0.24086317
26	0x3e21ea3f	0.15812014
27	0x3e0c3593	0.13692312
28	0x3de138de	0.10997175
29	0x3e761124	0.24029976
30	0x3d871fd7	0.0659787
31	0xbec22512	-0.37918907
32	0x3ea19d78	0.31565452
33	0xbec043c4	-0.375517
34	0xbe80270a	-0.25029784
35	0xbe25ce7d	-0.1619205
36	0x3ea3072a	0.31841403
37	0x3e893941	0.26801494
38	0x3d8bc314	0.068243176
39	0xbea1a0a7	-0.3156788
40	0xbe6dbf2e	-0.2321746
41	0xbe9f6720	-0.31133366
42	0xbe663840	-0.22482395
43	0xbd97f5c9	-0.07419927
44	0xbe50ac46	-0.20378217
45	0xbeb6b706	-0.3568651
46	0xbe237e1b	-0.15966074
47	0x3d0e0c66	0.034679793
48	0x3e191912	0.1495097
49	0x3eafaca3	0.343114
50	0x3dda99c8	0.10673863
51	0x3e9728c3	0.29523286
52	0x3e6a37c6	0.22872838
53	0x3e4467f6	0.19180283
54	0x3e7ccc7e	0.24687383
55	0xbdd54882	-0.104142204
56	0xbe812921	-0.2522669
57	0xbe1f7100	-0.1557045
58	0xbdc7cd1b	-0.09755918
59	0xbe0839db	-0.1330332
60	0x3eb77eae	0.35838836
61	0xbebb4e81	-0.3658333
62	0xbe8a93af	-0.270658
63	0xbe39b218	-0.18134344
64	0xbe6d4ddb	-0.23174231
65	0x3e510bf9	0.20414723
66	0xbda7b508	-0.08188826
67	0xbdc3065e	-0.09522699
68	0xbe0afad6	-0.13572249
69	0xbeb083ed	-0.3447565
70	0xbe9b0050	-0.30273676
71	0xbe0c461e	-0.13698623
72	0xbb9ec295	-0.0048449733
73	0xbe361efa	-0.17785254
74	0x3ea049f2	0.31306416
75	0xbd23fa9e	-0.04003393
76	0xbe911ad0	-0.2834077
77	0x3e667072	0.22503832
78	0x3c8fa7bd	0.017536039
79	0xbe73775a	-0.23775998
80	0x3e174ac7	0.14774619
81	0xbd1c1a76	-0.038111173
82	0x3e2f0336	0.17091069
83	0xbe989e57	-0.29808304
84	0x3e28c8ab	0.16482799
85	0x3df75aa3	0.120778345
86	0x3e848d7d	0.25889197
87	0xbda6bfc4	-0.08142045
88	0x3e9e40d8	0.30908847
89	0x3e567049	0.20941271
90	0xbe68ccb9	-0.22734345
91	0xbe14fac4	-0.14548784
92	0x3ea6d549	0.325846
93	0x3cd39cf4	0.025831677
94	0xbe794061	-0.24340965
95	0xbe873d16	-0.26413792
96	0x3e9f95ee	0.31169075
97	0x3e9bf030	0.30456686
98	0x3e274652	0.16335419
99	0x3eb36192	0.35035378
100	0xbe0877d6	-0.13326964
101	0xbeabc867	-0.33551332
102	0xbe04517c	-0.12921709
103	0xbdfa1e25	-0.12212781
104	0x3e51546d	0.20442362
105	0x3e17283c	0.14761442
106	0x3e380e65	0.17974241
107	0x3e777fea	0.24169889
108	0x3e9bc9db	0.3042744
109	0x3c1a679e	0.009424118
110	0xbe3cf7a5	-0.18453844
111	0x3d174fd8	0.03694138
112	0xbe4faaaa	-0.20279947
113	0xbd45ac60	-0.048260093
114	0x3eab5415	0.33462587
115	0x3e46f39d	0.19428869
116	0xbd93d474	-0.072182566
117	0xbeb89a94	-0.36055434
118	0xbeb9782c	-0.36224496
119	0x3e465971	0.19370057
120	0xbe4d67fd	-0.200592
121	0x3e0ba7d2	0.13638237
122	0x3e7f7172	0.2494562
123	0xbe52264b	-0.2052242
124	0x3d5878b0	0.05284947
125	0x3e7cc745	0.2468539
126	0x3e68a1a2	0.22717908
127	0x3ea34fae	0.31896728
128	0x3e9d59ff	0.30732724
129	0xbe713ec2	-0.23559096
130	0xbdd94218	-0.106083095
131	0x3eb60538	0.35550857
132	0x3d0353c5	0.03206231
133	0xbdf614ef	-0.120157115
134	0x3cbf6b67	0.023366643
135	0xbeae21bb	-0.3401011
136	0x3e737fe6	0.23779258
137	0xbc9f41d9	-0.019440578
138	0x3dcde25e	0.10052942
139	0x3d00f8be	0.03148722
140	0x3dc8b99f	0.098010294
141	0xbe68c6d3	-0.22732095
142	0xbe6757e8	-0.22592127
143	0x3ce9735a	0.028497387
144	0xbe6a5ea0	-0.22887659
145	0xbc71e5a7	-0.014764226
146	0xbdf51f3a	-0.119688466
147	0xb9b684e0	-0.00034812745
148	0x3eb18d76	0.3467824
149	0xbc09e3d2	-0.008416133
150	0xbea7cb31	-0.3277221
151	0x3e504b80	0.20341301
152	0x3e8f4f2b	0.27990088
153	0x3e1e9b2f	0.15488885
154	0x3e902fcc	0.28161466
155	0xbe5bd217	-0.21466862
156	0xbdf77d1f	-0.12084412
157	0xbeb584f7	-0.35453007
158	0xbc24dd88	-0.010062583
159	0xbe8cd88a	-0.27508956
160	0xbdf6492c	-0.12025675
161	0x3e7e1c57	0.24815498
162	0x3ea02ecc	0.31285703
163	0xbd8a6ab9	-0.06758637
164	0x3e69a833	0.22818069
165	0x3e30654e	0.17226145
166	0xbe9e6b30	-0.30941153
167	0x3e407eb6	0.18798336
168	0xbe80c203	-0.2514802
169	0xbde6eb32	-0.11275329
170	0xbeb281ce	-0.34864658
171	0xbe3ec112	-0.18628338
172	0x3e430065	0.19043119
173	0x3ce5bdda	0.02804463
174	0x3d81c264	0.06335905
175	0xbe341cbd	-0.17589088
176	0xbdd5dd8b	-0.104426466
177	0x3d8373f0	0.06418598
178	0xbcdf13a3	-0.027231043
179	0x3d8e6a18	0.069538295
180	0x3e8259bc	0.25459087
181	0xbdb5a9cd	-0.088702776
182	0x3e7802da	0.24219838
183	0xbe58febd	-0.21190925
184	0x3e8b8f8d	0.27257958
185	0x3cebf9d9	0.02880566
186	0x3e1fa48a	0.1559011
187	0xbeab8aba	-0.33504277
188	0xbe92cfa9	-0.28674057
189	0xbe4590c2	-0.19293502
190	0x3da52c81	0.08065129
191	0xbe93b3e2	-0.28848177
192	0x3c589a1e	0.013220338
193	0x3d570205	0.05249216
194	0xbeaa59e8	-0.33271718
195	0xbdbdb68c	-0.09263334
196	0x3dbbfc86	0.091790244
197	0xbd870856	-0.06593387
198	0xbd3c32b0	-0.045946777
199	0xbe2f0d15	-0.17094834
200	0xbe71765e	-0.2358031
201	0x3df3cd48	0.11904389
202	0xbd4caaf8	-0.049967736
203	0x3e816c89	0.25278118
204	0x3d41bdc0	0.0473001
205	0x3e7094e6	0.234943
206	0x3e18a05a	0.1490492
207	0xbe531ba7	-0.20616017
208	0xbe86ca91	-0.2632642
209	0xbb29f480	-0.0025933087
210	0xbea475fe	-0.3212127
211	0xbd613980	-0.054986477
212	0xbdf7967c	-0.120892495
213	0xbd8ec6f4	-0.06971541
214	0x3e7a6fee	0.2445676
215	0x3e5822f2	0.2110708
216	0xbe4fa5fb	-0.2027816
217	0x3b1fc0d3	0.0024376407
218	0x3cd629b7	0.026142938
219	0xbe356e4c	-0.17717856
220	0xbde78248	-0.11304146
221	0x3e19337a	0.14961043
222	0xbddc968a	-0.107709005
223	0xbe0c787a	-0.13717833
224	0x3e7c6288	0.24646962
225	0xbe308163	-0.17236857
226	0xbdef79ad	-0.1169313
227	0x3cd7c289	0.026337879
228	0xbde2f461	-0.11081768
229	0x3c50505b	0.012714471
230	0x3e9303a2	0.2871371
231	0x3ea53f49	0.32274845
232	0xbe91389b	-0.283635
233	0x3ccaa115	0.024735013
234	0xbe919169	-0.28431252
235	0xbd9b9442	-0.07596637
236	0x3e063eff	0.13109969
237	0xbe9e0d83	-0.30869684
238	0x3d9e069d	0.07716105
239	0xbda83fa9	-0.08215267
240	0x3ea38d3a	0.31943685
241	0x3e8ee145	0.27906242
242	0x3e977fac	0.29589593
243	0xbdbd4afc	-0.09242818
244	0x3dc08420	0.09400201
245	0xbe4ad510	-0.1980784
246	0x3eb35f6b	0.35033736
247	0xbea3ccc3	-0.31992158
248	0x3d178c40	0.036998987
249	0xbd8c5d60	-0.06853747
250	0xbdb15ecc	-0.08660659
251	0x3ea0c139	0.31397417
252	0xbea32a6f	-0.31868312
253	0xbe5c352c	-0.21504658
254	0xbd84c4a8	-0.06482822
255	0xbe4abd68	-0.19798815

encoder.layers.0.linear1.bias f4 [32]
0	0x3dacffbd	0.08447216
1	0x3e883b1c	0.26607597
2	0xbc667ca5	-0.0140678035
3	0xbe0762e2	-0.13221315
4	0x3d562e04	0.052289978
5	0x3de9477b	0.11390587
6	0xbea3cafc	-0.31990802
7	0x3e50237c	0.20326036
8	0x3df006f3	0.117200755
9	0x3e8823af	0.26589724
10	0xbeae0372	-0.33987004
11	0x3d0cbd81	0.034360413
12	0x3e601a1a	0.21884957
13	0x3e0872f3	0.133251
14	0x3a0fa9eb	0.0005480337
15	0xbd9a33da	-0.07529421
16	0xbdaf806c	-0.085694164
17	0x3e7906e9	0.24319042
18	0xbcb03aac	-0.021512352
19	0xbe2e2e6f	-0.170099
20	0xbe71d4a4	-0.23616272
21	0x39dcd0ef	0.00042117338
22	0xbe3a3387	-0.18183719
23	0x3da3af39	0.079924054
24	0x3de3c47e	0.11121462
25	0xbe4606fb	-0.193386
26	0xbde10ab0	-0.109883666
27	0xbddccd23	-0.10781314
28	0xbe90a688	-0.28252053
29	0xbe82aa1f	-0.25520417
30	0xbcd8a14a	-0.026444096
31	0xbe6fa4ea	-0.23402753

encoder.layers.0.linear2.weight f4 [8, 32]
0	0x3de70520	0.112802744
1	0xbda73959	-0.08165235
2	0x3d8f9f3f	0.07012796
3	0xbe4956de	-0.19662043
4	0xbcf8b5ad	-0.030360067
5	0x3d2ea57c	0.042638287
6	0x3d7276fc	0.059195504
7	0xbe29ec6e	-0.16594097
8	0x3aff3233	0.0019469917
9	0xbe299ba5	-0.1656328
10	0xbc6096b0	-0.013707802
11	0xbbc8c4b5	-0.006126965
12	0xbdf278b5	-0.11839429
13	0xbdea0626	-0.11426954
14	0x3dca6a2f	0.09883534
15	0xbe27b04c	-0.16375846
16	0x3e2fd2e1	0.17170288
17	0xbc872ba5	-0.016500304
18	0x3e078031	0.13232495
19	0xbc6e8b5a	-0.014559591
20	0xbe336212	-0.1751788
21	0x3dfdab88	0.123862326
22	0xbe0e8939	-0.13919534
23	0xbb07ff7c	-0.0020751646
24	0xbdd77aec	-0.10521492
25	0x3e28a14b	0.16467778
26	0xbc2b13d0	-0.010441735
27	0x3e154bc1	0.14579679
28	0xbe2a6ddd	-0.16643472
29	0x3da9434a	0.082647875
30	0x3cee345c	0.029077701
31	0x3e11b14b	0.14227788
32	0x3d0b4ba0	0.03400767
33	0x3d9f7869	0.07786638
34	0xbcda294e	-0.026631024
35	0xbc2f5fe3	-0.0107040135
36	0xbad87a2b	-0.0016515901
37	0x3e3aa6e3	0.18227725
38	0xbdf8e10c	-0.12152299
39	0x3c54c6d5	0.012986858
40	0xbde340ce	-0.11096345
41	0x3d6b6a84	0.057474628
42	0xbc95e60e	-0.018298175
43	0x3d822572	0.063547984
44	0xbd07ae92	-0.033125468
45	0x3dc6cdcc	0.097072214
46	0x3c8a7b73	0.016904568
47	0x3d80f5b3	0.062968634
48	0xbdca7eb2	-0.098874465
49	0xbe05456c	-0.13014764
50	0xbe0d2479	-0.13783444
51	0xbe088590	-0.133322
52	0xbd98c32d	-0.07459102
53	0x3dc8ef9e	0.09811328
54	0xbe22263b	-0.15834896
55	0xbe0634e8	-0.1310612
56	0x3cf5f6d1	0.030024918
57	0x3df67bbe	0.12035321
58	0xbdddd244	-0.108311206
59	0x3d05a25b	0.032625537
60	0x3d04b4c3	0.03239895
61	0x3d6de5df	0.05808055
62	0x3d508c5b	0.050915103
63	0xbe0b25f6	-0.135887
64	0xbe2ed667	-0.17073976
65	0xbd300014	-0.042968825
66	0xbd6b5466	-0.057453535
67	0x3ddf6a1d	0.109089114
68	0x3c56fd4b	0.013121913
69	0xbd573a0d	-0.052545596
70	0x3d1c9f24	0.038237706
71	0xbd8d391c	-0.068956584
72	0x3dd036b1	0.101666816
73	0xbd64c59f	-0.05585253
74	0x3de95354	0.11392847
75	0xbe1a5734	-0.15072328
76	0x3c36c186	0.011154538
77	0xbc85d1a7	-0.016335322
78	0x3d8b257c	0.06794259
79	0x3d8eee94	0.06979099
80	0x3d04c26a	0.03241197
81	0xbcbb1504	-0.02283717
82	0xbd849ad7	-0.06474846
83	0x3c8fe0a0	0.017563164
84	0xbccd4be7	-0.025060607
85	0x3dffba58	0.12486714
86	0xbe01e20e	-0.1268389
87	0xbe11e31b	-0.1424679
88	0xbe0982a6	-0.13428745
89	0x3e1e24df	0.15443753
90	0x3e25284b	0.16128652
91	0xbe18dd95	-0.14928277
92	0xbd91d81f	-0.071213
93	0x3d7c5a60	0.061609626
94	0x3d960c6b	0.07326587
95	0x3dd9ad4e	0.10628758
96	0xbe524340	-0.20533466
97	0x3d5d0cdc	0.05396734
98	0xbdd70684	-0.1049929
99	0x3cc61892	0.024181638
100	0xbd7caf7a	-0.061690785
101	0xbe034371	-0.12818696
102	0xbd342834	-0.043983653
103	0x3dee1fb5	0.116271414
104	0x3e1f75a4	0.1557222
105	0x3e11f49b	0.14253466
106	0xbe3fcb21	-0.18729831
107	0xbda7cd8d	-0.081935026
108	0x3d08e1ed	0.033418585
109	0x3c340610	0.010987774
110	0x3df85437	0.12125438
111	0x3dd5cfd0	0.10440028
112	0x3df810d9	0.121125884
113	0xbe11c3c1	-0.1423483
114	0xbc9ac35e	-0.018891986
115	0xbc090fd4	-0.00836559
116	0x3d4cee60	0.05003202
117	0xbcb96169	-0.022629457
118	0xbd1fb2ea	-0.038988985
119	0xbd8cdca5	-0.06878022
120	0x3c885f76	0.016647082
121	0x3e09d2f3	0.13459377
122	0x3dea18ba	0.114304975
123	0xbc332285	-0.010933523
124	0xbd10dff2	-0.03536982
125	0x3c14da5c	0.009085264
126	0x3e109f38	0.14123237
127	0x3e136cf7	0.14397036
128	0x3cf4df3d	0.029891605
129	0xbd40d3ca	-0.047076978
130	0x3d27b75a	0.040946342
131	0xbdfbc21f	-0.12292885
132	0x3e538bdf	0.20658825
133	0xbda5740e	-0.08078776
134	0xbc8899d8	-0.01667492
135	0xbcf08e9a	-0.029364873
136	0x3e268042	0.16259864
137	0xbdc5483b	-0.096329175
138	0xbdd8b8b4	-0.10582104
139	0x3dad6d51	0.08468116
140	0x3e2bf1c3	0.16791444
141	0xbd4faa29	-0.050699387
142	0x3d82a14c	0.06378421
143	0x3e387043	0.18011574
144	0x3e260eaa	0.16216531
145	0xbd1ca90a	-0.038247146
146	0x3df39ae7	0.1189478
147	0x3d2d4d48	0.04231003
148	0xbd8184e5	-0.06324176
149	0xbd6b533a	-0.057452418
150	0x3dee1ef1	0.11626995
151	0x3c15d5ba	0.009145195
152	0x3ce88406	0.028383266
153	0xbbd27dc0	-0.006423682
154	0xbe152c83	-0.14567761
155	0xbda47032	-0.08029212
156	0x3dc3cbad	0.095603324
157	0xbc6f194f	-0.014593436
158	0x3c7c289b	0.0153905405
159	0x3e1b415b	0.1516165
160	0xbc73bca3	-0.0148765175
161	0x3d486cbf	0.048931833
162	0x3d4249c2	0.047433622
163	0xbcee213c	-0.029068582
164	0x3d84427a	0.06457992
165	0x3e2e490c	0.17020053
166	0x3e02b851	0.12765624
167	0x3e237dc8	0.1596595
168	0xbe2a802c	-0.16650456
169	0x3c58f750	0.013242558
170	0xbdf76cbf	-0.120812885
171	0x3e102490	0.14076447
172	0xbd7dff09	-0.0620108
173	0xbd76c101	-0.060242657
174	0x3e5cb599	0.21553649
175	0x3dc93961	0.09825397
176	0x3e0c2255	0.13684972
177	0x3d91311c	0.07089445
178	0x3defa791	0.11701883
179	0x3db07cb7	0.086175375
180	0xbde70b2d	-0.112814285
181	0x3e076e34	0.13225633
182	0xbcd34e2d	-0.025794113
183	0x3d9576c3	0.072980426
184	0x3ddb8b57	0.10719936
185	0xbe2f93a8	-0.1714617
186	0xbc71c400	-0.014756203
187	0xbdebdfea	-0.115173176
188	0x3ce0cf93	0.02744273
189	0x3e2db5f9	0.16963948
190	0x3e0782d1	0.13233496
191	0x3cd73338	0.02626954
192	0x3d83a422	0.0642779
193	0xbdf03d62	-0.11730458
194	0x3de68858	0.11256474
195	0xbe3d2b21	-0.18473484
196	0xbe40e855	-0.18838628
197	0xbe279fc7	-0.16369544
198	0x3db97d42	0.09057094
199	0x3d9f5e50	0.077816606
200	0x3dadad3d	0.08480308
201	0x3c88bc94	0.016691484
202	0xbe3bc084	-0.18335158
203	0xbdc0dff5	-0.094177164
204	0xbe145a60	-0.144876
205	0x3e1aa2e5	0.15101202
206	0x3dd6f2f9	0.10495562
207	0xbd93bd70	-0.07213867
208	0x3ddbb8e4	0.107286245
209	0x39b0d5b0	0.00033728546
210	0xbd20fa68	-0.039301306
211	0x3e22cc78	0.15898311
212	0x3af6dfdf	0.0018835029
213	0x3d367b8b	0.044551414
214	0x3e191de1	0.14952804
215	0xbdcbd197	-0.099520855
216	0x3d031764	0.03200473
217	0xbde9bc8f	-0.11412918
218	0x3d6dd50c	0.058064505
219	0x3d0f81a8	0.03503576
220	0xbe348b82	-0.17631343
221	0xbdac13ff	-0.084022515
222	0xbe37dcb0	-0.1795528
223	0x3dea06a6	0.11427049
224	0xbd057ea4	-0.032591477
225	0x3dcd95b8	0.10038322
226	0x3c61ed76	0.013789525
227	0xbdccf283	-0.10007193
228	0x3c5ce0da	0.013481343
229	0x3d834b96	0.06410901
230	0xbd8c1108	-0.06839186
231	0x3dd9a1e9	0.10626585
232	0x3dc9b541	0.098490246
233	0x3e4f5251	0.20246245
234	0x3dfa4f29	0.1222213
235	0x3d814952	0.06312813
236	0xbe22eedd	-0.15911432
237	0x3e40412c	0.18774861
238	0x3e41f46b	0.18940894
239	0x3e11c352	0.14234665
240	0xbd829c90	-0.06377518
241	0x3dd1469a	0.10218544
242	0x3dd06d56	0.10177104
243	0x3df546b2	0.11976375
244	0x3e4504a4	0.19240052
245	0xbc3ae97a	-0.011408204
246	0xbde95910	-0.113939404
247	0xbe073905	-0.13205345
248	0x3db00e39	0.08596463
249	0x3dda5fae	0.10662781
250	0xbdf0480e	-0.11732493
251	0xbd31f1e2	-0.043443568
252	0xbe25f02b	-0.16204898
253	0x3c9d5f53	0.019210493
254	0x3d566592	0.05234296
255	0x3d288bf0	0.04114908

encoder.layers.0.linear2.bias f4 [8]
0	0xbe10fa4b	-0.14157979
1	0x3dd43fd5	0.103637375
2	0xbe60aecb	-0.21941678
3	0x3d97eef8	0.074186265
4	0xbd967afd	-0.07347677
5	0x3cc0189f	0.02344924
6	0x3c696848	0.014246054
7	0x3d0a830b	0.03381638

encoder.layers.0.norm1.weight f4 [8]
0	0x3f7a7380	0.9783249
1	0x3f7c3ff4	0.98535085
2	0x3f746e8a	0.9548117
3	0x3f85a05c	1.0439563
4	0x3f854ae1	1.0413476
5	0x3f76c564	0.96394944
6	0x3f83fc1e	1.0311315
7	0x3f84cec8	1.0375605

encoder.layers.0.norm1.bias f4 [8]
0	0xbd253767	-0.04033604
1	0x3c5f9ea2	0.013648661
2	0xbd3c54c9	-0.045979295
3	0xbd2d7403	-0.042346966
4	0x3d277e9f	0.04089224
5	0x3d386966	0.04502239
6	0xbd07030e	-0.032961898
7	0x3d224e28	0.039625317

encoder.layers.0.norm2.weight f4 [8]
0	0x3f80c363	1.0059627
1	0x3f7b7160	0.9821987
2	0x3f7496e1	0.9554272
3	0x3f857188	1.0425272
4	0x3f8524bb	1.0401834
5	0x3f7b276f	0.98107046
6	0x3f82d3ab	1.0220846
7	0x3f851e44	1.0399861

encoder.layers.0.norm2.bias f4 [8]
0	0xbd23a0cc	-0.03994827
1	0x3c80ae46	0.0157081
2	0xbd38c993	-0.04511411
3	0xbd2957d9	-0.041343544
4	0x3d1e7d69	0.03869382
5	0x3d426e1b	0.047468286
6	0xbccce70e	-0.02501252
7	0x3d23cb08	0.039988548

encoder.layers.1.self_attn.in_proj_weight f4 [24, 8]
0	0xbe8e67b9	-0.2781351
1	0xbe757082	-0.239687
2	0x3e5ac693	0.21364813
3	0x3eac191c	0.33612907
4	0xbea21499	-0.3165634
5	0xbe0c8748	-0.1372348
6	0x3eb4301b	0.35192952
7	0x3ec28b1a	0.3799675
8	0xbe1abf71	-0.15112092
9	0xbed928c3	-0.4241391
10	0x3e8ac5a0	0.271039
11	0x3d93ddda	0.07220049
12	0x3e818a6a	0.25300914
13	0xbe2e5b4f	-0.17027019
14	0x3ec10d67	0.37705538
15	0xbe865479	-0.26236323
16	0xbe255f3b	-0.16149609
17	0xbe587175	-0.2113703
18	0x3caacbb1	0.02084908
19	0xbe0c5775	-0.13705237
20	0x3d9cb9ef	0.076526515
21	0xbe113e1d	-0.1418385
22	0xbd916095	-0.070985
23	0xbdf075fd	-0.117412545
24	0x3ec5f34f	0.38662192
25	0x3eba21c4	0.36353886
26	0x3e40efdc	0.18841499
27	0xbe870df1	-0.26377824
28	0x3eb19117	0.34681007
29	0xbc1314d4	-0.008977134
30	0x3df663d1	0.12030757
31	0x3cc93738	0.024562463
32	0x3c716e2e	0.014735742
33	0xbd43f1b0	-0.047837913
34	0xbe9dd219	-0.30824354
35	0x3ed7ac1c	0.42123497
36	0xbd4cd526	-0.05000796
37	0x3ed15207	0.40882894
38	0x3edbc3d3	0.4292284
39	0xbdf489fe	-0.119403824
40	0x3ec9035f	0.39260384
41	0xbe6d29d8	-0.23160493
42	0xbeb0bf43	-0.3452092
43	0xbe376dc0	-0.1791296
44	0xbd41c6ca	-0.04730872
45	0x3e21c8d4	0.15799266
46	0x3e902574	0.28153574
47	0xbc873673	-0.016505456
48	0x3e1d8256	0.1538175
49	0x3e4cff7f	0.20019339
50	0x3ec204b6	0.3789422
51	0xbe935861	-0.28778365
52	0x3e8e43ed	0.27786198
53	0xbe261dbe	-0.16222283
54	0x3d3080a2	0.043091424
55	0xbe1dfa0a	-0.15427414
56	0x3eba5028	0.3638928
57	0x3dfc2826	0.12312345
58	0xbed000cc	-0.40625608
59	0x3e1aa7ee	0.15103123
60	0xbe55e2eb	-0.20887344
61	0xbd63e9b2	-0.05564279
62	0xbe6a1e97	-0.22863232
63	0x3e887799	0.26653746
64	0x3e72ad72	0.23698977
65	0x3eced8b8	0.40399718
66	0x3e9e2123	0.30884656
67	0xbcc9eef5	-0.024650076
68	0x3c71643c	0.01473337
69	0x3e7384c4	0.23781115
70	0x3e91df08	0.28490472
71	0x3dfd890b	0.123796545
72	0x3ed647ed	0.4185175
73	0xbeb2144a	-0.34781104
74	0x3ea0e4f9	0.31424692
75	0x3d37f482	0.044910915
76	0xbe88a9b1	-0.26691964
77	0xbe28ebbb	-0.16496174
78	0xbe249fa3	-0.16076522
79	0x3ea5c7c2	0.32378966
80	0x3e5e6665	0.21718748
81	0x3e3f43a7	0.18678151
82	0x3dd78ede	0.10525297
83	0xbeac167d	-0.33610907
84	0x3e802b4e	0.2503304
85	0xbd69c78b	-0.057075065
86	0xbe989ee9	-0.2980874
87	0x3e368ce5	0.17827184
88	0x3ec4d068	0.3844025
89	0xbe796ba6	-0.24357471
90	0xbe5c4c88	-0.2151357
91	0x3e0f76be	0.1401014
92	0xbe0b78c5	-0.13620289
93	0x3eb4109c	0.35168922
94	0x3ec3f4ee	0.38272804
95	0x3e2237f2	0.15841654
96	0x3e19dfa7	0.15026723
97	0x3dadbcfa	0.0848331
98	0xbe8f4a72	-0.27986485
99	0xbaacd998	-0.0013187407
100	0xbe53ff38	-0.20702827
101	0x3d3fa7e2	0.046790965
102	0x3ec82dc4	0.39097416
103	0x3e25d7d3	0.16195612
104	0xbe857be0	-0.26071072
105	0xbece2461	-0.4026213
106	0x3edc5d6a	0.4304002
107	0xbea553dc	-0.32290542
108	0x3dcbaa04	0.09944537
109	0x3ca9798f	0.020687846
110	0x3e4294c0	0.19002056
111	0xbdf090e7	-0.11746388
112	0xbd98f78a	-0.07469089
113	0x3ec292ac	0.38002527
114	0xbe8924a6	-0.26785773
115	0xbe713a11	-0.23557307
116	0x3ecb4638	0.3970201
117	0x3e65b0c2	0.22430709
118	0xbec7890f	-0.38971755
119	0xbe07a767	-0.13247453
120	0x3e30d41e	0.17268416
121	0x3e36073c	0.17776197
122	0x3ecd5785	0.40105835
123	0x3ea74bdc	0.32675064
124	0xbdc6f5df	-0.09714865
125	0xbe3d965e	-0.18514392
126	0x3e991bcb	0.29904017
127	0x3e755a85	0.23960312
128	0xbb9d4fbd	-0.0048007653
129	0x3e9bebb4	0.30453265
130	0x3e837ad8	0.2567966
131	0x3e582f10	0.21111703
132	0x3e071f14	0.13195449
133	0x3e967bcf	0.29391333
134	0xbe353f09	-0.17699827
135	0xbeec9f2c	-0.46215189
136	0xbe9a7968	-0.3017075
137	0x3e982463	0.2971526
138	0x3e0a3f40	0.1350069
139	0x3d88530b	0.06656464
140	0x3eb0d929	0.3454068
141	0x3eae7caa	0.34079486
142	0xbe8f7eef	-0.2802653
143	0xbeb796b3	-0.35857162
144	0x3d13d843	0.036094915
145	0xbeeb45bc	-0.4595164
146	0xbeab7dbf	-0.33494374
147	0x3e45fcea	0.1933476
148	0x3eab8ece	0.3350739
149	0x3ec5ab3c	0.38607204
150	0xbe7f60e6	-0.24939308
151	0x3e633d76	0.22191414
152	0x3e57675f	0.21035527
153	0xbea5d4dd	-0.32388964
154	0x3e9ac3e5	0.3022758
155	0x3dfa8985	0.12233261
156	0xbe862208	-0.2619784
157	0x3e01b982	0.12668422
158	0x3e910cbb	0.28330025
159	0x3ec4a930	0.3841033
160	0xbe9e9dab	-0.30979666
161	0x3e41379f	0.18868874
162	0x3e0268f6	0.12735352
163	0xbe20b83a	-0.15695277
164	0x3eb86c16	0.36019963
165	0x3e7ffdd8	0.24999177
166	0x3e4e0686	0.20119676
167	0xbe2c7a39	-0.16843499
168	0x3e53abb3	0.20670967
169	0x3edd2756	0.43194073
170	0x3eb228af	0.34796664
171	0xbe9e72de	-0.30947012
172	0x3e0e1b66	0.13877639
173	0xbe4d0549	-0.20021547
174	0xbda1e038	-0.079040945
175	0xbec59141	-0.38587382
176	0x3ed07769	0.40716103
177	0xbc1ab1ff	-0.009441852
178	0xbe92e06e	-0.2868685
179	0x3ec13abb	0.3774012
180	0x3ddb2f23	0.1070235
181	0xbdc63af5	-0.09679214
182	0x3d435572	0.04768891
183	0x3d688bf9	0.056774113
184	0x3ea512ee	0.32241005
185	0xbeb83bdb	-0.35983166
186	0xbeb444fc	-0.3520888
187	0x3e273761	0.16329719
188	0xbe52b1cb	-0.20575635
189	0xbe4d1542	-0.2002764
190	0x3e4d4473	0.20045643
191	0x3e389f06	0.18029413

encoder.layers.1.self_attn.in_proj_bias f4 [24]
0	0xbb8188fa	-0.0039530965
1	0x3c00c822	0.007860215
2	0xb90d0f60	-0.00013452535
3	0x3bfd5ea0	0.0077322274
4	0xba7682d7	-0.0009403652
5	0x3baf2cf1	0.0053459336
6	0x3b7ec990	0.0038877465
7	0xbb322842	-0.002718464
8	0xb055bdef	-7.775886e-10
9	0x34cb6275	3.7883333e-07
10	0x34a0c320	2.9944295e-07
11	0x3428001d	1.564626e-07
12	0xb48427bc	-2.4615827e-07
13	0xb2f62b59	-2.8657881e-08
14	0x340c9dbe	1.3095902e-07
15	0xb41d20c7	-1.4633689e-07
16	0xbd2da340	-0.042392015
17	0xbd0ee131	-0.034882728
18	0x3d328399	0.043582533
19	0xbd095a95	-0.03353365
20	0x3d22f6b2	0.03978605
21	0xbc12a3ee	-0.008950217
22	0xbcc3a631	-0.023882957
23	0xbd2a5799	-0.041587446

encoder.layers.1.self_attn.out_proj.weight f4 [8, 8]
0	0x3da74c98	0.08168906
1	0x3e208607	0.15676127
2	0xbeb1d700	-0.34734344
3	0xbe0f5e07	-0.14000712
4	0x3d9c6dcb	0.07638129
5	0xbe3a4e52	-0.1819394
6	0x3d8fff11	0.07031072
7	0xbe05a85f	-0.1305251
8	0xbe5dd392	-0.21662739
9	0xbabf5960	-0.0014598779
10	0x3cb6b91a	0.02230506
11	0xbddf4c7a	-0.109032586
12	0x3e1bfad5	0.15232404
13	0xbe5942df	-0.21216916
14	0xbdf48db1	-0.11941088
15	0xbdd29356	-0.10282008
16	0x3e5e41b0	0.21704745
17	0x3dc497fa	0.095993
18	0x3d70b93d	0.058770407
19	0xbe0d49e0	-0.13797712
20	0xbe9b7938	-0.3036592
21	0x3d8463ee	0.064643726
22	0x3d76f802	0.060295112
23	0x3e799748	0.24374115
24	0x3e4053dd	0.18781991
25	0x3e292cee	0.16521046
26	0xbe3ee6cc	-0.1864273
27	0x3c793e13	0.015212554
28	0x3da179db	0.0788457
29	0xbea0d97f	-0.31415936
30	0x3d5f528f	0.054522093
31	0x3e0cad79	0.1373805
32	0xbdec20e3	-0.1152971
33	0x3e93c68a	0.2886241
34	0x3e443b3a	0.19163218
35	0x3e016d05	0.12639244
36	0xbe7e5ef3	-0.24840908
37	0xbd97caf6	-0.074117586
38	0x3d6b4c87	0.05744603
39	0x3e34d8ad	0.1766078
40	0xbd68c980	-0.05683279
41	0xbe07abfc	-0.132492
42	0x3eb4f83f	0.35345647
43	0xbe475aad	-0.19468184
44	0x3dbdc4d2	0.09266056
45	0xbeb528ae	-0.353826
46	0xbe4e5207	-0.20148478
47	0x3a8702fa	0.001030057
48	0xbe366a89	-0.17814077
49	0xbd123b7b	-0.035701256
50	0x3e95cba2	0.29256922
51	0x3bda4624	0.0066611934
52	0x3e8375fc	0.25675952
53	0xbe5345a1	-0.2063203
54	0xbe74e30d	-0.23914738
55	0xbe9cbf06	-0.3061449
56	0x3e17f843	0.14840798
57	0x3e8501f6	0.2597806
58	0x3e81c6fa	0.2534712
59	0x3e114043	0.1418467
60	0xbd4c6038	-0.04989645
61	0x3e3458ab	0.17611949
62	0x3e3f0bf1	0.18656899
63	0x3e38e10e	0.18054602

encoder.layers.1.self_attn.out_proj.bias f4 [8]
0	0xbd23f02a	-0.04002396
1	0x3cf69b13	0.030103242
2	0xbd3aad3d	-0.04557537
3	0xbd1bf98f	-0.038079794
4	0x3d216899	0.039406393
5	0x3d449665	0.04799499
6	0xbd0b53b2	-0.034015365
7	0x3c873a6b	0.016507348

encoder.layers.1.linear1.weight f4 [32, 8]
0	0x3e76b982	0.24094203
1	0xbe07a056	-0.13244757
2	0x3e842845	0.25811973
3	0xbe00d117	-0.12579761
4	0x3d8eca27	0.06972151
5	0xbd2a848b	-0.04163031
6	0x3cbb1e1d	0.022841508
7	0x3de5e6f6	0.11225693
8	0x3e9e3638	0.3090074
9	0x3dcf31e7	0.1011694
10	0x3e408531	0.18800808
11	0xbd878199	-0.06616516
12	0x3de8a9ab	0.113604866
13	0x3ea795d4	0.32731497
14	0x3eb2348c	0.34805715
15	0x3e8134b4	0.25235522
16	0x3d8dce08	0.06924063
17	0x3e2e094a	0.16995731
18	0x3e9e1ea9	0.30882767
19	0x3d9dfa8c	0.07713804
20	0x3d9eb6ed	0.07749734
21	0xbd859011	-0.06521619
22	0xbd666be7	-0.056255247
23	0x3d1e56aa	0.038656868
24	0x3e607d60	0.21922827
25	0xbe819aca	-0.25313407
26	0x3e2f7544	0.17134577
27	0x3dfbd81a	0.122970775
28	0x3dfd45a4	0.123667985
29	0x3e705271	0.23468949
30	0x3d42c888	0.047554523
31	0xbebc49c2	-0.36775023
32	0x3e8e56c7	0.2780058
33	0xbec01dca	-0.37522727
34	0xbe841887	-0.25799963
35	0xbe20c8cb	-0.15701596
36	0x3ea0eeb4	0.31432116
37	0x3e95659b	0.2917908
38	0x3db2d78b	0.08732518
39	0xbea26297	-0.31715843
40	0xbe92fd5a	-0.28708917
41	0xbe9fb6d5	-0.31194177
42	0xbe6ef0cf	-0.23334049
43	0xbd928f6e	-0.07156263
44	0xbe52f3d4	-0.20600826
45	0xbea86680	-0.328907
46	0xbe0c19e8	-0.13681757
47	0x3d1b4741	0.03790975
48	0x3e191912	0.1495097
49	0x3eafaca3	0.343114
50	0x3dda99c8	0.10673863
51	0x3e9728c3	0.29523286
52	0x3e6a37c6	0.22872838
53	0x3e4467f6	0.19180283
54	0x3e7ccc7e	0.24687383
55	0xbdd54882	-0.104142204
56	0xbe8f5802	-0.27996832
57	0xbe17b73e	-0.14815995
58	0xbded88d4	-0.115983635
59	0xbe00df00	-0.12585068
60	0x3eb2d1b2	0.3492561
61	0xbea7596e	-0.32685417
62	0xbe788214	-0.24268371
63	0xbe41dae4	-0.18931156
64	0xbe6b3a1f	-0.2297139
65	0x3e51ed01	0.20500566
66	0xbda71f84	-0.08160308
67	0xbdbc201e	-0.09185813
68	0xbe0dfa27	-0.13864957
69	0xbeafe923	-0.34357557
70	0xbe9c0453	-0.3047205
71	0xbe0e0b3e	-0.13871476
72	0x3c9e5e27	0.019332005
73	0xbe1b573c	-0.15169996
74	0x3e93a045	0.28833213
75	0xbc876134	-0.016525842
76	0xbe9de7e1	-0.30840972
77	0x3e76deee	0.24108478
78	0x3d157a50	0.0364936
79	0xbe87cbd1	-0.26522687
80	0x3e4861ae	0.19568512
81	0xbd1c74a0	-0.03819716
82	0x3e367ccd	0.17821045
83	0xbe98f7b7	-0.2987649
84	0x3e29272d	0.1651885
85	0x3dbc29cc	0.091876596
86	0x3e7054e7	0.23469888
87	0xbdaace45	-0.08340124
88	0x3e989351	0.29799893
89	0x3e5c6ac6	0.21525106
90	0xbe7f98dc	-0.24960655
91	0xbe0eca91	-0.1394446
92	0x3ea36988	0.3191645
93	0x3d5c6400	0.053806305
94	0xbe604199	-0.21900024
95	0xbe8a7e33	-0.27049407
96	0x3ea0ce45	0.3140737
97	0x3e9a6c06	0.3016054
98	0x3e2a178a	0.16610542
99	0x3eb233ca	0.34805137
100	0xbe0571a6	-0.13031635
101	0xbeac9ef1	-0.33715013
102	0xbe068ead	-0.13140364
103	0xbdf84434	-0.12122384
104	0x3e75d216	0.24005923
105	0x3e2c43e6	0.16822776
106	0x3e261af5	0.16221221
107	0x3e87755b	0.26456723
108	0x3e900866	0.28131407
109	0x3c76ec04	0.015070919
110	0xbe30645b	-0.17225783
111	0x3c5d9487	0.013524181
112	0xbe4ba404	-0.19886786
113	0xbc35b6d5	-0.011090954
114	0x3e9a4139	0.30127886
115	0x3e684524	0.22682625
116	0xbddeae6b	-0.10873111
117	0xbeae6cbf	-0.34067342
118	0xbeb0460b	-0.3442844
119	0x3e2787d7	0.16360413
120	0xbe69f580	-0.22847557
121	0x3dfc9157	0.12332409
122	0x3e818bd8	0.25302005
123	0xbe58ada5	-0.2115999
124	0x3d7afccb	0.06127624
125	0x3e8660f1	0.26245835
126	0x3e73ba87	0.23801623
127	0x3ea8cb5b	0.32967648
128	0x3e9f6736	0.3113343
129	0xbe78cd49	-0.2429706
130	0xbdcaf257	-0.09909504
131	0x3eb320c4	0.34985936
132	0x3d2007b0	0.03906983
133	0xbe003544	-0.12520319
134	0x3ca1185c	0.019664936
135	0xbeac350f	-0.3363423
136	0x3e6b3be6	0.22972068
137	0x3baad6f8	0.0052136146
138	0x3dae9d8f	0.08526146
139	0x3d7de639	0.061987136
140	0x3d8c7f86	0.06860261
141	0xbe703270	-0.2345674
142	0xbe543b17	-0.20725666
143	0x3b58fa99	0.0033108352
144	0xbe7575b1	-0.23970677
145	0x3c3d9929	0.011572161
146	0xbe08ca9d	-0.13358541
147	0x3cc872e2	0.024468843
148	0x3ea568e5	0.3230659
149	0xbc4100e8	-0.011780001
150	0xbea41379	-0.32046106
151	0x3e3a17cf	0.18173145
152	0x3e8703f5	0.26370206
153	0x3e33af31	0.17547299
154	0x3e85f993	0.26166973
155	0xbe463620	-0.19356585
156	0xbe123a60	-0.14280081
157	0xbeacd02f	-0.3375258
158	0x3bf642a6	0.0075152693
159	0xbe95c516	-0.29251927
160	0xbd8b28a3	-0.0679486
161	0x3e82c484	0.25540555
162	0x3ea16a1d	0.3152627
163	0xbd628fbe	-0.055312864
164	0x3e5da8f0	0.21646476
165	0x3e201fcd	0.15637131
166	0xbea19606	-0.3155977
167	0x3e31eafb	0.17374794
168	0xbe6060f0	-0.21911979
169	0xbdfe0563	-0.12403371
170	0xbead76a4	-0.33879578
171	0xbe51461c	-0.20436901
172	0x3e547c17	0.20750462
173	0x3ca3cd31	0.019995304
174	0x3d376504	0.04477407
175	0xbe25e32e	-0.16199943
176	0xbdd9d91e	-0.10637115
177	0x3d8bc812	0.0682527
178	0xbcd2a9c6	-0.02571572
179	0x3d8cd876	0.06877224
180	0x3e829873	0.25506935
181	0xbdafce80	-0.085843086
182	0x3e72b134	0.2370041
183	0xbe5732d1	-0.21015479
184	0x3e83f3c8	0.25771928
185	0x3d432a80	0.047647953
186	0x3e0c9f16	0.13732561
187	0xbea14ded	-0.31504765
188	0xbe9d9349	-0.30776432
189	0xbe3568d1	-0.17715766
190	0x3dc6b36d	0.097021915
191	0xbe9bc97f	-0.30427167
192	0x3ac2d730	0.0014865156
193	0x3d1f75f6	0.038930856
194	0xbea98341	-0.3310795
195	0xbdd3382a	-0.10313447
196	0x3dd11dff	0.102107994
197	0xbd5da567	-0.054112818
198	0xbd02120c	-0.031755492
199	0xbe240359	-0.16016902
200	0xbe74f353	-0.23920946
201	0x3df17051	0.11789001
202	0xbd57af39	-0.05265734
203	0x3e7ec648	0.24880326
204	0x3d51de2d	0.051237274
205	0x3e7463fc	0.23866266
206	0x3e1a163e	0.15047547
207	0xbe51b5de	-0.20479533
208	0xbe7434cd	-0.23848267
209	0x3cb8894f	0.022526411
210	0xbea948c8	-0.3306334
211	0xbce92111	-0.02845815
212	0xbe16849c	-0.14699024
213	0xbdb887ca	-0.09010275
214	0x3e6afa71	0.22947098
215	0x3e3d2cb8	0.1847409
216	0xbe369708	-0.17831051
217	0x3a84f801	0.0010144712
218	0x3d0cccff	0.034375187
219	0xbe35fd44	-0.17772394
220	0xbde93a08	-0.11388022
221	0x3e06863b	0.13137142
222	0xbdf90820	-0.12159753
223	0xbe0ccf9e	-0.13751075
224	0x3e611c44	0.21983439
225	0xbe50f2e7	-0.2040516
226	0xbdc1854b	-0.09449252
227	0xbc0189aa	-0.007906357
228	0xbd9cbba4	-0.07652977
229	0x3c8485ff	0.016177176
230	0x3e914978	0.28376365
231	0x3eb68cf1	0.35654405
232	0xbe99f9d8	-0.30073428
233	0x3ba97896	0.0051718457
234	0xbe901b45	-0.28145805
235	0xbdc3f68a	-0.09568508
236	0x3e1ab217	0.15106998
237	0xbe9708aa	-0.29498798
238	0x3dab0456	0.083504364
239	0xbd81716d	-0.063204624
240	0x3eaa508c	0.33264577
241	0x3e878044	0.26465046
242	0x3e9ef9c3	0.31049928
243	0xbddab108	-0.10678297
244	0x3ddf2a97	0.10896795
245	0xbe585742	-0.21127036
246	0x3eab59fb	0.33467087
247	0xbe9d8516	-0.307656
248	0x3d178c40	0.036998987
249	0xbd8c5d60	-0.06853747
250	0xbdb15ecc	-0.08660659
251	0x3ea0c139	0.31397417
252	0xbea32a6f	-0.31868312
253	0xbe5c352c	-0.21504658
254	0xbd84c4a8	-0.06482822
255	0xbe4abd68	-0.19798815
