models/ts_views_models/ts-v16.ckpt (torch, 330768 bytes, 201 tensors)

input_pos_embedding.weight f4 [1024, 8]
00000000: 5b49 63bf 5451 e73d 9747 383c 21e9 60be
00000010: 8a00 3e3f d4d2 f63e 1c58 933d aaf3 193f
00000020: c854 07c0 e135 d23e 0ac6 c5bf 4982 4a3f
00000030: 21e7 f03e beb7 93bf 8173 f73d fd40 f93f
00000040: f847 e6be a104 d63f 5950 e23d ba67 1e3f
00000050: 20a7 a93e eb3b a33f 8f9f 503d e1e2 97be
00000060: f0ab 90bf 1475 6bbe 997e 623f 63ea 833e
00000070: 42f6 e8bf 0456 0740 4dcf b13e 2c1f 13bf
00000080: f1d3 36bf 3caa 5f3f 8327 87bf 3314 323f
00000090: d697 3b3f 2ba1 063e 7d4c 5abf 6a3d b5be
000000a0: 4f11 93bf 137a 6ebf b730 073e 2149 2bbe
000000b0: 8a14 f1bd 5403 edbe 3d87 af3f 1079 463f
000000c0: 9520 70be a85b 8a3f 5ee2 273f a2e9 20bf
000000d0: acf3 31bf 594e 963f 2b08 323d dbf4 1fbf
000000e0: afa8 943f b34d 00c0 37bc af3e db81 753f
000000f0: 6252 113f 26b7 96bf 283e a7be 152f 41bf
00000100: d338 71be a6bf c6bf 5088 14bf 9bcb 5a3f
00000110: d0be 023f add6 2c3f 0f1b d9bd 6ec4 c53d
00000120: be59 83be 3ae5 15bf d6f9 2bc0 c525 183d
00000130: cc2e 4abf c64b 1b3e 30b3 153d 1f7c 83be
00000140: 6cff 163f 4f7f d4be 9bab e9be 39ba d23e
00000150: 4a3d 1a3f 0f89 423d e6d7 3abc 410f 823f
00000160: d56f 533f 9abb e5be 6c16 383f f3f7 b8be
00000170: 550c 02be 49ec 57bf 8c48 793f 9177 30be
00000180: 2c3f 62bf d329 7cbf 9aec 16bf db1a 5a3e
00000190: b892 5cbf 2d9f a0bf ff54 9c3f d198 a1bd
000001a0: ef48 8d3e f76f e9be b433 88bf a34d fcbd
000001b0: 30ed 4cbe a125 7d3f e366 06bf ca29 5dbe
000001c0: 5490 d8bf 0c16 f4be 7a6c e3be d82d 92bf
000001d0: 9dbb d83d c538 ce3e aa8b 1a3f 2543 8fbf
000001e0: 700e f8be edb2 25bf bab9 5f3e 59b7 6bbd
000001f0: 8ed3 be3d 6de4 cf3d 25bb efbf 7cda 483f
00000200: 2bbb 61bf 8bc7 623f cf87 013f 7f0e 73bc
00000210: 3273 6a3d 869e b9be b739 aebf 0c9c 5ebf
00000220: 99cf 563e 79a3 1840 433d 00bf f253 9b3f
00000230: 2950 9c3f a503 9dbe 397e 433f 1ae9 f8be
00000240: 925f da3e 180b 1b3e 13dc 42bd faf9 7a3f
00000250: 8445 52bf 5807 83be cd35 02bf 64ca 7cbf
00000260: bbbf c8bf daf1 333f a85d a3bf 11f3 f93f
00000270: bda2 8c3e 4207 493f 5e95 513e 5ac1 463c
00000280: 900c c2bf 97bf 463e 12b8 383e 0e2f 8e3e
00000290: a2a9 25bf 901d 223f 3cdc 053f 864b a5be
000002a0: 0553 09bf 0161 abbb 1c64 b63e c278 0fbf
000002b0: 3de0 133f dcbe 95be d81c 0540 353f 54bf
000002c0: d9ca a23e 7ab9 3c3f 4449 1c3e 5ce2 9f3f
000002d0: 478e 803e 96f1 98bf 04e7 873e 642c 7ebd
000002e0: bdc3 e93e 1c32 d5bf 6fe1 1dc0 30db b23e
000002f0: 4a33 403f 5f02 863f 4867 d6be 9373 8ebe
00000300: b17a ee3c afe9 ddbe 170b 0c40 4ca8 80bf
00000310: 7870 92be 92cc 4cbf 15f5 d8be c773 ee3f
00000320: 474a c6bf c859 673e f2b9 e4bf 457f cf3d
00000330: 71b3 e6bf 4c52 093f 7769 51bf b972 bcbe
00000340: 50cb 463f ffd1 57bf 80da b9bf 758c 603f
00000350: 438f 35be 0de0 443f da1d 0bc0 e370 063f
00000360: 5ac7 62be b112 e03f f7ce 53be 9bd2 c93e
00000370: e1a4 2940 0923 febf cd13 e43e 5305 cc3e
00000380: 72e4 babe 78f1 163e dede 26bd 8d2b fbbe
00000390: c51a 8c3f 0b82 69bf a96b c03e 0de5 66be
000003a0: 4982 4abf cc18 473e 46c4 0e40 39d7 91bf
000003b0: d831 a1bf ca05 68be d4c9 23bd 7d4e a7bf
000003c0: 999b b7bd 53d2 a0be 1a07 903f 383e ca3f
000003d0: 68cc 95bf a480 a3bf fb81 d13e cb77 933f
000003e0: 18e5 66bf b7ab 6f3f af8c 423f b146 133d
000003f0: 7bf4 933e fa7c 353f 05b2 60be 88a2 e8be
-0.88783807 0.11294809 0.011247537 -0.21963932 0.7421957 0.48207724 0.0719454 0.60137427
-2.1145496 0.4105673 -1.5451062 0.7910505 0.47051337 -1.1540449 0.120825775 1.9472958
-0.44976783 1.6720163 0.11050481 0.61877024 0.3313532 1.275266 0.050933417 -0.29665282
-1.1302471 -0.2299388 0.8847442 0.2576476 -1.8200152 2.114625 0.3472847 -0.5746944
-0.71417147 0.8736913 -1.0558933 0.6956207 0.7327856 0.13147418 -0.8527296 -0.35398418
-1.1489657 -0.9315502 0.13202177 -0.16727115 -0.11771496 -0.46291602 1.3713146 0.77528477
-0.23449929 1.0809221 0.65579784 -0.62856495 -0.6951244 1.174266 0.04346482 -0.62482995
1.1613978 -2.0047424 0.34323284 0.9590127 0.5676633 -1.1774642 -0.3266461 -0.75462466
-0.23556833 -1.5527236 -0.58020496 0.8546693 0.51072407 0.6751507 -0.10600864 0.096566066
-0.25654405 -0.58552897 -2.6871238 0.037145395 -0.78977656 0.15165624 0.03654784 -0.25680634
0.5898349 -0.4150338 -0.45638737 0.41157702 0.6024977 0.04749399 -0.011404013 1.0160905
0.8259252 -0.4486969 0.71909213 -0.3612667 -0.12700017 -0.8434492 0.9737632 -0.17233111
-0.8837764 -0.9850132 -0.58954775 0.21299307 -0.86161375 -1.2548577 1.2213439 -0.078904755
0.27594706 -0.45593235 -1.0640779 -0.123194955 -0.20012355 0.9888554 -0.5250074 -0.21597973
-1.6919045 -0.4767307 -0.444187 -1.142024 0.105826594 0.40277687 0.6036936 -1.1192366
-0.48448515 -0.64726144 0.21848193 -0.0575479 0.093176946 0.10150991 -1.8728987 0.7845838
-0.8817622 0.8858573 0.5059785 -0.014834999 0.057238765 -0.36253756 -1.3611363 -0.8695686
0.2097763 2.3849776 -0.5009348 1.2134993 1.2211963 -0.30666843 0.76364475 -0.48615342
0.4265104 0.1514095 -0.04757316 0.98037684 -0.8213732 -0.2559154 -0.50863343 -0.98746324
-1.5683511 0.7029091 -1.2762957 1.9527303 0.2746791 0.785267 0.20467135 0.01213106
-1.5160084 0.19409023 0.18038967 0.27770275 -0.64711964 0.6332636 0.52289176 -0.32284182
-0.536423 -0.0052300696 0.35623252 -0.56043637 0.57764035 -0.29247177 2.0798855 -0.82908946
0.31795385 0.73720515 0.15262324 1.2490954 0.2510855 -1.1948726 0.26543438 -0.062054053
0.4565715 -1.6655917 -2.4668844 0.34932852 0.7507826 1.0469474 -0.41875672 -0.2782255
0.029111238 -0.4334235 2.1881769 -1.005136 -0.28601432 -0.7999965 -0.42374483 1.8629082
-1.5491418 0.22592843 -1.7869246 0.101316966 -1.8023511 0.536412 -0.8180155 -0.36806276
0.7765398 -0.84304804 -1.4519806 0.8771432 -0.17730431 0.76904374 -2.173697 0.52516
-0.22146359 1.7505704 -0.2068442 0.39418492 2.6506884 -1.9854442 0.44546357 0.39847812
-0.36502415 0.1474055 -0.040739886 -0.49056664 1.094567 -0.91214055 0.37582138 -0.22548313
-0.7910505 0.19443053 2.2307296 -1.1393806 -1.2593336 -0.22658458 -0.0399874 -1.3070828
-0.08965225 -0.31410465 1.1252167 1.5800238 -1.1703005 -1.2773633 0.4091948 1.1520933
-0.9019332 0.9362139 0.75995916 0.03595609 0.2889746 0.70893824 -0.21942909 -0.45436502

target_pos_embedding.weight f4 [1024, 8]
00000000: d603 a43f d4e8 103d c201 383f 5f55 193f
00000010: 2b10 47bf bcfc 2dbf bec3 36bd 7ada 8cbf
00000020: ae73 60bf 04c7 1e3d 7c8a e8bb d31e 3ebd
00000030: dc4f b9bf f22f 823e d3d8 b23e c77a acbf
00000040: 130e e53f ac52 843e 8181 54bf 5834 2fbd
00000050: f7b1 4cbf 461a 85be 11bf 843e e679 6a3f
00000060: 1e0a e0be 16f2 6b3f b0de bf3d 955a a93f
00000070: dfd1 39bf bc58 58bf 748c 683e 9023 b83f
00000080: a810 35be 60b7 853f 6aef 91be bf44 0abe
00000090: fd5d 0240 affb 523e 4df0 a03f c26c 89bd
000000a0: 16e0 883f ba54 08bf cb7f f9bc 4ec3 28bf
000000b0: 6c68 0f3f f0d5 eb3e f8c9 e13f c807 3bbe
000000c0: 3723 7fbf 14cf 333f 1d2c 97be 9ba3 87bf
000000d0: 7417 1bbc 2cc0 a43f ca97 ebbe f136 2d3e
000000e0: a9d4 55bf 4db4 453e b6bc 033e 3fce 4c3f
000000f0: 37e4 b13e 22cb 513d a669 7d3e 24f9 c4be
00000100: 510f a5bf 2939 a3bf a8ab b0bd 7b97 de3e
00000110: f2bf 13bf 33b5 2ebe f9c1 bd3f dd9a 813f
00000120: 8281 eb3f d471 68be 9a35 dc3f c9c2 17bf
00000130: 68c1 1d3f a6e4 0e40 feeb 0b40 c369 2d3f
00000140: 8a4c 2e3f b689 2c3f a54d 573f b5c1 e43f
00000150: 30ba 513f 8215 833f 7867 b0bf c3c6 b5be
00000160: 1290 dd3e b1a2 113f c6e6 803c 7a91 d23d
00000170: 7323 ecbe 4409 bd3f 7589 5a3e 7798 823f
00000180: 7650 0bc0 eee3 523f 5b74 5abe 6554 4abf
00000190: a175 9b3e 7d8e 3c3f 04dd b3bf ffa7 cb3e
000001a0: e387 12bd adc9 943f 9e0f 3c3f b6c6 2ebf
000001b0: 313f 4bbf 5b5f 393f 0530 95bf f526 4ebf
000001c0: 6f47 c7be a867 5cbf 42e5 b7be 90b7 df3e
000001d0: 4b1c d43e 8119 813f 5303 e43d ca6e 913f
000001e0: 14db 58bf 8341 713c cb65 fcbb f9db 1bbf
000001f0: 57d0 933e a4fe be3d 10c9 093e a27a a4bf
00000200: 7b01 943e 00d1 07c0 face 9cbf ba75 91bf
00000210: 7d87 2fbd 37f5 1bbe cf1d 1dc0 ef28 adbe
00000220: c9e5 3b3f 521c 973f 9a9b 86be a912 1d3d
00000230: 0e2a 393f f4f2 93bd d066 d33e 70e5 a1be
00000240: 8d63 10c0 ba5d 883d 9c98 11be 01f7 d33e
00000250: b78a 26bf 384a 1bbf ec6c 4e3f 886e 93be
00000260: 4eb3 97bf d14d e8bf 651e 11bf 9fa9 ab3f
00000270: a87a de3e 8a42 2e40 0e7f d33e e5c9 b83e
00000280: 2ea0 1bbf 8ad9 a6bf 50ec 3a3f 82e5 d5be
00000290: f631 a33f 0a54 3d3e 9471 8fbf d494 82bf
000002a0: dc1b a1bf 3cb5 663f eb14 d63d 4f33 373f
000002b0: cbac 473f 7c43 8fbe f110 513f c18c be3f
000002c0: 0f8c 7a3f 0d1b 553e fb5c ea3e 967e 06c0
000002d0: fda3 02bf b7a2 a03f 68aa 273e c95a d03f
000002e0: 1a14 90bd e0eb dc3f 13ca 40be 400c ccbf
000002f0: a306 2d3f 1c70 083e 0082 8cbf 337f 803d
00000300: 81b0 903f fb3f 08c0 0e9c cbbe a4d2 78be
00000310: 5c20 69be 3d77 b0bf aff1 823f fac6 803e
00000320: 2dd5 4dbd 3166 113e f9c9 883f 471c b33f
00000330: 6778 e3be 30a9 17c0 5cb4 8e3f 88bc fdbe
00000340: edf0 8b3d dd71 7d3f a5ae 81bf 0b0e 23bf
00000350: ab9d 01bf 35b8 063e 063a e23f b843 f4bf
00000360: 8ed6 f03e bda3 8f3f b494 cebe cc38 273f
00000370: 7197 ec3e 3d27 38be 3b91 ddbd 135b 873f
00000380: 48ad 203e 79f6 6cbf f143 123f bcac ecbf
00000390: f3b7 96bd f1a4 193f 4c3d 173f 8fc4 15bf
000003a0: 8364 d03e 466a bf3d e991 dbbf 205a 5c3f
000003b0: 1199 053f bc5e a9be 6091 553f 5b79 903f
000003c0: 09b6 a5bf e3bf 033f ae0d 9d3f 72b2 d938
000003d0: 0dbb 09c0 b468 893d 1e36 5d3d ec50 0dbf
000003e0: b0da 12bf aa7d 31bf d074 603e 4eff 1c3e
000003f0: 2c55 83bd d10c 35bf f1a6 ed3b f295 f8be
1.2813671 0.035378292 0.7187768 0.5989589 -0.77759045 -0.6796377 -0.044620268 -1.1004174
-0.87676513 0.038764015 -0.0070965867 -0.046416115 -1.4477496 0.25427204 0.3493105 -1.3474969
1.789492 0.25844324 -0.8301011 -0.04277453 -0.7995905 -0.25996608 0.25927022 0.9159225
-0.4375772 0.9216627 0.09368646 1.3230768 -0.7258586 -0.845104 0.22709829 1.4385853
-0.17682135 1.0446587 -0.2850297 -0.13502787 2.0369866 0.20603822 1.2573334 -0.06710197
1.0693386 -0.5325428 -0.030456444 -0.6592301 0.5601871 0.4606166 1.7639761 -0.18264687
-0.9966311 0.7023785 -0.29525843 -1.0596803 -0.009466041 1.2871146 -0.46014243 0.1691549
-0.8352762 0.1930706 0.12864956 0.80002207 0.34744427 0.051219113 0.24747333 -0.3847133
-1.2895299 -1.2751819 -0.08626491 0.43474945 -0.5771476 -0.1706131 1.4824821 1.0125386
1.8398898 -0.22699672 1.7203858 -0.59281594 0.6162324 2.2327056 2.1862788 0.67739505
0.6808554 0.6739763 0.8410285 1.7871615 0.81924725 1.0240939 -1.3781576 -0.35503206
0.4327398 0.5688887 0.015735041 0.10281654 -0.46120796 1.4768453 0.21341498 1.0202779
-2.176786 0.82379043 -0.21333449 -0.79035026 0.3036318 0.7365492 -1.4051824 0.39776608
-0.035774123 1.1624047 0.7346133 -0.6827196 -0.793933 0.72411126 -1.1655279 -0.80528194
-0.38921687 -0.86095667 -0.35917097 0.43694735 0.41427836 1.0085908 0.111334465 1.1361935
-0.84709287 0.014725092 -0.0077025644 -0.60882527 0.28869888 0.093259126 0.13455606 -1.2849925
0.2890738 -2.1221313 -1.2250664 -1.1364052 -0.04285382 -0.15230261 -2.4549444 -0.33820292
0.733975 1.1805518 -0.2629059 0.038347874 0.72329795 -0.07224074 0.41289377 -0.3162036
-2.256076 0.06658502 -0.14218372 0.41399387 -0.6505541 -0.60660124 0.8063495 -0.28795266
-1.1851594 -1.8148748 -0.56687003 1.3411139 0.43452954 2.7228112 0.41307873 0.36091533
-0.6079129 -1.3035138 0.73016834 -0.41776663 1.2749622 0.1848909 -1.1206536 -1.0201669
-1.2586627 0.9012029 0.104532085 0.71562666 0.77998036 -0.27981174 0.81666476 1.4886705
0.9786996 0.208111 0.45774063 -2.1014762 -0.51031476 1.2549657 0.16373599 1.6277705
-0.07035084 1.7259483 -0.18827085 -1.5941238 0.6758825 0.13324016 -1.0977173 0.06274261
1.1303865 -2.128905 -0.39767498 -0.24299103 -0.2276625 -1.3786389 1.0230006 0.25151807
-0.05025213 0.14199139 1.0686637 1.3993005 -0.44427797 -2.3697014 1.1148791 -0.495579
0.06833062 0.99001867 -1.0131422 -0.636933 -0.5063121 0.13156207 1.7673957 -1.9083166
0.47038692 1.1221844 -0.40347826 0.6532104 0.4620929 -0.17983718 -0.10818716 1.0574669
0.15691102 -0.9256359 0.5713492 -1.8490214 -0.07359304 0.60017306 0.59077907 -0.5850305
0.40701684 0.09346442 -1.7153903 0.8607502 0.52186686 -0.3308009 0.8342495 1.1287035
-1.2946178 0.5146467 1.22698 0.00010380604 -2.1520417 0.06709424 0.05400669 -0.552016
-0.5736494 -0.69332373 0.2191956 0.15331766 -0.064127296 -0.7072268 0.007252567 -0.485519

encoder.layers.0.self_attn.in_proj_weight f4 [24, 8]
00000000: f31c 883d d495 e0be 356c c53e 682d f1bd
00000010: 90d1 963c a740 87be 08cf adbe a0e3 b3be
00000020: a0db 8bbe 0d99 da3e b794 c13e 6960 f33c
00000030: c340 d0bc 0c67 a13e 4eb4 c03d d8a9 f63d
00000040: fdad b43e d8a4 03be bfb6 edbb cf88 80be
00000050: d432 a23b f176 86be 0202 e6bd e195 8a3e
00000060: 9a54 72be 340e 4a3e d409 ff3d a8ed 82be
00000070: 719b 983e 8229 443e 3b8b af3d d9cb c7bc
00000080: ec68 aabe eb75 453e 3381 e03e 1468 3bbe
00000090: 42ee 12bd 944a c4be 632a 983e 4cfa adbd
000000a0: 5b51 bb3e 66d7 d33e 28bf d4bd 7e2b 8bbd
000000b0: 5626 cf3d ff8c 9a3e fb10 b13d acef a03e
000000c0: 8b5b e23e 230f 283e 54ac 60be 0549 b13e
000000d0: 8506 b63d d128 ae3e aedc adbe 448f 44be
000000e0: 14ec e0bc b08a 413e f1e4 80be 8539 d23e
000000f0: 9784 4abd 831d 0e3e 8f11 6c3d cf2c 8e3e
00000100: 0c1a 12be 74bc 9ebe 8154 8e3e bcdb 3abe
00000110: 74e0 bbbe 48a9 c3be f3bd 9e3e 1e82 13bd
00000120: 8edf 41be 21eb 32bd 7a36 833e 0ef6 c63d
00000130: 7658 b43d f1df 9abe af6e 0e3e 9fbb 1e3e
00000140: 9222 57be 63ec a0be 6bfa c3be e979 283d
00000150: 9c19 97be d72f bc3e cd75 a93e 07bf 2b3e
00000160: 0f44 80be 62bd afbe df2a b43e 7520 7bbe
00000170: 58b6 da3e 5989 063d 8a63 98be 5ba6 1d3e
00000180: 3bbc 9ebe 2341 ad3e bf78 af3e f8b3 a43c
00000190: 4709 babd f38f bcbe 9f74 2b3c 58b9 0c3e
000001a0: 59ee 713e b49b b0be f931 6b3e 3d29 8f3e
000001b0: beac 5e3d 3972 6abe 7460 8a3e 9551 fb3d
000001c0: e621 2bbe a7c4 aebe 33f6 b93e 7aa4 21be
000001d0: a82d b0be 7c4a 3abd 9ef2 1a3e 0f16 86be
000001e0: 55a2 913d 18e2 843d 608f cc3e df50 ab3e
000001f0: d22f 343e 9501 11be a632 863e 58cf 75bd
00000200: 556b b3be 8f0b 7a3e f0ae 02bf b243 7ebe
00000210: 5520 99be b9c9 a4be d093 9d3d 0a71 923e
00000220: 93e0 d53e cec4 bcbe 4e95 d13e 506c f3bd
00000230: e87c fb3d 8133 36be 046b 7abe 9548 78bd
00000240: 020e cabc ac17 14be 167f 95be 4a6c 873e
00000250: 9251 e1be 8197 9fbe b043 dfbd cc60 613e
00000260: 0d79 943e 5881 863e b431 35be 01e5 bbbe
00000270: 3e9c fabd d26f 093e 1f05 d2bd 446b 8ebe
00000280: 7ade d33e 3323 c7be e94f 6abd da18 1dbe
00000290: fd9e d3be 0481 943d 88e6 c5be 5818 febd
000002a0: 6c00 ea3e c0e6 56bd dbb0 593e 6d01 9abe
000002b0: 0a31 763e 2905 b13d 657f 38be 6960 68be
000002c0: bb50 56be 7900 d7bd d30d 923e 9892 8a3e
000002d0: 877e 8cbd d375 273e 7ae6 9ebd bc4a 933c
000002e0: 482a a5bc 323a a7be 4ee9 b4be b976 77be
000002f0: 1d0d 593e 907c 9ebd df8b 16be 3378 85bd
0.066461466 -0.4386431 0.38559118 -0.11776239 0.018410474 -0.26416513 -0.33947015 -0.35134602
-0.27315998 0.42694893 0.37808773 0.029709058 -0.025421506 0.3152393 0.094093904 0.12044114
0.35288993 -0.12855852 -0.007254451 -0.25104377 0.004949907 -0.2626262 -0.11230852 0.27067474
-0.23665085 0.1973198 0.124530464 -0.25571942 0.29806092 0.19156459 0.08571478 -0.024389194
-0.33283174 0.19283263 0.4384857 -0.18301421 -0.03587175 -0.3833815 0.29719839 -0.08495006
0.36585507 0.41375273 -0.10388023 -0.06795405 0.10114734 0.30185696 0.08645817 0.31432855
0.44210467 0.16412024 -0.21940738 0.34626022 0.08887962 0.34015515 -0.33957428 -0.19195276
-0.02745632 0.18900561 -0.25174668 0.4105951 -0.049442854 0.13878445 0.057633933 0.2776856
-0.14267749 -0.31003153 0.27798846 -0.18247885 -0.36694682 -0.3821509 0.31004295 -0.03601276
-0.18932936 -0.043681268 0.256275 0.097149 0.08805935 -0.3024898 0.1390941 0.1550126
-0.21009281 -0.3143035 -0.3827699 0.041131888 -0.29511726 0.3675525 0.33097687 0.1677209
-0.25051925 -0.34324175 0.35188958 -0.245241 0.42717242 0.03284583 -0.29763442 0.15395491
-0.31002983 0.33838758 0.3427181 0.020105347 -0.09083801 -0.36828575 0.010464816 0.13742578
0.23626079 -0.34493792 0.22968282 0.2796115 0.05436396 -0.22895135 0.27026713 0.1227142
-0.1671215 -0.3413441 0.36320648 -0.15785399 -0.34409833 -0.04548119 0.15131614 -0.26188704
0.071110405 0.064884365 0.39953136 0.33460137 0.17596367 -0.1416076 0.26210517 -0.06001219
-0.35042825 0.24418472 -0.51048183 -0.24830511 -0.2990748 -0.32185152 0.076942086 0.28601867
0.417729 -0.368689 0.40934223 -0.11885893 0.12279683 -0.17793085 -0.24454886 -0.060616095
-0.024664883 -0.14462155 -0.2919852 0.26449805 -0.44007546 -0.31170276 -0.10901582 0.22009581
0.28998604 0.26270556 -0.17694741 -0.36698154 -0.12236832 0.13421562 -0.10254883 -0.27816212
0.41380674 -0.38894042 -0.057205115 -0.15341511 -0.41332236 0.0725117 -0.38652444 -0.12406987
0.45703447 -0.052466154 0.21258871 -0.30079213 0.24042144 0.08643562 -0.18017347 -0.22693028
-0.20929234 -0.10498137 0.28526172 0.27064967 -0.06860071 0.1635354 -0.07758804 0.017979972
-0.020161763 -0.32661587 -0.35334247 -0.24166383 0.21196409 -0.07738602 -0.14701794 -0.06517067

encoder.layers.0.self_attn.in_proj_bias f4 [24]
00000000: e7e5 913c 6946 563b 3e65 20bb 171d 01bc
00000010: fa8c 223c 9261 8abb d6dd ddb9 fc57 603b
00000020: d157 a2b8 645d 2239 580a 4bba b36f 8eb8
00000030: a5d7 7fba e459 5c39 c660 b03a 2e4a 543a
00000040: 9f4b 39bd 9d8f 37bc 73bc 5b3c 2675 8d3c
00000050: 51fd 253d bcc0 e83c 623a b53c 33ca 51b9
0.017809821 0.0032695776 -0.0024474408 -0.007880471 0.009921307 -0.004223057 -0.00042317685 0.003423213
-7.741119e-05 0.00015484315 -0.0007745377 -6.791893e-05 -0.00097596116 0.00021014322 0.0013456575 0.0008098212
-0.045238134 -0.011203674 0.013411629 0.017267775 0.040524784 0.028412215 0.022122566 -0.00020007118

encoder.layers.0.self_attn.out_proj.weight f4 [8, 8]
00000000: c8a4 113e e82f 02be fbdf 723e bcf9 9b3e
00000010: 2824 3cbe c77e 383d 6da6 d53d 7a53 83be
00000020: bca0 27be 771a 0e3d a2aa 2bbc c2bf 98bd
00000030: e892 c2bb ff3e c13e bffb 9c3e 8f00 9fbe
00000040: 1656 c4bd d7af cbbd ba4f c6be 815b 88be
00000050: cb77 313e 3198 943e 9f17 bbbe f3e2 b53e
00000060: 1df6 a03d 4f48 2cbe 7a7f 863d a250 0c3e
00000070: d4c5 96be cf45 63be b6e1 05be ce83 07be
00000080: 3fb0 7e3e 26e9 523e 3c72 063e 305a f43d
00000090: 0e1f afbd fbca 53bd bcd1 10be 7dc0 443e
000000a0: 1ef0 08be a97c 17bd 4375 f83d 9eb0 583e
000000b0: e4a0 1b3e 58a4 c13e a12d 553e 98bd b13e
000000c0: 9455 92bb dab9 7abd 36e6 2cbd 1fcc 8dbe
000000d0: 4310 b8be 2615 cabe 5f4d e2bd f8c1 e93d
000000e0: aaa5 0dbe 1f87 90be 60d1 44be 5a1e de3d
000000f0: 9cf4 95be 5834 c73d b78b 91bd 2d75 89bd
0.14223015 -0.12713587 0.23718254 0.3046397 -0.18373168 0.04504278 0.10432134 -0.25649625
-0.16369909 0.034693208 -0.010477694 -0.0745845 -0.0059379227 0.37743375 0.30660817 -0.31055114
-0.09586732 -0.09945648 -0.38732702 -0.26632312 0.17330854 0.29022363 -0.3654146 0.3552471
0.078594424 -0.16824459 0.06567283 0.13702634 -0.29447806 -0.22194599 -0.13074383 -0.13233873
0.2487192 0.20596752 0.13129514 0.119312644 -0.08550845 -0.05170725 -0.14142507 0.19214053
-0.13372847 -0.03698412 0.12131741 0.21161124 0.15198094 0.37820697 0.20818187 0.3471496
-0.004465768 -0.061212398 -0.042211734 -0.27694795 -0.35949907 -0.3946926 -0.110499136 0.1141395
-0.13832727 -0.2822809 -0.19220495 0.10845633 -0.29288185 0.09726781 -0.071067266 -0.06711803

encoder.layers.0.self_attn.out_proj.bias f4 [8]
00000000: 1dc8 da3b 9403 0f3d e77d be3b 4c95 f0ba
00000010: 2c27 35bc f304 c93c 0c2f b8bc d00b fbbb
0.0066766874 0.03491552 0.0058133486 -0.0018355041 -0.011056703 0.024538493 -0.022483371 -0.0076613203

encoder.layers.0.linear1.weight f4 [32, 8]
00000000: 1cb6 c8bd 806f a13c d035 c6bd 8354 823e
00000010: 1eb2 7b3e 1aa8 4c3e a44e db3d 8cf5 8ebd
00000020: 69ff b6bd 1e3e ac3e dac9 0d3e 0676 203e
00000030: 3207 14bd 5bcf a4be 57fd 733d abf7 b0bd
00000040: c1bb 22be 3ca0 95be f298 7f3d c021 7d3e
00000050: d05d 83be d551 afbd ccc3 703e f751 c0bd
00000060: b24a 80be 3adc 3d3e f05c 44be 89a8 893e
00000070: 4e8c 7b3e 5892 cf3d 52db 83be 9ee2 403e
00000080: 1813 61bd 9421 87bd 90f9 16be 66ea 213e
00000090: c019 eb3d 3460 123e 9440 c9bd 3a45 dcbd
000000a0: 551b 13be 84df 6abe 6548 623e cb99 433e
000000b0: 2d55 febd 4938 963e 4f41 86be aa84 813e
000000c0: 9806 1ebe b02b 81bd e129 473e c721 bc3e
000000d0: 8acd 953e e22d 1bbe e980 513d efb1 81bd
000000e0: 7603 d7bd 0e1e 93be 7f80 a43e 1883 a6be
000000f0: afd6 07be 1893 893d 5e62 aa3e a4e8 b1be
00000100: ace0 093e d804 34be 3cb2 f63d 1e88 263e
00000110: ff66 0c3e bdce 74be bede 3d3e ee05 eabd
00000120: 9fbe 623e f09d a0be 41a6 e83c 8586 17be
00000130: d80f 52be 97a9 b1be cd3e 36be 40bc 9b3e
00000140: aa0d 1f3e 00f9 883d 4c29 93be 0a91 223e
00000150: bc96 87be ef2d 8b3e b687 a7be 14c9 81be
00000160: f00f b33e c533 50be 666a b63e 1331 033e
00000170: 7cda a1be 6c36 383e 8f6d 3fbd 4c71 873e
00000180: 5b7b adbe 53ec 983d 0caf 36bd dc35 853e
00000190: b119 cebd 4c6d 02bd 9b81 fcbd 1a25 903e
000001a0: 289d 473d 0c79 99bd 58fc 5f3d 70ef f43d
000001b0: 5e38 abbe 1639 493e 8a81 2c3e d0da cdbd
000001c0: aa76 1c3e 7066 cabd 8225 733e da6a 473e
000001d0: 2890 133d f53c 803e 3606 84be caec 6d3e
000001e0: 0509 453e f590 13bd d0c1 99bd 7ef9 613e
000001f0: 24e0 3e3e 80b6 b6bd b772 873e b911 aa3e
00000200: 3e2d 793b 51e1 9b3e d940 e43c c2e5 913d
00000210: 1261 a3be 3fa7 2dbe 3a38 7d3e a7e7 89bd
00000220: 0bbe a63e b55b 4dbd b7cc 833d f0a7 a03d
00000230: 4d95 80be c3ad 103e f33c 94be 5ace 7c3d
00000240: 8e90 32be fae6 56be 0b4a ccbe 7687 db3c
00000250: dd14 233d 919d 2fbe 7acc 673e 0d16 05be
00000260: f4a7 cf3d 6c50 843d 83ce b3be 8219 eebd
00000270: db39 943e 8964 833e fa75 f8bd 6092 15bc
00000280: 9b70 babd 35b0 b23e 1a0e 6fbe 2eab 943e
00000290: d16b 943e 37f0 4bbe d720 a33e 9e1f 9dbd
000002a0: 2dd2 76be 13e3 e7bb 547c b33d 872c 85be
000002b0: 0de3 fbbd 030a 27be d7a6 16be bfbd b13e
000002c0: 7f4d 24ba e87a 97bd 6c6e d23c 9b91 66be
000002d0: 0087 353e a00a 39be e774 4d3e 9552 58be
000002e0: 28bc 59be d40f 443e 9ba0 363e 6812 933e
000002f0: db7c 7e3c d12c 15bd fcd3 923e 0093 a13e
00000300: b18f 853d 9db0 26be e2d3 1cbe c067 85be
00000310: 8805 48be e6fe 5bbe 0528 503d 2a11 ec3d
00000320: 1e9c ac3d 6443 6f3e 3703 4ebd e0a9 02be
00000330: b261 c53e 9f36 abbe 8858 793e 4350 a43e
00000340: fe2e 233e 0eab 5b3e b646 4cbe cb96 9b3e
00000350: 8093 da3c 9962 09be d468 bdbd 7071 92be
00000360: c119 763e 372a 773c 2669 c6bd 5f7f 113e
00000370: 7a7c b0be 81f8 46be 0448 ed3d d919 d1bd
00000380: 6a94 d73e 27c4 9bbe d769 21be 7d1d a4be
00000390: 5769 193e 934d 1abe 8d79 acbe 55ce d2bc
000003a0: 49c5 eb3d 5d60 e5bd 0541 8abd c5e9 2d3e
000003b0: 7ee2 8fbe 712b 8bbe 8c17 623d 6b6d 78be
000003c0: 0b0a 893e 6c48 143e 6948 9abe 2291 733e
000003d0: 205e 24bc c40d ba3d 1c97 99bd 5306 5abe
000003e0: fa9d b23e 811e da3d c97b c63e 9704 cbbe
000003f0: 05fa cfbd fc4b 20bd f705 83be 494c 24be
-0.098003596 0.019706488 -0.09678233 0.25455102 0.24579665 0.19986 0.10708359 -0.06980428
-0.08935434 0.33641142 0.13846532 0.15670022 -0.036139674 -0.3218945 0.059567776 -0.08640989
-0.15891935 -0.29223812 0.06240172 0.24719906 -0.2565751 -0.0856053 0.2351219 -0.093906336
-0.25056988 0.18541041 -0.19176078 0.26886395 0.2456524 0.10135335 -0.25753266 0.18836448
-0.05494985 -0.065982014 -0.14743638 0.15812072 0.11479521 0.14294511 -0.098267704 -0.107553914
-0.14365895 -0.22936827 0.22097929 0.19101636 -0.1241859 0.29339817 -0.26221702 0.25296527
-0.15432203 -0.06307161 0.1944957 0.3674452 0.29258376 -0.15154222 0.05114833 -0.06332766
-0.10498707 -0.28733867 0.32129285 -0.32521892 -0.13265489 0.06717509 0.33278173 -0.34747803
0.13464612 -0.17579973 0.12045714 0.16262862 0.13711165 -0.2390699 0.18542 -0.11426912
0.22143029 -0.31370497 0.028399589 -0.14797409 -0.20513856 -0.346997 -0.17797394 0.3041706
0.15532556 0.06688118 -0.28742445 0.1587564 -0.2648219 0.27183482 -0.32720727 -0.25348723
0.34973097 -0.20332249 0.3562805 0.12811689 -0.31612003 0.1798951 -0.046735343 0.26453626
-0.33883175 0.0746695 -0.04460053 0.26017654 -0.10063494 -0.031842515 -0.12329408 0.28153306
0.04873386 -0.07493791 0.054684013 0.119597316 -0.33441442 0.19650683 0.1684629 -0.10051501
0.15279642 -0.0988282 0.23744777 0.19474354 0.03602615 0.25046507 -0.2578599 0.23234859
0.19241722 -0.036026914 -0.0750767 0.2206783 0.1864019 -0.08921528 0.26454708 0.33216646
0.0038021351 0.3044534 0.027862953 0.07123901 -0.31909996 -0.1695833 0.2472848 -0.06733637
0.32566866 -0.050136287 0.06435531 0.078445315 -0.25113907 0.14128785 -0.2895275 0.06172023
-0.17437956 -0.20986548 -0.3990024 0.026797991 0.03981482 -0.1714995 0.22636595 -0.12996693
0.101394564 0.06460652 -0.35118493 -0.11625959 0.2895039 0.2566264 -0.12131877 -0.009129137
-0.09103509 0.3490006 -0.23345223 0.2903685 0.28988507 -0.19915853 0.31860992 -0.07672046
-0.24103613 -0.00707663 0.08763948 -0.26010534 -0.12299166 -0.16312413 -0.14712082 0.34715077
-0.00062676513 -0.073964894 0.025687419 -0.22516482 0.1772728 -0.1807046 0.20064126 -0.21125253
-0.21263182 0.19146663 0.17834704 0.2872498 0.015532698 -0.036419693 0.28677356 0.31557465
0.065215476 -0.1627831 -0.15315202 -0.26055717 -0.1953336 -0.21483955 0.050819416 0.11526711
0.084282145 0.23365551 -0.050296035 -0.12760115 0.38551098 -0.3344011 0.24350178 0.32092485
0.15935895 0.21451971 -0.19948849 0.30388483 0.026681662 -0.13416518 -0.0924851 -0.2860217
0.24033262 0.015085748 -0.09688024 0.14208744 -0.34469968 -0.19430734 0.115860015 -0.10210008
0.42105418 -0.3042309 -0.15763031 -0.32053748 0.1498159 -0.15068655 -0.33686486 -0.025733152
0.115122385 -0.112000205 -0.06750683 0.16983707 -0.28102487 -0.2718158 0.055198237 -0.2426049
0.26765475 0.14480752 -0.3013337 0.23785833 -0.010032207 0.09084657 -0.07499525 -0.21291475
0.34886152 0.106503494 0.38766316 -0.3965194 -0.10155109 -0.039134964 -0.25590488 -0.16044725

encoder.layers.0.linear1.bias f4 [32]
00000000: 9d92 af3e 29d2 543e 4c03 3a3d 809f 94bc
00000010: b293 313e ee5e 0c3e b366 763e 867c 07be
00000020: 05a0 a4bc 9ff8 edbc 402e cd3b 8ba4 82bb
00000030: b54d cd3d af7e 0bbe 5f5a 38be e443 1a3d
00000040: 824c dd3d 9fdb 7b3d bb98 2dbc 6431 abbd
00000050: ff92 763e 5e6b 893e f3dd 81bd d3ba b9bd
00000060: e589 963d 2736 4cbe 7019 6fbe a825 a0bc
00000070: b930 ef3d 496d 8a3e 8070 113c e281 88be
0.34291545 0.20783295 0.0454133 -0.018142462 0.17341498 0.13708088 0.24062614 -0.13231096
-0.020095835 -0.029049216 0.006261617 -0.0039869 0.10024587 -0.13622545 -0.18003224 0.0376624
0.10805608 0.061488744 -0.010595496 -0.0835903 0.24079512 0.26839727 -0.063411616 -0.09068837
0.0735052 -0.19942532 -0.23349547 -0.019549206 0.11679215 0.27036503 0.00887692 -0.26661593

encoder.layers.0.linear2.weight f4 [8, 32]
00000000: b0fe a73c bede 1c3d fcd5 f53d 50e3 10be
00000010: ea48 69bd 6d51 443c 934b 49be 19c7 eb3d
00000020: de83 91bd fef4 a43d fdb6 cebd 7a48 6a3e
00000030: 7527 313e 9e02 a2bd e8cd e83c 2d44 28be
00000040: 6000 e2bd 07d1 76bd c115 e73d 7fdf 33be
00000050: 1030 17be 3b88 6d3d b4d2 653d 82e3 e4bd
00000060: 1131 a9bd 0d1b 48bd 303c 3a3d 711b c43d
00000070: 83cb 543d d9a3 b53d dcc4 833d a258 533e
00000080: 409e 56bb c4a4 253d 73bc 51be cf0b 8bbd
00000090: 9376 25be 6463 0bbd 9138 d4bd 0f2b 023e
000000a0: e2cb c3bd 3533 0f3e 783f 56bd 4b85 abbd
000000b0: 5f37 2abe e4ba 0dbd 656a 2a3e 963b c9bd
000000c0: acc6 a13d 87e4 07be cfbb 223d 93ec 30be
000000d0: 2503 303e 8bcf 7d3d 4e8e 6d3d 6a0e 0abe
000000e0: 4579 7b3b 2852 e63d e2fb 03be 6a62 43bd
000000f0: 1be3 61bd 5509 10be 5bb2 22be bb17 843e
00000100: 2e2f 863d 35db 0c3e a90b f13b 425b 0fbe
00000110: 14fb 8d3d 2bc8 b8bb 751d ea3d bcf3 09be
00000120: 20d3 2abe df01 463d cd14 253e a2ad dabd
00000130: 0f78 19be ebc5 303e f6e5 bf3d b257 323e
00000140: eedd 13be 034a d3bc 1549 d7bd 6482 653d
00000150: ebaf fb3c e9ff bd3c 6b25 493d 64a9 b53d
00000160: 62ce 85bd 47a2 cabd 492d c2bd 4597 81bd
00000170: 4ffd 7e3d 31cc 143d baa6 8ebd d901 a03d
00000180: f6a9 c93d 9d57 873d 7836 493e 3076 c83c
00000190: 9064 d4bc 8dfe c23d d466 953d 0808 133e
000001a0: 363a 26bd 540a 24be 1f4c 103e b6be aabd
000001b0: 458b 0c3b 9f0b d9bd 70b9 323d cf72 0b3d
000001c0: 0a95 2d3e e0be 1f3e a03a d43d 2b63 d3bd
000001d0: b41b 99bb ccde 8c3d e9b2 5fbd b300 073e
000001e0: e6ed 123e b553 193e 58bf a1bd 4d52 00be
000001f0: 86ad d3bd 92d9 dcbd 94be 6a3d 19a0 87be
00000200: 3273 97bd 91c1 2dbe afda 46be 3634 bd3d
00000210: f10e 133e 639f 1e3e eb3f 043e 693d 64bd
00000220: 2f92 20be 1948 67bd 3eef d7bd 15cb 323e
00000230: dc21 ebbd 7f5a 0abe c336 d1bd 1443 f7bd
00000240: 36d1 14be 50a3 1abd 6932 1b3e a1e2 333e
00000250: f265 ec3d d249 18bc b22d 443d 3a29 32be
00000260: 95cd a63d d786 293d d90c 1e3e 0c96 953d
00000270: 80d6 05be 35d1 01bd 565d f63d 4cb4 713e
00000280: 2777 c7bd 70e6 ecbd e2b7 aebd 4e46 aabd
00000290: c7a2 143e c643 4ebd 1f33 fabd a66f 23bd
000002a0: 9d81 963d c9ea 273e 0dcc 073e cdaf b1bc
000002b0: 434b ba3d 33ab 293e 46ea 1dbe 7ce6 80bd
000002c0: 6a52 ffbd 575e 063e a30a 27be b0e4 c93c
000002d0: a72f babd ba86 203e 562e b8bd 21b4 d5bd
000002e0: b5f0 85bb a98b 393e 208d 2e3d 88ab 923d
000002f0: cf4f c53d 8289 e6bd 4c6b 8abd bd2a ad3d
00000300: 86ec ecbd 9a9e 9f3c 2e6c b23c 17cb a9bd
00000310: 58bf 8c3c 75c3 c3bd 082a 08be 1236 12be
00000320: 1385 f93d d255 8fbd f0c8 343d 08f1 dabc
00000330: df07 29be 14b5 6e3d b826 593d 067a 20be
00000340: 59c5 f23b 0c90 b3bc bf40 de3d ab7f 0b3e
00000350: 1231 d73d a8d0 c0bd e099 dcbd 2878 7fbd
00000360: a2b3 61bd 032f 15bd b4db 693d 867a 553d
00000370: f568 0cbe a836 703d 8000 8f3d 1b1f c8bd
00000380: f90e 93bd 5f9b e83c ab71 67be 6c16 68bd
00000390: 5720 b5bd d472 003d 1247 c8bd b752 ed3d
000003a0: a1cb e9bd 185a 3ebe 026d ff3d 2687 abbc
000003b0: 54bc 21bd 58b7 6fbd 54e0 23bd b2b7 08be
000003c0: 04a2 2fbe 751a 083e 52f3 4dbe 4e69 c53d
000003d0: 4286 983d 84f7 8b3c 2459 d5bd f108 23be
000003e0: d556 bf3d f1a3 43be 81ce 34be bb0d f4bc
000003f0: b0c2 443b 1f38 0cbe 58bb e53c 8357 933e
0.020507187 0.03829836 0.12003705 -0.14149213 -0.056954302 0.011982304 -0.19657736 0.11512584
-0.0710523 0.08054541 -0.10093496 0.2287921 0.17300208 -0.079106554 0.028418496 -0.16432257
-0.11035228 -0.060257938 0.11283446 -0.17565726 -0.14764428 0.057991248 0.056109145 -0.11176206
-0.08261312 -0.048853923 0.045467556 0.095755465 0.051951896 0.08869142 0.06434032 0.2063928
-0.0032748133 0.040440336 -0.20482044 -0.06789362 -0.16158514 -0.034030333 -0.10362352 0.12711738
-0.09560372 0.13984378 -0.052306622 -0.08375033 -0.16622685 -0.03460206 0.16642149 -0.09825818
0.07899222 -0.1327077 0.03972989 -0.17277746 0.171887 0.061965507 0.05799704 -0.13482061
0.0038371843 0.11246139 -0.12889054 -0.047701277 -0.055148225 -0.1406606 -0.1588835 0.25799355
0.065519676 0.13755496 0.0073561263 -0.13999656 0.06932655 -0.0056390963 0.114314 -0.13471884
-0.166821 0.04834163 0.16121216 -0.10677649 -0.14987205 0.17263 0.093700334 0.17416266
-0.14440128 -0.025792127 -0.10511986 0.056032553 0.030723533 0.023193317 0.04910795 0.08870199
-0.06533505 -0.09894233 -0.09481294 -0.063276805 0.062253293 0.036327545 -0.06965394 0.078128524
0.098468706 0.06608508 0.19649684 0.024470419 -0.025926858 0.09521208 0.072950035 0.14358532
-0.040582858 -0.16019565 0.14091538 -0.083371565 0.0021445316 -0.1059792 0.04363388 0.034045037
0.16951385 0.15600157 0.10362744 -0.10321649 -0.004672492 0.06878433 -0.05461398 0.1318386
0.14348564 0.14973338 -0.07897824 -0.12531395 -0.10335831 -0.10783686 0.057310656 -0.26489332
-0.07395019 -0.16968371 -0.19419359 0.09238474 0.14361168 0.15490489 0.12915008 -0.055722628
-0.15680765 -0.056465242 -0.10543679 0.17460282 -0.114810675 -0.13511084 -0.10215523 -0.12073341
-0.14532933 -0.037753403 0.15155949 0.17566921 0.11542882 -0.009294944 0.04789514 -0.17398539
0.081446804 0.04138836 0.15434588 0.0730401 -0.13070107 -0.031693656 0.12029521 0.23603934
-0.097395234 -0.1156739 -0.085311666 -0.08314191 0.1451522 -0.050357603 -0.12216782 -0.039901398
0.073489405 0.16398157 0.13261433 -0.021690274 0.09096386 0.16569214 -0.154214 -0.062939614
-0.12466891 0.13121925 -0.16312651 0.02464518 -0.0909112 0.15676394 -0.08993213 -0.104347475
-0.0040875324 0.18119682 0.042615056 0.07161623 0.09634363 -0.11256696 -0.067587465 0.08455417
-0.11568551 0.019484807 0.0217801 -0.082906894 0.017181084 -0.09558765 -0.13297284 -0.14278439
0.12183585 -0.06998791 0.04413694 -0.02672626 -0.16506909 0.05827816 0.05301544 -0.15671548
0.0074087796 -0.021919273 0.10852193 0.1362292 0.10507406 -0.09414798 -0.10771537 -0.06237045
-0.05510295 -0.036421787 0.05709429 0.0521188 -0.13711913 0.058645874 0.06982517 -0.09771558
-0.0718059 0.0283944 -0.22601955 -0.05666201 -0.08844059 0.03135951 -0.097791806 0.11588042
-0.11415792 -0.18589056 0.124719635 -0.020938467 -0.039486244 -0.05852446 -0.040008858 -0.13351324
-0.17151648 0.13291343 -0.2011235 0.09639226 0.07447483 0.017085798 -0.10417393 -0.1592138
0.09342734 -0.19105507 -0.176569 -0.029791703 0.003002327 -0.13693283 0.028043434 0.28777704

encoder.layers.0.linear2.bias f4 [8]
00000000: 0ee1 28be e52f b9bc c72c e1bd 760b 923d
00000010: 0b8f 253d 1fa2 073e 922c 77bd 9b46 35be
-0.16492102 -0.022605846 -0.10994869 0.07131092 0.04041962 0.13245438 -0.06034524 -0.17702715

encoder.layers.0.norm1.weight f4 [8]
00000000: 1b4b 843f 129a 7f3f d86b 803f 5889 813f
00000010: dc14 7a3f 1e9b 7a3f 5d69 813f 5888 7d3f
1.033542 0.9984447 1.0032911 1.0120039 0.9768808 0.9789294 1.0110279 0.9903617

encoder.layers.0.norm1.bias f4 [8]
00000000: c109 00bb 5e6d a73b 6ae6 f03b 8ccb 163b
00000010: 9cd6 94bc 1b2f cb3c 99f8 6bbc 5e3a 22bc
-0.0019537064 0.005109473 0.0073516862 0.0023009507 -0.01816874 0.024802735 -0.014402532 -0.009901611

encoder.layers.0.norm2.weight f4 [8]
00000000: b277 843f 567a 823f bd18 7e3f 9e6e 823f
00000010: 9944 7a3f c003 7a3f 3a04 833f 89f4 803f
1.0349028 1.0193584 0.992565 1.0190008 0.9776092 0.9766197 1.0235665 1.0074626

encoder.layers.0.norm2.bias f4 [8]
00000000: 12d1 f53a 41c0 3d3c f8fb 5f3a 0584 ef3b
00000010: 1590 6ebc 814d f33c 01b9 72bc ba1e 85bc
0.0018754324 0.011581481 0.0008544321 0.007309439 -0.014560719 0.029700043 -0.014814616 -0.016250003

encoder.layers.1.self_attn.in_proj_weight f4 [24, 8]
00000000: d15b 0a3d 116c d1be facd ac3e 25e4 6fbd
00000010: 6e9b dc3c b656 62be 62ad bcbe 280f cabe
00000020: 052e 86be d7ba d53e 5a6b c13e 2c71 f93c
00000030: 7e1d ffbc 2c2e 9c3e 53b3 df3d d1b2 fc3d
00000040: 5fb5 aa3e 0f55 18be c73a 7ebc e59b 62be
00000050: 6bb8 b6bc c6e4 88be 347d b4bd 4314 833e
00000060: 6d99 41be 2b46 323e 2d67 253e c772 a0be
00000070: f51a 9d3e 5d15 233e 6d07 da3d d3d4 c03c
00000080: cba8 b0be 0366 3a3e 00d6 dd3e e678 23be
00000090: 39e6 38bc acbc c6be 03e1 9e3e af1c d6bd
000000a0: e020 d63e 0b67 d43e 3d81 9ebd 5227 d6bd
000000b0: 5b9e ab3d a26d 953e eeae a83d 365c b33e
000000c0: 79db ec3e a3ca 373e e16b 52be e5d1 9b3e
000000d0: d570 ab3d efc8 af3e 3598 b5be 9bea 1fbe
000000e0: e4c9 c23c f27c 4c3e 5407 6abe a1dd bd3e
000000f0: 087e 80bd b7c5 093e 2a70 403d dff8 a03e
00000100: b577 dabd 369c acbe 5b0d 873e dc57 46be
00000110: fdff a4be 734d c4be dfa3 963e 1952 71bc
00000120: 86f0 4ebe 8a65 04bd b9ca 9c3e e067 993d
00000130: a229 903d df59 90be 188a 003e 83d4 c93d
00000140: 7122 26be ec70 b7be 81fe c3be f6d5 283d
00000150: 02a4 6dbe 379d bc3e 62d4 9e3e e402 303e
00000160: 810a 71be 2a9a a5be ae19 c33e 5c92 8dbe
00000170: 3ad5 de3e b1d7 a23d 7e3b b0be 20c9 e33d
00000180: 7bb0 92be 41c3 a23e 13f9 b83e 4d50 8c3c
00000190: f647 98bd 6a6f c9be 62d8 adbc 2093 0a3e
000001a0: 44f2 833e d5e7 c5be 7726 923e e752 a33e
000001b0: c4a9 e13d 8299 63be 0cc7 923e 444f c43d
000001c0: 7e3c 45be 8d77 a4be ef2c b03e 04f8 1fbe
000001d0: 280f b8be 843b a6bc 7cb9 393e 49d2 84be
000001e0: dc24 2b3d 5ee9 be3d 2212 bd3e 213a ac3e
000001f0: cf62 1c3e 7ca6 04be 5c33 9a3e 39e6 37bd
00000200: aa9d bbbe 5e50 4d3e fa6a 02bf 31b2 74be
00000210: 8b65 d6be 98f9 adbe 2c54 0f3e 26bf 8b3e
00000220: e746 d53e 9188 b7be 50bd c63e ff91 c2bd
00000230: 07eb 213e 2ec6 29be d4b0 83be 2fbe a8bd
00000240: 7c76 10bd cb85 13be e857 97be da6e 8a3e
00000250: f781 a6be 0ee6 9bbe a134 e8bd 9288 683e
00000260: 825d 8e3e 1f06 863e bce1 30be 47a8 bebe
00000270: 580e 0c3c a810 0a3e 5d31 dabd 58e6 86be
00000280: 8b34 e23e dce7 ccbe 49ed 48bd c5c7 42be
00000290: 5897 45be a60d 763d 9f21 ccbe 2c60 8abd
000002a0: cd22 e93e 1290 2bbd 7e72 4b3e 66a0 9bbe
000002b0: 1b67 c83e c4af cd3d 03ff 54be dbf9 51be
000002c0: 11ff 55be a89c c0bd 61c5 8d3e f997 8a3e
000002d0: 5580 713d 6800 343e 178e c6bd acd7 033d
000002e0: c88c 66bd ab18 aabe d916 b4be f9eb 6abe
000002f0: 61cf 963e cfcb abbd 5413 0bbe ef50 a1bd
0.03377897 -0.4090276 0.33750898 -0.058567185 0.026929583 -0.2210339 -0.3685103 -0.39464688
-0.26206985 0.4174411 0.37777215 0.030449472 -0.031141993 0.30503976 0.10922875 0.12338794
0.333415 -0.14876197 -0.015516943 -0.22129782 -0.022304734 -0.2673704 -0.08812943 0.25601396
-0.18906184 0.1740958 0.1615264 -0.31337568 0.3068463 0.15926118 0.106459476 0.023538982
-0.3450378 0.18202977 0.43327332 -0.15964088 -0.011285358 -0.3881582 0.31031045 -0.1045469
0.41821957 0.41484866 -0.07739494 -0.104567185 0.08379813 0.29185206 0.0823649 0.3503129
0.46261194 0.17948394 -0.20548965 0.30433574 0.083711304 0.34332988 -0.35467687 -0.15616839
0.02377791 0.19969538 -0.22854358 0.37083152 -0.062740386 0.13454328 0.046981968 0.31439874
-0.106673636 -0.3371293 0.26377377 -0.19369453 -0.32226554 -0.3834034 0.294219 -0.014729046
-0.2020894 -0.032323398 0.30623415 0.07490516 0.07039191 -0.28193566 0.12552679 0.098549865
-0.16224076 -0.3582834 -0.3828011 0.041219674 -0.23207095 0.36838695 0.3102141 0.17188603
-0.23539163 -0.3234418 0.3810553 -0.27650726 0.43522054 0.07951296 -0.3442039 0.11122346
-0.2865027 0.31789592 0.3612753 0.017128134 -0.074356005 -0.39342815 -0.021221343 0.13532686
0.25770772 -0.38653436 0.2854497 0.31899187 0.11018708 -0.22226527 0.28667486 0.09585431
-0.19261357 -0.3212246 0.34409282 -0.15621954 -0.35949063 -0.020292051 0.18137163 -0.25941685
0.0417832 0.09321855 0.36927897 0.336381 0.15272067 -0.12954134 0.3011731 -0.04489729
-0.36643726 0.20050189 -0.50944483 -0.238961 -0.41874346 -0.33979487 0.13996953 0.27294272
0.41655657 -0.3584638 0.3881631 -0.09500503 0.15812312 -0.16579506 -0.25720847 -0.082394
-0.035269246 -0.14406507 -0.29559255 0.27037698 -0.3252103 -0.30448955 -0.11338163 0.22708347
0.27805716 0.26176545 -0.17273611 -0.3723776 0.008548342 0.13482916 -0.106539465 -0.26347613
0.44180712 -0.40020645 -0.049054418 -0.19021519 -0.19296014 0.06007161 -0.398694 -0.067566246
0.45534363 -0.041885443 0.19867894 -0.30395812 0.39141163 0.1004329 -0.20800404 -0.20505469
-0.20898081 -0.0940488 0.2768965 0.2706907 0.058960278 0.1757828 -0.0969507 0.032188103
-0.056286603 -0.33221945 -0.3517368 -0.22941579 0.29455093 -0.08388483 -0.13581592 -0.07876765

encoder.layers.1.self_attn.in_proj_bias f4 [24]
00000000: db53 babc f8fc 8ebb 0276 b9bc 8040 bf3c
00000010: cdb6 0b3c 3c97 183b 2656 2a3c 838a a33b
00000020: 1fb0 4eb6 80e5 2935 e185 aab6 f198 05b6
00000030: b042 ef36 662e 6734 1ad2 16b7 2fd2 bcb6
00000040: 61d6 8bbd 64c5 0dbd c413 d83b ff64 993c
00000050: 982b 963d dcfc 853c 1a13 393c e71f 313b
-0.022745064 -0.0043636523 -0.022639278 0.023346186 0.00852747 0.0023283502 0.010396516 0.004990877
-3.0798908e-06 6.329137e-07 -5.0819804e-06 -1.9907568e-06 7.1305185e-06 2.1530431e-07 -8.989615e-06 -5.627305e-06
-0.06827999 -0.034612074 0.006594153 0.018724917 0.073325336 0.016355924 0.011296058 0.0027027072

encoder.layers.1.self_attn.out_proj.weight f4 [8, 8]
00000000: 1dfa 1c3e c210 22be c883 9b3e 28ee 963e
00000010: 4bdb 55be cb0c b6bc e7ac ff3d 134d 64be
00000020: f898 44be 8b47 9abb df5d 5bbd f703 d4bb
00000030: 14b7 b53d c56b b93e 8c2c a83e 581c babe
00000040: 3a59 a5bd 80c1 03be 3207 a3be a67f 86be
00000050: 616f 103e 899a 6e3e 3806 b0be 2019 b53e
00000060: 0931 a43d 5dba 25be 1267 333d a027 223e
00000070: b6a8 98be 0f84 43be 9916 07be 8549 14be
00000080: b204 763e 0c4b 3b3e 42ea 413e 7782 e93d
00000090: 8941 ccbd ec58 d3bd 3980 00be 2f60 433e
000000a0: e213 2cbe 3973 10bd 31d4 e73d 6922 3a3e
000000b0: 2ea4 333e 99e0 b83e a066 553e 4d43 ae3e
000000c0: 9c45 49bc 895c 71bd 2b1c 47bd fd70 84be
000000d0: cd74 bebe 67b5 c0be ef79 cfbd e46e df3d
000000e0: 7848 06be 2ca4 8bbe 9954 4bbe 08e7 d63d
000000f0: 791c 8ebe c655 c33d 7a74 b8bd d9d8 76bd
0.15329786 -0.15826705 0.3037398 0.29478574 -0.20884435 -0.022222897 0.124841504 -0.22295026
-0.19198978 -0.0047082356 -0.05355632 -0.006470199 0.0887281 0.36215034 0.32846487 -0.3634975
-0.08073659 -0.12866783 -0.31841427 -0.26269263 0.14104988 0.23301138 -0.34379745 0.3537073
0.08017165 -0.16184373 0.043799467 0.15835428 -0.29816216 -0.19093345 -0.13192214 -0.1448117
0.24025229 0.18290347 0.18937019 0.11401837 -0.09973437 -0.10319695 -0.12548913 0.1907966
-0.1680446 -0.035266135 0.11319769 0.18177189 0.17543098 0.36108854 0.2083993 0.3403572
-0.012284663 -0.05892614 -0.048610847 -0.25867453 -0.37198487 -0.376384 -0.10130679 0.109098226
-0.13113582 -0.2727369 -0.1985649 0.104932845 -0.27756098 0.09537844 -0.09006591 -0.060265396

encoder.layers.1.self_attn.out_proj.bias f4 [8]
00000000: fdf2 c5bc 0b69 1dbb 5b54 a6bc 7234 ee3b
00000010: d055 21bd 8743 d43c 5c25 82bc fc04 ae3a
-0.024163717 -0.002401891 -0.020303896 0.0072694356 -0.039388478 0.025911106 -0.015886955 0.0013276632

encoder.layers.1.linear1.weight f4 [32, 8]
00000000: d620 8fbd 6ab0 abbc 6647 28bd 66a1 613e
00000010: 98d7 8f3e d2de 153e d095 1f3e 77ea ddbd
00000020: aff5 5abd e87d a43e 9be9 0f3e 5c33 273e
00000030: 62a1 09bd 7b1f a8be d7f8 953d e5a5 efbd
00000040: e4ae 12be 0b8d 9dbe d8d1 b13d 7742 733e
00000050: c263 81be 48dd cfbd 211c 7f3e fe04 ddbd
00000060: b24a 80be 3adc 3d3e f05c 44be 89a8 893e
00000070: 4e8c 7b3e 5892 cf3d 52db 83be 9ee2 403e
00000080: 1813 61bd 9421 87bd 90f9 16be 66ea 213e
00000090: c019 eb3d 3460 123e 9440 c9bd 3a45 dcbd
000000a0: 9bad 07be 5930 54be 6145 3d3e 84ef 683e
000000b0: ef1d 25be d7f4 a43e 6bd7 8cbe 139b 663e
000000c0: c429 06be 1386 b2bd 80d1 453e ddb1 c03e
000000d0: 1868 943e 50ef 20be e697 9e3d 7344 a8bd
000000e0: 6b8e a3bd 28b9 abbe 3b0f c03e 0f67 c6be
000000f0: 96fa b3bd ccaf a53c 8cb0 bf3e 8bc8 97be
00000100: 4339 063e c72a 3abe 04cd 243e 3663 fe3d
00000110: f6a0 063e 047c 84be 190e 423e 0b3c acbd
00000120: 8e06 573e 1910 90be 746b ca3c 4633 1ebe
00000130: 310f 4cbe b061 b0be 1200 4fbe 067a a13e
00000140: aa0d 1f3e 00f9 883d 4c29 93be 0a91 223e
00000150: bc96 87be ef2d 8b3e b687 a7be 14c9 81be
00000160: 0c6a 9f3e 5211 2ebe 086b 953e 84d3 4b3e
00000170: d34d b7be 2f29 643e 1a87 8fbd b98e 513e
00000180: 3e3f afbe 0380 8d3d 7407 1abd bdec 823e
00000190: a1d5 b6bd da66 2bbd f650 f8bd a44a 943e
000001a0: 556a 273d 909b b7bd fc37 8d3d 6a2c e13d
000001b0: eb79 afbe 7169 383e b50c 3e3e d0f6 c3bd
000001c0: 267f 233e 5b45 cebd 12a2 753e d39e 443e
000001d0: 452d 083d e1ec 7d3e ed94 85be 4f5b 703e
000001e0: 18af 4a3e 146c 4bbd 3f84 8bbd c319 663e
000001f0: df89 433e 4826 cabd a1bc 8f3e 3bca 9d3e
00000200: a210 803c a712 923e e2be 3a3d 2b39 8d3d
00000210: 4fdf a2be 27b1 36be 8b75 853e 764c a3bd
00000220: 052b a13e 776b 3bbd aa61 2c3d 0602 c73d
00000230: c94f 88be ac95 203e 3a84 95be a798 803d
00000240: 6ed3 eabd d30d 8dbe 4cd8 a3be a2d2 25bd
00000250: 6403 ba3d 8414 6fbe 7301 8f3e 0b9e 9cbd
00000260: 2739 c73d c7f0 8d3d 811b b5be f8ed e1bd
00000270: 061d 913e 8e5a 863e 2177 01be bf1e 3abc
00000280: dd76 91bd 144a c73e cd96 8ebe 4267 a83e
00000290: a70b 803e 2a48 21be fa9b 8d3e c85e c9bd
000002a0: 9936 9bbe f783 393c f0bf 8d3d d7ce 80be
000002b0: 7dae e4bd d78c 18be bc30 24be 1560 a63e
000002c0: 9126 b0bb 1218 abbd e426 e0bb 7f27 3dbe
000002d0: c2e4 403e 168e 32be a7aa 593e e0cf 5cbe
000002e0: f00b 3fbe bf8c 353e a902 423e 8bff 963e
000002f0: 36a2 853c 9430 44bd bba3 9a3e 82af 8f3e
00000300: 4a65 aa3d 6f2b 49be 7952 f8bd f035 93be
00000310: 807c 45be 45b8 63be be28 803d 2dc4 143e
00000320: 4a73 263d 3b65 813e 1f8f 81bd f0d3 e6bd
00000330: 01f4 b83e 91f4 a0be d5c7 683e 7dd7 933e
00000340: fe2e 233e 0eab 5b3e b646 4cbe cb96 9b3e
00000350: 8093 da3c 9962 09be d468 bdbd 7071 92be
00000360: 0990 6f3e 3736 ae39 0747 b4bd 2171 063e
00000370: f15a aabe de15 56be 130b 0b3e d791 88bd
00000380: 334c c93e 5d2b 9cbe db23 30be 7a7b a2be
00000390: bae7 3f3e b84e 26be e462 a6be a6b6 33bd
000003a0: 3955 1c3e 0c7c 13be ca03 64bd 327d 2d3e
000003b0: 0be6 83be d7f9 96be 3978 ba3d 0616 6abe
000003c0: 0b0a 893e 6c48 143e 6948 9abe 2291 733e
000003d0: 205e 24bc c40d ba3d 1c97 99bd 5306 5abe
000003e0: 21ef 903e e238 1b3e 2cde b13e d804 c0be
000003f0: 2ad6 e0bd 714a f8ba 2567 96be edc0 2abe
-0.06988685 -0.020958144 -0.041083716 0.22034225 0.28094172 0.1463578 0.15584493 -0.10835736
-0.05345696 0.3212731 0.14053957 0.16328186 -0.033601172 -0.32836518 0.07322853 -0.11701564
-0.14324528 -0.3077167 0.08682603 0.23755823 -0.25271422 -0.10149628 0.24913074 -0.10791968
-0.25056988 0.18541041 -0.19176078 0.26886395 0.2456524 0.10135335 -0.25753266 0.18836448
-0.05494985 -0.065982014 -0.14743638 0.15812072 0.11479521 0.14294511 -0.098267704 -0.107553914
-0.13249819 -0.20721568 0.18483497 0.22747618 -0.161247 0.32218048 -0.275081 0.22520094
-0.1310187 -0.08716979 0.19318199 0.376357 0.28985667 -0.1571629 0.07743816 -0.08216181
-0.079861484 -0.335397 0.3751162 -0.38750502 -0.0878803 0.020225428 0.37439382 -0.2964519
0.13107781 -0.18180381 0.16093832 0.12421267 0.13147339 -0.25875866 0.1895069 -0.0840989
0.20998594 -0.28137282 0.02470944 -0.15449247 -0.1992767 -0.3444953 -0.2021487 0.3153841
0.15532556 0.06688118 -0.28742445 0.1587564 -0.2648219 0.27183482 -0.32720727 -0.25348723
0.31135595 -0.16998795 0.2918322 0.19904906 -0.35801563 0.22281335 -0.070081905 0.204646
-0.34227937 0.06909182 -0.037604764 0.25571242 -0.08927465 -0.041846134 -0.12124817 0.28963196
0.04087289 -0.08965218 0.06895444 0.109947994 -0.34272704 0.18008973 0.18559535 -0.0956856
0.15966472 -0.10071822 0.23987606 0.19201212 0.033246297 0.24797393 -0.26090184 0.23472331
0.19793355 -0.04966362 -0.06812333 0.22470765 0.19095562 -0.09870583 0.280736 0.30818352
0.015632931 0.28529856 0.045592196 0.068956695 -0.31810996 -0.17841016 0.2606624 -0.07973568
0.31478134 -0.045756783 0.042085327 0.09717183 -0.2662337 0.15682095 -0.29202443 0.06279116
-0.11466108 -0.2754961 -0.3200096 -0.04048408 0.09082678 -0.2334767 0.27930793 -0.07647332
0.09727698 0.0693069 -0.35372546 -0.11031717 0.28342456 0.26240963 -0.126431 -0.0113598695
-0.071027495 0.38923705 -0.27849427 0.3289128 0.2500889 -0.15750185 0.27658063 -0.09832531
-0.30315092 0.011322967 0.06921375 -0.25157806 -0.111660935 -0.14897476 -0.16034216 0.3249518
-0.005375691 -0.083542004 -0.0068405736 -0.18472098 0.18837264 -0.17437014 0.21256505 -0.21563673
-0.18656898 0.17729472 0.18946327 0.2949184 0.0163127 -0.04789789 0.3020304 0.2806359
0.083201006 -0.19645475 -0.121251054 -0.2875209 -0.19285774 -0.22238262 0.06257771 0.1452796
0.040637292 0.25272545 -0.06326126 -0.112708926 0.3612366 -0.3143659 0.2273248 0.28875342
0.15935895 0.21451971 -0.19948849 0.30388483 0.026681662 -0.13416518 -0.0924851 -0.2860217
0.23394789 0.0003322826 -0.0880261 0.13129093 -0.33272508 -0.20906779 0.13578443 -0.06668442
0.39315948 -0.30501834 -0.17201178 -0.3173483 0.1874074 -0.16240966 -0.32497323 -0.04387536
0.15266885 -0.14402789 -0.055667676 0.1694229 -0.25761446 -0.29487488 0.09104962 -0.22859964
0.26765475 0.14480752 -0.3013337 0.23785833 -0.010032207 0.09084657 -0.07499525 -0.21291475
0.2830744 0.15158418 0.34739816 -0.37503695 -0.109783486 -0.0018943084 -0.29375568 -0.16675158

encoder.layers.1.linear1.bias f4 [32]
00000000: b1a3 c73e 00fb 553e 5c7b 7a3d 809f 94bc
00000010: b293 313e 5a8f d03d 6d58 753e 8040 9fbd
00000020: d55a 0e3c 6032 d4bc 402e cd3b 2220 6abd
00000030: 30bc db3d 0097 f9bd 45e6 35be ce1f 303d
00000040: 13b8 f13d 287b 363d 1c13 693d f219 b6bd
00000050: 6dac 4b3e 263f 843e 6a82 a8bd 99ed abbd
00000060: 2260 bc3d b02f 5bbe 7019 6fbe 8cd7 d5bb
00000070: d742 f73d 1d7c 903e 8070 113c 0058 9bbe
0.38992074 0.2089653 0.0611528 -0.018142462 0.17341498 0.10183592 0.23959513 -0.07775974
0.008688648 -0.025902927 0.006261617 -0.05715955 0.10729253 -0.12187004 -0.17763622 0.04299908
0.118026875 0.044551045 0.05690299 -0.088916674 0.19889994 0.25829428 -0.082279995 -0.083949275
0.091980234 -0.2140491 -0.23349547 -0.0065259393 0.120732956 0.2821969 0.00887692 -0.30340576
