models/ts_views_models/ts-v17.ckpt (torch, 330768 bytes, 201 tensors)

input_pos_embedding.weight f4 [1024, 8]
00000000: b9d6 a4bf fd0b b43f 13cb a13f 987b 2f3f
00000010: 867d 653d c019 1b3c 1f59 9e3e 0f8c 2dbf
00000020: aa6b 6ebf b4f1 04bf ae95 1bbf ca24 0ebf
00000030: 6dba a7bf d68f 0bbf bbe9 d33e f642 4cbf
00000040: 63f0 31bf bb67 04c0 8b25 673f 22a3 38bf
00000050: 3caf 823e 5651 89bf 4a91 f3bd e923 e2be
00000060: 66ff a7bf 3ba5 acbc 47b2 9dbf 40bb 0cbf
00000070: 615c ca3f 31ee e43f 0b7a 92bf ee0e 2dbf
00000080: 7e41 de3f f683 5c3f daa6 89bf 2d75 333f
00000090: b18f 893f 6de7 273f 45b8 703f 6091 433e
000000a0: 16fd 05be 206e a9be f736 6e3f fdf6 e4be
000000b0: 71cf d6be 11f4 6d3f af6e ff3e 3776 96be
000000c0: 1abe ecbb 3602 52bf 3778 863f 98df 2abf
000000d0: ffb0 603d 65a5 a43d 615c 55be 2780 0c3f
000000e0: ea2e b2bf 2bd5 a93f 6bd7 f6bf 4b0d c5bf
000000f0: 065c 98be 55df f1be d1bd 823e 2735 523f
00000100: 5ad7 17c0 cfe0 183f e3bc 5a40 f206 6ebd
00000110: ee46 04bf 7c5f 53bf 439d 1d40 7bb9 eebd
00000120: bdc1 283f 28dd 163e 8931 58be afe1 363f
00000130: f997 913f 15d6 7b3e a9bb 1b3f 13f6 313e
00000140: 4ef5 e3bc 5373 5e3f aa25 fe3d d0f3 d43f
00000150: f463 b53e 87a5 143e af5b d5bf 1699 7cbd
00000160: 7670 febf 2e77 96bf b0b7 cebe 8d11 a03e
00000170: d520 733e 09ac b43e 2f7d ddbf 6955 ab3d
00000180: 526a 8fbe 407e 29bf df44 233f 8a48 07c0
00000190: 1043 ff3f 7d4b c1bc 7516 953f 6201 92be
000001a0: 1f28 f8be eb9b e13f 08e8 f7be 3c78 bfbf
000001b0: bed3 afbe 335c ea3e 5eb9 08be 3a88 d3bf
000001c0: 3198 69bf 7ba7 f9bf bbce ab3f 9588 c73e
000001d0: d26d ab3f 6972 6cbf 3654 d6be d149 bebe
000001e0: c2a5 043f 4934 b2bf 97f8 4e3f 32ae 713f
000001f0: b164 7dbe 945b bb3f 602c 163f 8345 503f
00000200: 7c64 f0be 398d bdbf e0f0 513e 9d56 3cbf
00000210: b684 b83f 9daa 713f b202 24be 8a17 433f
00000220: ed3d c1be e5a7 863e 1cac 053f fb97 66bf
00000230: db1c b5bc c0ff 40bd 0764 873e b9eb 583f
00000240: 5ab6 1bbf 17b9 873f 7d66 0240 b083 4f3f
00000250: 8b39 abbe de77 763f 5fc2 8abf bde2 a23f
00000260: 3022 28be 330c 203e e186 883e eaa0 5bbf
00000270: e308 14bf 4a77 4dc0 9070 b23f 5fc4 e43e
00000280: e504 75bf 58f5 0ebd 9516 37be 034b 93be
00000290: 2871 1d3f 5f52 09c0 bf14 f43f 0ec2 5d3e
000002a0: 9b6e 353f 0124 803f 5953 1240 ac93 e73f
000002b0: 019a b23d ebf1 babf 36fd 2bbf d3d2 5dbf
000002c0: c509 973e 7981 dfbf d805 96bf fe3d 0abd
000002d0: bcde d93d 1fb0 bd3e d9d5 483f 42f4 a13f
000002e0: 6c5c 9b3e ff52 11c0 9119 7cbf fe32 f13e
000002f0: 9abb 4cbe 58c6 2ac0 f123 19be 8ca6 403f
00000300: 7fc0 a9bf dea9 92bf e168 a4bf b20c 753f
00000310: 3d15 773e 26dd 28bf 9730 0a3e 4987 d3be
00000320: ce35 403f 6a38 f9bd f8f9 2a3e cb4c c8bf
00000330: adee c83e 435b 90be 490a 55bf b6da d0be
00000340: 5698 09bf d685 c0be c0b7 1d3f 48ce 6dbf
00000350: 81af 583f a14f c73f bd19 eebf 897c 523f
00000360: 456b f83d 5a48 9fbe 8907 00bf ca58 9ebf
00000370: cbfe be3d eecc 72bf ed78 44bf fb23 36bf
00000380: a64d 00bf ee18 14bf 03c8 9d3f 96d6 133e
00000390: a4d3 723f e23b 34bd 70e0 2fbf ece5 dc3f
000003a0: 0c5c 703e e457 eabe b2ab 0340 5245 283e
000003b0: 878c 66be 0f54 743e 0cd3 7ebe ffe1 1c3f
000003c0: 4568 91be 3f5f 783d cdfb d23f f7ec 193f
000003d0: 6419 883e 10ab b5bd d939 7b3e c041 d0bf
000003e0: d7d1 9a3f 16fd bc3e 7249 2bc0 fe34 89bf
000003f0: 99b1 5640 1135 d53c 3c43 a4be e5b9 243e
-1.2878028 1.4066159 1.2640098 0.68547964 0.05602791 0.0094665885 0.3092737 -0.6779184
-0.9313303 -0.5193131 -0.6077527 -0.55524886 -1.3103768 -0.5451635 0.4138926 -0.79789674
-0.69507426 -2.0688312 0.9029166 -0.7212392 0.25524318 -1.0727947 -0.11892946 -0.44168022
-1.3124816 -0.021074882 -1.2320031 -0.5497322 1.5809442 1.788519 -1.1443495 -0.67600906
1.7363737 0.86138856 -1.0754044 0.7010067 1.0746976 0.655875 0.94031173 0.19098425
-0.13084826 -0.3309183 0.9305262 -0.44719687 -0.4195514 0.9295054 0.49889132 -0.29387066
-0.0072248103 -0.82034624 1.0505437 -0.66747427 0.054856297 0.08039359 -0.20836021 0.54883045
-1.3920567 1.3268179 -1.928449 -1.5394682 -0.29757708 -0.472407 0.25535443 0.82112354
-2.372519 0.5971803 3.4177787 -0.058112092 -0.5167073 -0.8256757 2.4627235 -0.11656471
0.6592062 0.14732802 -0.21112646 0.71438116 1.1374503 0.24593385 0.6083322 0.17379026
-0.027826931 0.8689472 0.124095276 1.6636906 0.3542782 0.14516269 -1.6668605 -0.06166943
-1.987807 -1.1755121 -0.40374517 0.3126339 0.23742993 0.35287502 -1.7303828 0.083659
-0.28010803 -0.6620827 0.63776964 -2.1138024 1.9942341 -0.023595566 1.1647478 -0.2851668
-0.4846811 1.7625707 -0.48419213 -1.4958568 -0.34341234 0.45773467 -0.13351962 -1.6525948
-0.9124785 -1.9504236 1.3422464 0.3897139 1.339289 -0.92362076 -0.41861123 -0.37165692
0.51815426 -1.3922206 0.8084807 0.94406426 -0.24745442 1.4637322 0.5866146 0.81356066
-0.46951663 -1.4808723 0.20502043 -0.7356966 1.44155 0.9440096 -0.16016653 0.7620779
-0.37742558 0.26299968 0.52215743 -0.90075654 -0.022108486 -0.047118902 0.26443502 0.84734684
-0.6082512 1.060336 2.0375054 0.81060314 -0.3344234 0.9627665 -1.0840567 1.2725445
-0.16419291 0.15629654 0.26665404 -0.8579241 -0.5782606 -3.2104058 1.3940601 0.4468107
-0.95710593 -0.034901947 -0.17879708 -0.28768167 0.6150079 -2.1456525 1.9068831 0.21656057
0.70871896 1.0010988 2.2863371 1.8091941 0.0872078 -1.4605078 -0.67183244 -0.8664982
0.2949964 -1.7461387 -1.1720533 -0.033750527 0.10638186 0.37048432 0.78451306 1.2652667
0.3034395 -2.2706907 -0.9847651 0.47109216 -0.1999344 -2.668356 -0.14955117 0.7525413
-1.326187 -1.1458089 -1.2844507 0.95722497 0.24129196 -0.65962446 0.13495098 -0.41314152
0.750821 -0.12168963 0.16696918 -1.5648435 0.39244595 -0.28194627 -0.8321882 -0.40791863
-0.5374807 -0.3760211 0.61608505 -0.92892885 0.846428 1.5571176 -1.8601605 0.82221276
0.12129835 -0.31109887 -0.500115 -1.2370846 0.09325942 -0.9484395 -0.7674702 -0.7114865
-0.5011848 -0.5785054 1.2326664 0.14437327 0.9485419 -0.04400242 -0.6870184 1.7257667
0.23472613 -0.4577018 2.0573545 0.16432694 -0.22514544 0.23860191 -0.24885195 0.6128234
-0.28399864 0.06063771 1.6483094 0.60127205 0.26581872 -0.08870518 0.24533786 -1.6270065
1.2095288 0.3691184 -2.6763577 -1.0719297 3.3545897 0.02602628 -0.32082546 0.16086538

target_pos_embedding.weight f4 [1024, 8]
00000000: ee9e 3e3f bd2d 2140 34dc cbbe 035a 573e
00000010: 8132 f1bd 4bdf 2b3f 467c 2cbf a44f 3b3f
00000020: 5d16 8dbf d7f2 febe 2040 babf d3f9 acbe
00000030: 4d26 463f c56a c13f c8b0 193f 56ac 4c3f
00000040: 84a7 853f 7684 b23f 8fda 3b3f c64a 0c40
00000050: 927c bc3e 87e4 a63e a646 b9bf 68bc 973e
00000060: 4ca8 e6bc e95c 05be 29e8 f2be 9f7a a4bd
00000070: 33dc 57bf f3cb f33e 79be e5bf 1093 dd3e
00000080: a128 febe 46c6 2dbf 6ded c8be 3a84 a93f
00000090: d996 19bf e256 3d3f 5550 7fbe cef0 b33f
000000a0: 3710 df3d 45b3 b43f 0d6d 1fbf 38b3 60bf
000000b0: 1966 4d3f 0786 b93e af06 a6bf 45e3 5ebf
000000c0: 33b4 9abf 4275 233f e1ed a23f ff5a 1ebf
000000d0: 1200 84bf cd9e 2d3e 8705 973e e093 1e3f
000000e0: 24eb 78be efe8 b4be b39d d03f 77f7 8ebf
000000f0: dabd 6bbe 06f5 f1bf d7c5 d93c 9e58 5abf
00000100: 189c b1be 188b 57be afb5 2abe 2158 d43e
00000110: 2458 833e ace1 e43f 89c9 1f3e d642 68bf
00000120: 99f4 ca3f bdd3 fa3e 7a10 963f b121 973f
00000130: 21b9 1abf 9e9a febf 68d5 1e3f 9fe4 be3f
00000140: d76b b43f fd41 1dbf dee8 cd3d 9b9a 7d3e
00000150: 2596 45be 9910 1cc0 dcc9 94bb 57f4 63bf
00000160: 5596 30bf 2fdf 10c0 3500 df3e b384 5b3f
00000170: 274f 6d3f f66d 753e 972a c23e f7a3 8f3f
00000180: 9863 11bd 3fce d3be 83a0 173f 1a5b 3440
00000190: 6cfd 05bb f563 fbbf f75f 693e 4577 aa3d
000001a0: 9663 053f c54d e2bc dbda b03f d82c 1bc0
000001b0: ced8 943f 51ec 4abf aed5 11bd ad14 563f
000001c0: 5610 fd3e 7aee adbf 20bf 8b3e 9aa3 8dbf
000001d0: 0960 cbbe 8ea4 f6be a5bb 0abe 619f a9bf
000001e0: b2b3 063f d0d0 7b3f 329e 453f 18c7 993e
000001f0: 39d8 a4bf a48e 533f 3faf 93be 46ee 173e
00000200: 2daa a2be ee6a 62bc 29ac 3dbf 7ec7 b2bf
00000210: 1509 f3be 8987 e3bd 4092 533f 9844 78be
00000220: 553f 8ebf cc30 c93c 6c36 61bf 49af 833f
00000230: 0bae e2bf fe3b a9be 2c54 3f3f 19bc 2d3e
00000240: e11a b5bf 0ffa 523f 666b 44be 0903 02bf
00000250: 1e29 6b3f 9bf4 1d3d 5565 61bf 6ff4 25bf
00000260: 8dbe 9f3e d9ad 83be f3ab d33f 1877 7d3f
00000270: 2c09 503f 4936 c2bf b7c8 9abf 1b91 e93f
00000280: c2a0 2940 ab3e b3be 3444 7fbf 05e8 40bf
00000290: 68b0 dbbe a81c 11bf a108 dabd 8369 8ebf
000002a0: f8fc 253f 8202 0c3f 237f 983f f824 d0be
000002b0: 74e3 22be 904d 73bf 05df 973f 800a c13f
000002c0: 8379 e7be 2318 7e3f b0eb 18bf cb0c 8d3e
000002d0: 01f2 76bf 3016 8e3f 6eb3 5ebe 6bc9 90bf
000002e0: 78f6 7c3f 4bde 8abf 4a37 8bbf c741 51be
000002f0: c4ab 973f 6972 44bf 2ab8 f0be f6f0 313f
00000300: 4f3d 623f 080c 6f3f 9bfa 093f c062 713f
00000310: 4ca7 43be 8e27 f0be 2cbd 2ebf 01ed 9f3e
00000320: cf72 bb3e 95a8 0ec0 b7cd 39bf 8c4d fbbd
00000330: 99aa b33f 8954 1d3d 81c6 1e3f 9967 d83f
00000340: bfb6 8dbf 634a 793f a235 88be d1a8 1a3f
00000350: 7adf 30bf 1567 9d3f a09e 2fbe f2ae 283f
00000360: 41fa bebe cbdc f8bf 786a 193f f961 d73e
00000370: 2e94 9b3e f3fa b0bf 1f45 d4be 1ef4 dcbf
00000380: 73b7 be3d 2e1b f4bf 8ec7 713f a54d 8ebe
00000390: 4a15 c33d 3991 d3bc 6625 28bf 3c5b b6bf
000003a0: 415a 0640 77e8 8c3f 16ca d63e a72a 4e3f
000003b0: 7feb 83bf a804 3c3e 29d1 90bd c257 75be
000003c0: a6ec dd3e 9961 4cbf 7024 a33e 6b6d 8fbf
000003d0: c154 50be 80e8 ff3e 2ef6 483f a0d7 0f3f
000003e0: dae8 2f3f 1fee 6c3f 86db bdbd 7a78 7abf
000003f0: a742 d83e 5a77 06bf db4e 9fbc 0dd9 a2be
0.7446126 2.5184166 -0.3981644 0.2103043 -0.11777211 0.67137593 -0.67377126 0.73168397
-1.102245 -0.49794647 -1.4550819 -0.3378435 0.7740219 1.5110708 0.6003537 0.79950464
1.0441747 1.3946674 0.7338037 2.1920638 0.3681379 0.32596228 -1.4474685 0.2963593
-0.028156422 -0.13023724 -0.4744275 -0.080312006 -0.8432037 0.47616538 -1.7948753 0.43276262
-0.49640372 -0.67880666 -0.39243641 1.3243477 -0.599958 0.739607 -0.24932988 1.4057863
0.108917646 1.4117209 -0.62275773 -0.87773466 0.80233914 0.36235067 -1.297079 -0.87065536
-1.2086242 0.63850796 1.2728845 -0.618576 -1.0312521 0.16955109 0.29496405 0.6194439
-0.24308449 -0.35333964 1.6298126 -1.116927 -0.23021641 -1.89029 0.026583595 -0.8529147
-0.34689403 -0.21049154 -0.1667087 0.41473487 0.25653183 1.788137 0.15604223 -0.90726984
1.5855895 0.48989668 1.1723778 1.1807157 -0.60438734 -1.9890935 0.6204438 1.491352
1.409541 -0.61428815 0.100541815 0.24766009 -0.19295557 -2.438513 -0.004540665 -0.8904471
-0.6897939 -2.263622 0.43554845 0.8574936 0.926989 0.23967728 0.37923118 1.1221913
-0.03549537 -0.4136829 0.59229296 2.8180604 -0.002044524 -1.963988 0.22790514 0.0832353
0.5210508 -0.027624974 1.3816789 -2.424612 1.1628664 -0.7926684 -0.03560417 0.836253
0.49426526 -1.3588402 0.27294254 -1.1065552 -0.39721707 -0.4817242 -0.13548143 -1.3251764
0.52617943 0.983655 0.7719451 0.3003471 -1.2878486 0.8263953 -0.2884464 0.14836988
-0.3177046 -0.013819439 -0.7409082 -1.396713 -0.47467867 -0.11109836 0.82645035 -0.24244916
-1.1113077 0.024559401 -0.87973666 1.0287868 -1.7709364 -0.33053583 0.7473781 0.16966285
-1.4148828 0.8241281 -0.19181594 -0.5078588 0.91859615 0.038563352 -0.88045245 -0.648261
0.31200066 -0.25718573 1.653685 0.9900985 0.81263995 -1.5172817 -1.2092503 1.8247408
2.6504369 -0.3500875 -0.99713445 -0.75354034 -0.42908025 -0.5668435 -0.10646177 -1.112595
0.64839125 0.54691327 1.1913799 -0.40653205 -0.15907079 -0.95040226 1.1864935 1.5081329
-0.45209894 0.9925558 -0.5973463 0.27548823 -0.9646302 1.1100521 -0.21748134 -1.1311468
0.9881358 -1.0849088 -1.0876248 -0.20435248 1.1849294 -0.76737076 -0.47015506 0.695083
0.883748 0.93377733 0.5389802 0.94291306 -0.19106787 -0.46905178 -0.68257403 0.31235507
0.3661103 -2.2290394 -0.7257952 -0.1227065 1.4036437 0.038410697 0.6202164 1.6906615
-1.1071395 0.9737913 -0.2660342 0.60413843 -0.69091 1.2297083 -0.17150354 0.65891945
-0.37300304 -1.9442381 0.59928083 0.42066935 0.3038649 -1.3826584 -0.41458985 -1.7261999
0.09312334 -1.9070795 0.9444512 -0.27793613 0.09525545 -0.025826083 -0.65682065 -1.4246593
2.0992587 1.1008443 0.41951054 0.8053383 -1.0306243 0.18361151 -0.07071144 -0.23959258
0.4334461 -0.7983642 0.31863737 -1.1205267 -0.20344831 0.4998207 0.7850064 0.5618839
0.6871468 0.92550844 -0.092703864 -0.9784008 0.42238352 -0.52525866 -0.01944678 -0.31806222

encoder.layers.0.self_attn.in_proj_weight f4 [24, 8]
00000000: aa4d c4be 82ba 9bbe 8dc0 633c 2d44 aabe
00000010: 3e89 b4be af0d 773e 3e18 9ebe 61c1 c83e
00000020: d01f 03be 8329 20be 42b4 51bc 495a 60be
00000030: 1c80 b2be d1e3 5b3e 735c 343e ce80 6a3e
00000040: bca9 083e e8f8 07be fee1 f1bc 52e3 ef3c
00000050: f49a d5be 076a ba3d 5311 283e 8f77 d93e
00000060: d580 8ebd 1510 10be 013d cc3d 7186 c3be
00000070: cd9f 50be d5c8 cd3c cb02 9abe 6d66 d4bd
00000080: b591 1b3e 3342 c8be eb44 a3be 21bd e33d
00000090: 5222 4b3e b982 52be 72e1 95be 8707 54be
000000a0: 96da 8bbe a2e6 243e 4326 b73e 98fe a73e
000000b0: 21c2 36be 9893 f6bd ede9 dbbe 7acb 44be
000000c0: 56a0 0cbd ed38 b23e 1fdc b13e 62d9 a13d
000000d0: da09 61be 0eba 0bbe 83ca abbe e81f c0be
000000e0: cc0f ae3e ddac c33e 4856 abbe 4c9f b93e
000000f0: 14ee 053e adb2 083b b2e4 b8be fb96 e4bd
00000100: e274 85bd ccd5 b9be db56 d8be 65c3 233d
00000110: 436f 9e3e cf5b 6c3d 6899 523d f236 593d
00000120: 5e17 aa3e 4c89 8b3e ed4a 9b3e a9be 4ebd
00000130: e236 9d3e fb68 433e 9b23 b23e cfb5 ab3d
00000140: e700 dfbc 094a c13e 0b4d c6bd fafb f4bd
00000150: a7c0 85bd 736a 06bd baf3 d0be 7218 b7be
00000160: fd8f ae3e 5a7f 57be 1cfb 8e3e 2df9 1abe
00000170: 3493 2abe a437 82be 79ac d5be 7dbb d53c
00000180: 7117 cfbe b6e7 8b3e 87e3 b83e 42d5 a03e
00000190: 15d0 e53d 9fd5 c4be 235d e3bd 0859 83be
000001a0: 1b51 333e a0b6 9c3d ad23 d9bd 6a88 663e
000001b0: 3b7d c8bd 1d18 763d 817f c5be a59d 703e
000001c0: 2082 ba3e e430 b93d e862 34be 31b5 a8be
000001d0: b093 f63d 63c0 cdbe e3bb 8a3e 644e b83e
000001e0: 0945 6c3d fd68 f9bb 7c42 56be 6ab8 ab3e
000001f0: 6d18 8cbe fefa 1d3e c3ca 07bd 0689 5ebe
00000200: 5400 a0be 039a 263e e4a1 033e ff73 bd3c
00000210: c830 0abe fb6a 85be a270 563d 5295 e33c
00000220: f31e 6c3e e047 d4be dcdc 6abe a94c 1ebe
00000230: fc9c 34bd e064 9cbe ff22 87be a034 363c
00000240: 6310 78be 174c 79bd 50b6 ce3d bce0 6d3e
00000250: 7b85 c5bd 4f90 db3d 603f 0dbe d116 88bd
00000260: b51c 8c3c b438 cb3e ef67 9c3e 349d b43d
00000270: ca9d f63c 7966 9b3e fb4d b83e 104b 203e
00000280: e10a 86be a8f4 913c d0d9 cc3e d89f 033e
00000290: 023c db3d 5b59 babe 84a6 a73e ac0e dfbe
000002a0: b883 a23d b623 7fbd f2d9 c73e 5016 d6be
000002b0: e317 aabe 3d3f 83be b1f4 7fbe 5149 eabc
000002c0: 8b38 b83e d7e4 8c3e 18c0 343e 6aed 95be
000002d0: 9329 97bd 7b09 d33e 2d75 9c3e e3fc d6be
000002e0: 9b97 89be aed5 8abe 4b94 683d bc7b 863e
000002f0: e85d f23b a243 57be 28ca ef3d 8bda c53d
-0.38340503 -0.30415732 0.013900888 -0.3325514 -0.35260957 0.24126314 -0.3087787 0.39210036
-0.12805104 -0.15640835 -0.0127993245 -0.21909441 -0.34863365 0.21473624 0.17613392 0.22900698
0.13345999 -0.13278544 -0.029526707 0.0292832 -0.41719782 0.09102254 0.16412859 0.42474028
-0.069581665 -0.14068635 0.09972573 -0.38188508 -0.20373459 0.025120178 -0.30080256 -0.10371099
0.15192302 -0.39113006 -0.31888518 0.11120058 0.19837311 -0.20557679 -0.29273564 -0.20705996
-0.27315205 0.16103604 0.3577138 0.32811427 -0.17847492 -0.1203987 -0.4295191 -0.19218245
-0.034332596 0.34809056 0.34738252 0.079027906 -0.21976414 -0.13645193 -0.33552942 -0.37524343
0.33996427 0.38217822 -0.33464265 0.36254346 0.13079101 0.0020858452 -0.3611198 -0.1116161
-0.06516434 -0.36295927 -0.42253765 0.039981265 0.3094426 0.057704743 0.05141583 0.053030916
0.33220953 0.27253187 0.303306 -0.050474796 0.30705935 0.19083016 0.3479279 0.083842866
-0.02722211 0.37751797 -0.096826635 -0.11962123 -0.06530886 -0.03281636 -0.4081095 -0.35760838
0.3409423 -0.21044675 0.27925956 -0.15134116 -0.16657716 -0.25433075 -0.4173315 0.026090378
-0.40447572 0.2732522 0.3611109 0.31412703 0.11221329 -0.3844423 -0.11101749 -0.25653863
0.17511408 0.076520205 -0.10602508 0.22512975 -0.09789511 0.06008159 -0.3857384 0.23497637
0.36427402 0.09042528 -0.17615855 -0.32950738 0.12039888 -0.40185842 0.2709647 0.35997307
0.057683025 -0.0076113925 -0.209238 0.33539134 -0.27362385 0.15427777 -0.033152353 -0.21731958
-0.3125025 0.16269688 0.12854725 0.0231266 -0.13495171 -0.26058182 0.05235351 0.027781162
0.23058681 -0.41461086 -0.22935814 -0.15458931 -0.044095024 -0.30545712 -0.26393887 0.011120945
-0.24225001 -0.06086358 0.10093367 0.2323026 -0.096446 0.10720884 -0.13793707 -0.06644977
0.017103532 0.396917 0.30548045 0.088190466 0.030104537 0.30351618 0.35996994 0.15653634
-0.26180175 0.017816857 0.40009928 0.12853944 0.10704805 -0.36396298 0.3274423 -0.4356588
0.079352796 -0.062289916 0.39033467 -0.41813898 -0.3322135 -0.25634184 -0.24995686 -0.028599413
0.3598064 0.2751834 0.17651403 -0.29282695 -0.073809765 0.4121817 0.30558148 -0.41989812
-0.26873478 -0.2711615 0.05678205 0.26266277 0.0073964484 -0.21021894 0.1170848 0.096608244

encoder.layers.0.self_attn.in_proj_bias f4 [24]
00000000: da58 61b9 7a16 d9b6 f4c1 63b8 4e02 66b9
00000010: 7d61 4038 27c7 0539 ac46 7439 519c 8f37
00000020: be54 2437 e045 2834 416d 39b6 2a05 04b7
00000030: 4c74 1cb7 9e4b 76b7 aa42 1937 be49 9336
00000040: b0c6 54ba 389f e73a dc54 9aba a52f a63a
00000050: ba9b 9b3a 2f28 b63a 63bf 253a 7946 153b
-0.00021490772 -6.4697206e-06 -5.430165e-05 -0.00021935368 4.586716e-05 0.00012758058 0.0002329598 1.7119719e-05
9.794892e-06 1.567164e-07 -2.7630742e-06 -7.8690155e-06 -9.325402e-06 -1.4680349e-05 9.135032e-06 4.389526e-06
-0.0008116765 0.0017671352 -0.0011774558 0.0012678994 0.0011871972 0.0013897474 0.00063227693 0.00227776

encoder.layers.0.self_attn.out_proj.weight f4 [8, 8]
00000000: f686 60be 469b b8bd 1a9c 533e ef8b 4cbe
00000010: 6d58 c7bd b7db 533d 7d5d dc3d f32f b2be
00000020: af9c 893d 8e72 9e3e 166b fabd e2c1 953e
00000030: 005b 33bc 76c8 da3d 847f 25be f2b7 3fbe
00000040: 0504 b4be aa7b 863d 0ba1 a4bd 81de fa3c
00000050: 9d86 653e 74fd 463e 9be7 993e b4c8 bf3d
00000060: da3d dcbc 6ab8 4a3e af16 afbe 4b42 bbbd
00000070: 0f7f 19be 5337 84be 727b 843e e8a4 2dbe
00000080: a700 bb3d 50a9 7bbe eb26 09be 7cd9 44bd
00000090: 19c5 28be 0bb4 f2bd 439f fc3c e65c aabe
000000a0: 147e ddbd 085f 283e 0ca3 91be c49f a13e
000000b0: 4630 cfbd f1eb abbe 8293 933e 7be2 a7be
000000c0: a8d0 90be 39e6 603e 69e7 1fbe 3b8b 09be
000000d0: 453a a1be 5991 2bbe 77be 733e a001 d63d
000000e0: 17a2 8ebe 1c0f 31bd 2989 97be 49f7 333e
000000f0: 837d 7e3d 57b7 92be 1bdd 793c 4b06 debc
-0.21926484 -0.09013991 0.20665017 -0.19975255 -0.09733663 0.05172321 0.10760019 -0.34802207
0.06719338 0.30946773 -0.12227456 0.29249483 -0.010946989 0.10682766 -0.16161925 -0.18722513
-0.35159317 0.06566556 -0.08038529 0.030623676 0.22414632 0.19432622 0.30059513 0.09364453
-0.026884962 0.19796911 -0.34196994 -0.09143504 -0.14989875 -0.2582346 0.2587543 -0.16957438
0.09130984 -0.24576306 -0.13393752 -0.04805897 -0.16481437 -0.11850747 0.03083766 -0.33274
-0.10815063 0.16442502 -0.28444707 0.31567204 -0.10116629 -0.33578447 0.28823477 -0.32789978
-0.28284192 0.21962823 -0.1561562 -0.13432018 -0.3148977 -0.16754664 0.23803125 0.10449529
-0.2785804 -0.0432273 -0.29596832 0.175748 0.062131416 -0.28655502 0.01525047 -0.02710261

encoder.layers.0.self_attn.out_proj.bias f4 [8]
00000000: 187d 53bb e1de dc3a a6ba 493b 5fe4 39ba
00000010: 6735 b6ba 3588 77ba 7d5d dc3a 9c3a 44ba
-0.0032270607 0.0016851091 0.0030781417 -0.000709122 -0.0013901413 -0.00094425987 0.001681253 -0.000748554

encoder.layers.0.linear1.weight f4 [32, 8]
00000000: c1d1 8fbe fe02 193e 9f22 953e 9357 a93e
00000010: 95ad a03e b2ad 77be 967c 04be 93cd e13d
00000020: 6f6e 8ebd 0f0b c43d a3e0 4b3e 4010 213e
00000030: 9e50 5abe 1b66 973d 0e86 473d b088 85be
00000040: b441 663e f3bb 033d 4078 353e 4003 693e
00000050: e328 993c 8fe4 b4be 6b67 5cbe e859 d73d
00000060: 8615 493e be1b d5bd f0a9 833c 4081 e83c
00000070: ca10 dbbd 303b 91be ca5d 2a3e 2ba0 82be
00000080: 723f 7e3e 94f8 c53d e8c5 acbd 6cf9 dc3d
00000090: a03f 36bc debb 193e e66c 4bbe 2694 53be
000000a0: aff8 19be 796a 27be dd91 78bd 1569 533e
000000b0: a0f9 343e f830 b13e 9b90 71be 5f68 6c3e
000000c0: d17f 99be 0f88 6a3e 371c 0f3d 6940 91be
000000d0: d76e 313e fcd9 443e 929c 863e 0b0c e03c
000000e0: 4214 2dbc a4eb a5be 7db9 93be 3665 7b3e
000000f0: 212e 833e 39fd c13d 8bfb 703e 238e 36be
00000100: 90d8 063d ca67 4a3e 644a d43d c888 33bd
00000110: c82e 513d d2e6 7d3e 7bec a8be 9b0e 9c3e
00000120: 5e80 143d 52ce 733d 6d61 563d 73f8 4c3e
00000130: be38 823e 1366 873e c815 b33d c53d a13c
00000140: 6d54 43be 75cb 43be 4f94 a7bd 4dd6 633e
00000150: 7a5b b03e b36f 943e 0c0b 8e3d c74b b4be
00000160: 8a8d 003e a5dc a33e 5b8b 09be 152c 7b3e
00000170: 472f 7ebe f7e3 14be 317d 2abe dc52 133d
00000180: 58b0 9ebd 257b 0d3e 3300 8cbe c326 3f3e
00000190: 38f0 943e a8d0 943e 0140 92bd 72fd fabd
000001a0: 9d5f 7cbe 8b15 a13e cb5a 233e c3cc 843e
000001b0: 4288 fa3c 3b9b d0bd 5261 99be f71f 2fbe
000001c0: 2062 f93d 3a55 f9bd 6901 a23e e1c0 9bbe
000001d0: 2c6a 8abe e043 133e 2023 703d 6cac eb3d
000001e0: 9cc9 933d 8de3 9e3e a013 973c 30d2 643d
000001f0: ca53 f4bd ae1c 83be 9c53 e8bd beac 683e
00000200: fe7b 353e 463f 703e cede 8cbe b59c 5ebe
00000210: d4d6 cb3d 82a9 61be 82bd 453e 5326 86be
00000220: dcaf 4c3e 5652 953e d718 fbbd 704d 693e
00000230: 0d3d 103e 401a 2c3e a42c 0d3e aa3b 953d
00000240: a7d1 a0be e6bf d93c ddc6 4d3e b5b3 163e
00000250: 2985 ed3d 68db 9abd 6e71 52be 514c 05be
00000260: e843 ce3d f605 3c3d 8a02 c9bd 6d4a 59be
00000270: 9798 543e 8819 9e3e 4cde 443e 09a6 3abe
00000280: 9c55 afbe 8d18 883e 7874 063e 3ec0 95be
00000290: 208a 393c 727e 213e e602 213e 06da 6e3e
000002a0: 863a 9a3c f4bc 893d 047e 3c3e 592b 7a3e
000002b0: 316e e4bd 8d7f 83be d6fa 5cbc 3f44 2b3e
000002c0: 9b49 72be 7f82 a8be f2d9 57be 52f3 a1be
000002d0: 83d9 47be 1c5d 973e b047 8ebe 4b1a c8bc
000002e0: a424 2abe 6f28 37be 76ea 45bd 9298 22bc
000002f0: 8718 a7be 6b48 723c 032d 88be 5e11 113d
00000300: a476 c43d 303c 143e d621 263e a23e 81be
00000310: 4c4f 39be 4570 51be 6283 1e3e de2d 513e
00000320: 47e2 a03e e201 8ebe d5d4 5ebe 1294 59be
00000330: 0706 803e 4c44 4fbe ae3d 55be 52ef 3f3e
00000340: 4b43 29be de47 c6bd 2115 f63d 2d01 a3be
00000350: 2c04 8fbe 11dc ae3e 6214 9ebe fb3d 4ebe
00000360: 8a95 c8bd 045d 89be 3f8c 733e d236 6dbc
00000370: d7a4 753e d1d7 abbe 3e14 e73c 51df a8be
00000380: 6b36 983e 59b7 a13e d808 723d 92d1 083e
00000390: 4663 85be 956d 08be fcff a3be da18 483e
000003a0: c6e8 573e 480a abbe e34a 8b3e a81e 87be
000003b0: 8626 a5be 0f95 b2be 7a64 26be 312a 7bbe
000003c0: 05b6 833e 6089 6fbd 8ab1 3c3e 902c abbc
000003d0: 881e abbd 79c1 9b3e f455 d0bd 00ac 683c
000003e0: cb8d bebd 698f 29be 7af3 2abd 8ef2 d73d
000003f0: e092 b33e 633a b03c 37fe aebd 6192 9e3e
-0.28089717 0.14942548 0.29127976 0.33074626 0.31382433 -0.24187353 -0.12938151 0.11025538
-0.06954657 0.09572422 0.19909911 0.15728855 -0.21319816 0.07392522 0.04871183 -0.26080847
0.22486001 0.032161664 0.17721653 0.22755146 0.018696254 -0.35330626 -0.21523826 0.10515195
0.19637117 -0.10405682 0.016072243 0.028381944 -0.10696562 -0.2836547 0.1663734 -0.25512823
0.2482889 0.09666553 -0.08436185 0.10789761 -0.011123568 0.15013072 -0.1986576 -0.20661983
-0.15036272 -0.1634921 -0.06068598 0.20645554 0.1767335 0.34607673 -0.23590319 0.2308669
-0.2998033 0.22903465 0.034939017 -0.28369454 0.17327438 0.1922378 0.2629133 0.027349493
-0.010563912 -0.32406342 -0.28852454 0.24550328 0.2562113 0.094721265 0.23533456 -0.17827658
0.032921374 0.19766155 0.103657514 -0.043831617 0.051070005 0.24795082 -0.3299292 0.30479893
0.036255233 0.059522934 0.052339006 0.20016651 0.25433916 0.26445064 0.08744389 0.019682774
-0.19075175 -0.19120581 -0.081825845 0.22249718 0.3444479 0.2899147 0.06935701 -0.35214064
0.12553993 0.32004276 -0.13432066 0.24528535 -0.24822722 -0.14540087 -0.16649319 0.035967693
-0.07748479 0.13816507 -0.27343902 0.1866713 0.29089522 0.29065442 -0.07141114 -0.12255372
-0.24645849 0.31461748 0.15952604 0.2593747 0.03058255 -0.10185858 -0.29957062 -0.17102037
0.12176919 -0.12174459 0.316417 -0.30420592 -0.27034128 0.14381361 0.058627248 0.11507496
0.07216188 0.31032982 0.018441975 0.055864513 -0.11930044 -0.25607818 -0.11344072 0.22722146
0.1772308 0.23461637 -0.27513736 -0.21739466 0.099530846 -0.22037318 0.19310573 -0.26201114
0.1998896 0.2916438 -0.12260597 0.22783446 0.14085789 0.16806889 0.1378656 0.07286771
-0.31409952 0.026580762 0.20095392 0.1471699 0.11597664 -0.0756138 -0.20551082 -0.13017394
0.10071546 0.045904122 -0.098149374 -0.21219797 0.20761333 0.30878854 0.19225425 -0.182274
-0.34245002 0.2658123 0.13130367 -0.29248232 0.0113244355 0.15770891 0.15723762 0.23325357
0.018826734 0.06725493 0.18407446 0.24430598 -0.1115383 -0.2568325 -0.013487538 0.16725253
-0.23660891 -0.3291206 -0.21079233 -0.3163095 -0.19516568 0.29563224 -0.27789068 -0.0244266
-0.1661554 -0.17886518 -0.048319302 -0.009924071 -0.326359 0.014787774 -0.2659684 0.035416953
0.095929414 0.14476085 0.16223845 -0.25243098 -0.18096656 -0.20452984 0.15479806 0.20427653
0.31422636 -0.2773581 -0.21760876 -0.2124789 0.25004598 -0.20240897 -0.2082431 0.18743637
-0.16529576 -0.09681676 0.12015749 -0.31836835 -0.2793287 0.34152272 -0.30874926 -0.20140831
-0.09794147 -0.26828778 0.23783968 -0.014478402 0.23988663 -0.33563092 0.028207894 -0.32982877
0.29729018 0.31585196 0.059090465 0.13361195 -0.26052302 -0.13323052 -0.32031238 0.1954073
0.2108489 -0.3340628 0.27205572 -0.26390576 -0.32255954 -0.34879348 -0.16249266 -0.24527813
0.25724807 -0.05848062 0.18427101 -0.020895272 -0.08355433 0.30421045 -0.10172644 0.014201164
-0.093043886 -0.16558613 -0.041736104 0.105443105 0.35072994 0.021512216 -0.085445814 0.30971053

encoder.layers.0.linear1.bias f4 [32]
00000000: 0323 8a3e 29da aa3e ca79 a13c a0db 18bc
00000010: 3d2e 48be 2482 1c3e 5896 6dbe c785 883d
00000020: cb9a 56be 2e77 aa3e 0a83 7fbd 439b 883e
00000030: 4622 a53e 3a28 d43d 337c 06be 81d5 b0be
00000040: 7043 e3bd bc15 8e3e 3462 abbe 95e4 813e
00000050: 96d7 96be b53c 21be 48c0 47be f547 94be
00000060: a757 a43e 971e 53be e876 edbd c6ab 5dbe
00000070: f060 aa3d 7f21 813e 04fe d9bd 7bcd ba3d
0.26979837 0.33369568 0.019711394 -0.009329706 -0.19548889 0.1528402 -0.23201883 0.06666141
-0.20957486 0.33294052 -0.062380828 0.26680955 0.3225271 0.10359235 -0.13133316 -0.3453789
-0.11096847 0.27750957 -0.3347336 0.25369707 -0.29461354 -0.15745814 -0.19506943 -0.2896115
0.32098123 -0.20617138 -0.11594945 -0.21647558 0.083192706 0.25220868 -0.10644153 0.091212235

encoder.layers.0.linear2.weight f4 [8, 32]
00000000: 519a e93d aade bfbb f771 db3d 3ff2 e6bd
00000010: 0c70 09bd cbdd 2dbe e3f6 c5bd 3579 f7bd
00000020: 14d5 42bd 8215 de3d e47c 0f3e 0c8b f73d
00000030: 9ee5 04be a430 853d eabc f1bd 00aa 2d3c
00000040: c653 9f3d 1908 113e cf9f f5bd f04a 09bd
00000050: 40c1 bfbb 11cd b2bd 394b 20be af5e c0bd
00000060: 5833 12bd 441c 373d c8bc b23d 8d27 543d
00000070: 1edc 89bd 686d ebbd a446 04be aa9d 02be
00000080: 6731 ea3d 6307 2dbe 9f51 d3bd 0e50 a83d
00000090: b029 70bc fae9 c1bd 5eef 273d 99f7 9f3d
000000a0: a88b b8bc ac26 af3d 4cf1 0d3e fe42 9abd
000000b0: 48b4 11be d591 133e 663a 9f3d 96de e63d
000000c0: c20a e33d 810a 2bbe 4e42 3d3d e11b d53d
000000d0: e464 683d 6ad7 283e b445 683c f488 1fbe
000000e0: 1fec 2d3e c0bd 28bc 8b76 14be 1341 ee3d
000000f0: 40f6 02bd 54b7 563d c683 0abe 6039 a7bd
00000100: 6bad 3d3d a532 b53d ce52 f43d a08a f4bd
00000110: 0454 12be 5587 a6bd 9ccb 1bbe f0ae e5bd
00000120: d0ea cf3c 723e 223e 08b9 d3bd fb60 9dbd
00000130: 38cf d73c 9b9f c3bd 2b17 e3bd 6786 9abd
00000140: 7b97 0dbe 19e6 88bb 2dcb 4cbd 1dc6 ddbd
00000150: 608a ea3c 2a79 2bbd 3e01 b1bc bc3a c8bd
00000160: 2cab 9cbd 40b7 263b 2d70 f63c 338e 7cbd
00000170: 24af 643d 185b 9cbc c0eb 0f3b 8f20 04be
00000180: 0957 fcbd e067 653c 6676 9fbc 21db 283e
00000190: 6074 483d 7f66 f5bb 9c72 05be 43bb a73c
000001a0: c25f 9d3d 1bdf aabd c166 c83d 5015 953d
000001b0: 838b 1a3e b9a3 87bd cad5 ec3d 8dd9 8ebd
000001c0: 5858 7cbd c5f7 2bbe 3276 1b3d f196 95bd
000001d0: 4647 9f3d 21b0 d7bd 52e0 273e c655 623d
000001e0: 1a7d a2bd a369 1abe c58f ac3d 630f 293d
000001f0: 6da5 d7bd f408 40bd b044 93bc a5e6 f7bd
00000200: 8272 f1bd dab0 823c defe e13c 1a68 efbd
00000210: 66c3 9c3d 4304 d9bd 0416 9bbd bd85 32be
00000220: 1607 f7bd 41a2 213e 6c17 14be e8b6 ecbb
00000230: 422c 3abd a75c c3bd 9694 c53d 38e6 97bc
00000240: 743d 8a3d 8233 2b3d 11f0 49bc 5e67 c5bd
00000250: 582d 39bd b2f5 8fbd 02dc e5bd d4ba 8a3d
00000260: 2636 b03d 9ecf db3d 94c4 63bd 5860 253d
00000270: 02a3 d73d 502c ad3c 5e4f d1bd 620a 91bc
00000280: 33e9 003c f419 4ebd 40dd dd3d 7843 853d
00000290: 4d6a 023e 80b2 f03c 9071 a0bd f8cb d13d
000002a0: f03a 90bd 3bf4 febc 93d8 1a3e 23b4 16be
000002b0: e85c 8ebd 83e2 af3d b8b7 22be 019f 023e
000002c0: 99a5 14be 1e18 95bd 7995 443c 8ead 4d3c
000002d0: f67c 983d eae1 4c3c 8ce6 f73c 8ac5 303e
000002e0: a009 373d 1f71 20be 59ab b2bb a278 0dbe
000002f0: bce0 0d3d cc71 31bd 63a3 e9bd 171c 96bd
00000300: a61a bcba de5c a23d 5d1e f93d ba29 9e3d
00000310: 9214 b23d 5864 0b3e 3505 bbbd 189e a1bd
00000320: a65a cf3d 0a86 8f3c 9fb5 15be f126 d03d
00000330: ca3f 7dbc 0858 08be 6a71 d33d e02f 793d
00000340: 2db6 263e 675a 4fbd 67a5 84ba 8d70 31bd
00000350: 03e1 c4bd fe3e 44bd 290d e0bd c180 203e
00000360: 0873 2a3d b4dd 0dbe dd74 e93d e633 6ebb
00000370: dcc1 283d 825f bd3d f95b 2b3e 16ba f23d
00000380: 1049 2ebe dc29 263e eeab 2fbe 9360 123e
00000390: 6004 d0bd 07a0 06be 7a77 b83d 15b2 04be
000003a0: 0864 85bd aac7 9bbc d6f2 28bd 22c5 69bc
000003b0: 5007 d0bc 8032 01be b0a0 2c3c 5b85 bbbd
000003c0: c7b1 e8bd 6461 3bbe 4a68 f5bd 665f 14be
000003d0: f60e ec3d f9c5 cd3d a3d7 51bd 74a7 98bd
000003e0: 18f4 e2bc 5498 273d 8306 193e 9824 943d
000003f0: 60e2 06be bd4f 24be 8dca 263e c909 c93d
0.11406387 -0.005855401 0.107150964 -0.112766735 -0.03355412 -0.16979139 -0.096662305 -0.12083665
-0.04756649 0.10843946 0.14012486 0.12087068 -0.12978217 0.06503418 -0.118036106 0.010599613
0.077796504 0.14163245 -0.11993372 -0.03351873 -0.0058518946 -0.087305196 -0.15653695 -0.093930595
-0.035693496 0.04470469 0.087274134 0.05179553 -0.06731437 -0.11495477 -0.12917572 -0.12755457
0.11435204 -0.16897349 -0.10318302 0.08218394 -0.014658377 -0.094684556 0.040999763 0.078108974
-0.02252753 0.08552298 0.13861579 -0.07532309 -0.14228928 0.144111 0.077748105 0.11272924
0.11086036 -0.16703226 0.04620581 0.10405708 0.05673684 0.16488424 0.014176775 -0.15579587
0.16984604 -0.010299146 -0.14498346 0.11633506 -0.031973124 0.05242093 -0.1352683 -0.0816524
0.046307962 0.0884755 0.11929856 -0.11940503 -0.14289862 -0.08131281 -0.1521439 -0.11215007
0.025380522 0.15844133 -0.10338026 -0.07684513 0.026343927 -0.09551927 -0.11088403 -0.075451665
-0.13827316 -0.0041778204 -0.04999845 -0.10828803 0.028630435 -0.041863598 -0.021607038 -0.09776828
-0.07649836 0.0025438815 0.030082786 -0.06165905 0.05583109 -0.019086406 0.0021960586 -0.12903045
-0.12321288 0.0140018165 -0.019465636 0.16489841 0.04893911 -0.007489025 -0.13032001 0.020475036
0.0768428 -0.08343335 0.09785224 0.07279456 0.15092282 -0.066230245 0.115642145 -0.06975088
-0.06160769 -0.16793735 0.037954517 -0.073041804 0.07777266 -0.10531641 0.16394165 0.05525758
-0.079340175 -0.1507936 0.08425859 0.04127444 -0.10529599 -0.04688354 -0.017977089 -0.12104539
-0.11789419 0.01595347 0.02758735 -0.11689778 0.07654457 -0.10596516 -0.075725585 -0.1743383
-0.120618984 0.15784551 -0.1446206 -0.0072239526 -0.045452364 -0.095391564 0.09647481 -0.018542394
0.067500025 0.04179717 -0.012325303 -0.09638856 -0.04520926 -0.070292845 -0.11223604 0.06773916
0.08604078 0.10732959 -0.055607393 0.040375084 0.10529138 0.021139294 -0.10220216 -0.017705146
0.007868099 -0.05031772 0.10833216 0.06507009 0.12735863 0.02938199 -0.0783416 0.10243982
-0.070424914 -0.031122318 0.15121679 -0.14717154 -0.06951314 0.085881256 -0.15890396 0.12755968
-0.14516295 -0.072799906 0.011998528 0.012553586 0.074457094 0.012505034 0.0302613 0.17262855
0.044686913 -0.15668152 -0.005452555 -0.13815549 0.03463815 -0.043321416 -0.11408117 -0.073295765
-0.0014351204 0.07927869 0.121639945 0.077228025 0.0869533 0.13612497 -0.091318525 -0.07891482
0.10124712 0.01751997 -0.14620064 0.101636775 -0.015457103 -0.13314831 0.103243664 0.060836673
0.16280432 -0.050623324 -0.0010120095 -0.043320227 -0.0961323 -0.047911637 -0.1094001 0.15674116
0.04161361 -0.13854104 0.11399243 -0.0036346852 0.041200504 0.09246732 0.16734304 0.11851899
-0.17020059 0.16226906 -0.1715543 0.14294653 -0.101570845 -0.13146983 0.09007163 -0.12958558
-0.0651322 -0.019016106 -0.04124721 -0.0142681915 -0.025394112 -0.1261692 0.010536358 -0.09156295
-0.11362033 -0.1829887 -0.11982782 -0.14489517 0.11526291 0.10047526 -0.051231038 -0.07453814
-0.027704284 0.040916756 0.1494389 0.07233542 -0.13172293 -0.16046043 0.16288204 0.098163195

encoder.layers.0.linear2.bias f4 [8]
00000000: 6199 f03c a262 1dbe 779e 0e3e ff99 eabc
00000010: 5154 c3bb 1bff a6bc 9aff 9b3d 3f0b 9dbd
0.029370012 -0.15369657 0.13927637 -0.028637884 -0.005960979 -0.020385316 0.076171115 -0.07668161

encoder.layers.0.norm1.weight f4 [8]
00000000: 03e4 803f 4d49 7e3f 1f37 7e3f 021b 7e3f
00000010: fa1f 7e3f 867b 7e3f 20b5 7e3f 0d99 7e3f
1.0069584 0.993306 0.9930286 0.9925996 0.9926754 0.9940723 0.99495125 0.99452287

encoder.layers.0.norm1.bias f4 [8]
00000000: 2d74 e4bb ee8c da3b 3d59 e13b fcf9 e5bb
00000010: 40fa e7bb 620e c9bb f909 e43b 001d cfbb
-0.006971857 0.006669632 0.006877093 -0.007018326 -0.0070793927 -0.006135748 0.0069591966 -0.0063205957

encoder.layers.0.norm2.weight f4 [8]
00000000: 83e2 803f 6b43 7e3f 112c 7e3f 354e 7e3f
00000010: 0858 7e3f a563 7e3f 91bc 803f 26ab 803f
1.0069126 0.9932162 0.9928599 0.99338084 0.99353075 0.99370795 1.0057546 1.005223

encoder.layers.0.norm2.bias f4 [8]
00000000: adae e3bb 6a02 dd3b a946 e23b a41c d4bb
00000010: 226c e6bb f954 cfbb 4185 e63b 2c1b dabb
-0.006948313 0.0067446725 0.006905396 -0.006473141 -0.0070319334 -0.006327268 0.007034928 -0.006656071

encoder.layers.1.self_attn.in_proj_weight f4 [24, 8]
00000000: ee0d c6be 1671 9dbe 11a9 443c 145a a8be
00000010: dc6e b3be fb1b 7a3e 7ba2 9ebe e611 c83e
00000020: a841 02be b252 1fbe 17d3 4dbc 322e 61be
00000030: 60f8 b2be 5e06 5b3e ee00 353e 47cf 6a3e
00000040: 115b 0b3e 8b67 05be 19ac eabc 9c05 d83c
00000050: d943 d6be f22c b63d f8f0 273e 06ad d93e
00000060: 4219 94bd 5cc2 12be 110b ca3d b506 c2be
00000070: 4ac5 4ebe 8241 e13c c394 9abe 47c9 d5bd
00000080: 9096 193e 8735 c9be 3af4 a3be 865d e83d
00000090: 2a9a 4b3e 4bc7 50be a71b 95be 7954 54be
000000a0: 2483 89be 1767 293e 6739 b83e f283 a53e
000000b0: 8bb4 39be d099 febd 7157 dbbe 2b19 43be
000000c0: c5b9 03bd a776 b33e 576a b23e 731f 9d3d
000000d0: 2c4a 63be 0b12 0ebe 31b1 aabe 6b86 bfbe
000000e0: e9e4 af3e ff6f c53e 989b aabe 49a7 b73e
000000f0: 491a 043e 6f01 2aba 8db4 b8be 5eda e2bd
00000100: ea98 80bd e7e3 babe 90ef d8be 12a8 223d
00000110: 8d16 9f3e f10c 643d 7cc9 4e3d 846c 5e3d
00000120: 489a a93e 0bba 8b3e 2895 9b3e 9438 4dbd
00000130: 5f3c 9d3e ed5e 443e 226a b23e b938 ab3d
00000140: c2cb eabc ebe3 c13e 03b4 c4bd 3bbf f4bd
00000150: 66c2 86bd a820 00bd ad7b d0be 3f80 b7be
00000160: 7760 ad3e 9b34 55be 69a2 8f3e 379e 1abe
00000170: 9b0b 2cbe 4d19 81be 1c49 d5be f8f6 c93c
00000180: b657 d0be 4bdc 883e 3c1c ba3e f025 a13e
00000190: ad53 ec3d 56ae c4be 5acf dcbd e09d 83be
000001a0: 03d0 303e 55de 903d 1ce5 d4bd fc1e 673e
000001b0: a6b4 c1bd 2e45 783d 91f2 c3be 0f4e 703e
000001c0: 3be5 bb3e f0e4 c53d 9254 37be 240c a9be
000001d0: 58f4 ef3d f8a4 cdbe a102 893e 4b9b b83e
000001e0: 8b79 753d d95f 48bb 56db 57be 497f ab3e
000001f0: 2f83 8dbe 4604 1d3e ef12 11bd 9e5d 5ebe
00000200: 7a46 a0be a40c 263e 2bad 023e ed89 c03c
00000210: 04a7 08be 2914 85be 9ae4 323d e6f7 cb3c
00000220: 650a 6c3e 795d d4be 507b 6bbe 7b1e 1ebe
00000230: 1dce 33bd 1b4b 9cbe 8fb5 80be e31c 373c
00000240: 6b77 78be 079d 7abd 72fe cf3d d731 6e3e
00000250: e7de c4bd a016 dc3d 6fbc 19be 8175 88bd
00000260: c043 8c3c 4e30 cb3e 0fff 9b3e 8ac7 b43d
00000270: ad73 f73c 7b77 9b3e 5496 be3e 6c48 203e
00000280: 6a14 86be 3285 903c 7c7a cc3e 61d4 033e
00000290: 0868 db3d fe3e babe e063 ad3e e2cd debe
000002a0: c6b5 a23d 552a 7fbd c49d c73e c412 d6be
000002b0: 411d aabe bb3b 83be 1576 74be a04b e5bc
000002c0: 820d b83e 5cbe 8c3e 43e3 333e d2bd 95be
000002d0: c09d 97bd f537 d33e 0091 a13e 5ade d6be
000002e0: af93 89be f8dd 8abe c692 673d f085 863e
000002f0: cc99 f43b ad2e 57be b69d 043e 88e7 c63d
-0.38682503 -0.3075034 0.012003199 -0.32881224 -0.35045516 0.24424736 -0.30983338 0.39076155
-0.12720358 -0.1555889 -0.012562535 -0.21990278 -0.3495512 0.21389148 0.17676136 0.22930633
0.13608958 -0.1302778 -0.028646516 0.026369862 -0.4184864 0.088952914 0.16400516 0.4251482
-0.0723138 -0.14331955 0.09865392 -0.37895742 -0.20192447 0.027497057 -0.3019162 -0.10438781
0.14998841 -0.3929865 -0.32022268 0.11345963 0.19883028 -0.20388524 -0.2912266 -0.20735349
-0.26857865 0.16543232 0.35981295 0.3232723 -0.18135278 -0.12431681 -0.4284015 -0.1905257
-0.032159586 0.35051462 0.34846756 0.07672014 -0.22196263 -0.1387407 -0.3333831 -0.3740724
0.34354332 0.3856201 -0.33321834 0.35869816 0.12900652 -0.0006485199 -0.3607525 -0.110768065
-0.06279166 -0.36502 -0.42370272 0.039711066 0.31071892 0.055676404 0.05048512 0.054302707
0.3312552 0.27290377 0.30387235 -0.050102785 0.30710122 0.19176836 0.34846598 0.08360428
-0.028661612 0.378692 -0.09604647 -0.11950537 -0.06580047 -0.031281143 -0.40719357 -0.35840032
0.3386266 -0.20820849 0.28053597 -0.15099417 -0.16801302 -0.25214615 -0.4165734 0.024653897
-0.40691918 0.2673057 0.36349666 0.31474257 0.115393974 -0.38414258 -0.10781737 -0.25706387
0.1726685 0.070736565 -0.10395262 0.22570413 -0.09458284 0.06061285 -0.38271 0.23467277
0.36698326 0.09662807 -0.17903355 -0.33017075 0.11716527 -0.40164924 0.26759818 0.3605598
0.059930366 -0.0030574708 -0.21079764 0.33495548 -0.27639148 0.15333661 -0.035418447 -0.217154
-0.3130377 0.1621576 0.12761371 0.023503268 -0.13344961 -0.25991943 0.043675043 0.02489848
0.2305084 -0.41477564 -0.22996259 -0.15441315 -0.043897737 -0.3052605 -0.25138518 0.011176321
-0.24264304 -0.06118491 0.101559535 0.232612 -0.09612828 0.10746503 -0.15013288 -0.06663037
0.01712215 0.3968529 0.30468032 0.088271216 0.030206526 0.30364594 0.37224066 0.15652627
-0.2618745 0.017641637 0.39937198 0.12873985 0.10713202 -0.36376184 0.3386526 -0.4351645
0.07944827 -0.06229623 0.38987553 -0.41811192 -0.33225444 -0.25631508 -0.2387317 -0.027990162
0.35947806 0.27488983 0.17567162 -0.29246384 -0.07403135 0.4125363 0.3155594 -0.41966516
-0.26870486 -0.27122474 0.05653646 0.2627406 0.007464623 -0.21013899 0.12950787 0.0971213

encoder.layers.1.self_attn.in_proj_bias f4 [24]
00000000: fe0d eb3a ba8f 0739 a11c f0ba 0950 6f3a
00000010: 803e 483b 5651 09bb 5607 4e38 b3e9 ffba
00000020: b63b 50b3 b997 e4b1 3ace 7332 6191 8533
00000030: db42 0b32 8200 6731 3bb3 28b2 4435 a6ae
00000040: dccc c4bb 488c e43b 4605 e2bb 789c e43b
00000050: 5193 e03b c099 d83b b1e8 e53b 8abc e23b
0.0017933247 0.00012928146 -0.0018319079 0.00091290526 0.003055483 -0.002095302 4.912106e-05 -0.0019524604
-4.848308e-08 -6.652922e-09 1.4191352e-08 6.2197394e-08 8.106066e-09 3.3615213e-09 -9.819639e-09 -7.558268e-11
-0.0060058665 0.0069747306 -0.0068976013 0.0069766603 0.006853499 0.0066101253 0.0070162644 0.0069194483

encoder.layers.1.self_attn.out_proj.weight f4 [8, 8]
00000000: 127c 5dbe 69bd b8bd 8daa 533e a75d 4cbe
00000010: af53 c6bd 1bd5 533d 0d44 dc3d 5827 b2be
00000020: c631 813d 934f 9e3e ba01 fabd 0a76 953e
00000030: 2cb5 37bc 3357 da3d 89a8 25be 3591 3fbe
00000040: e36f b5be cb97 863d f7a1 a4bd 65de f83c
00000050: 78f8 643e a3ef 463e 92e6 993e 4fc0 bf3d
00000060: 0412 e3bc 1a0c 463e d831 acbe d52a c5bd
00000070: b8be 14be 4248 87be 125f 813e e497 27be
00000080: 34bf c03d 76a6 7abe 5b41 0abe e022 42bd
00000090: 6e2b 29be 687f f0bd 3190 023d 53e2 aabe
000000a0: a246 e3bd e44e 223e 15ff 8dbe 7f1b 9e3e
000000b0: 5667 c4bd 0cc8 afbe 1fbd 8f3e 8c26 a4be
000000c0: e664 92be e30b 613e 26ff 1fbe f68c 09be
000000d0: 51b2 a1be 2f79 2bbe 43e7 733e 19a6 d53d
000000e0: aa6c 8cbe 727b 2ebd 4bb4 97be 43bc 343e
000000f0: 3b83 7e3d 2f87 92be 9cbd 7e3c 2b9d e0bc
-0.2162936 -0.09020502 0.20670529 -0.199576 -0.0968393 0.051716905 0.10755167 -0.34795642
0.06308322 0.30920085 -0.122073606 0.2919162 -0.011212628 0.10661163 -0.16177572 -0.18707736
-0.35436925 0.06571921 -0.08038705 0.030379483 0.22360408 0.19427352 0.30058724 0.09362852
-0.027718551 0.19340554 -0.33631778 -0.0962731 -0.14525878 -0.26422316 0.25267845 -0.16366535
0.09411469 -0.24477562 -0.13501494 -0.04739654 -0.16520473 -0.11743051 0.031875793 -0.33375797
-0.110974565 0.15850407 -0.27733675 0.30880353 -0.09590022 -0.3433231 0.28073975 -0.3206066
-0.28592604 0.2197719 -0.15624675 -0.13432679 -0.31581357 -0.16745447 0.23818688 0.10432071
-0.27426654 -0.042598195 -0.2962974 0.17649941 0.06213687 -0.28618762 0.015548136 -0.027418694

encoder.layers.1.self_attn.out_proj.bias f4 [8]
00000000: 1ef0 e3bb 8cef dd3b 6e60 e23b 52db d6b8
00000010: 9487 f8bb 87c4 b83a c1a5 db3b 4500 dabb
-0.0069561144 0.006772941 0.006908468 -0.00010245167 -0.0075845215 0.0014096656 0.006703109 -0.006652864

encoder.layers.1.linear1.weight f4 [32, 8]
00000000: 09d8 8fbe 30d7 183e 36c4 943e ec64 a93e
00000010: c1c4 a03e bd4c 77be 24af f8bd 8d43 e23d
00000020: b60c 88bd 4757 ca3d c28d 523e fbf9 1d3e
00000030: fd7d 5ebe d18b 8f3d 9e6f 2e3d 2825 88be
00000040: 57e2 643e f01c fb3c af12 353e 6c2e 6b3e
00000050: da20 9f3c 80a6 b4be c0cb 5cbe b6a6 d73d
00000060: 961a 493e 970f d5bd 10ad 833c b527 e83c
00000070: 4814 dbbd ea3c 91be 685d 2a3e 879d 82be
00000080: 4a79 7e3e b4ba c63d e675 acbd 0cfe db3d
00000090: acc2 37bc 936b 193e 044f 4bbe 4b75 53be
000000a0: 2fd7 19be 0f7e 27be 0ded 78bd 095d 533e
000000b0: 46e9 343e 3130 b13e 47af 66be fc62 6c3e
000000c0: 4266 99be 6bfb 6a3e 3800 143d f25e 91be
000000d0: c6c3 303e 16ef 433e 7178 863e 39fc dd3c
000000e0: 79d8 36bc 140d a6be 6ae9 94be 1dd2 7b3e
000000f0: b697 833e 53a2 c33d b940 7a3e 9b40 35be
00000100: 783a 063d 704d 4a3e 29ff d33d 5e23 33bd
00000110: 9839 513d 131a 7e3e f0e7 a8be aa18 9c3e
00000120: 1852 223d 1692 803d aa25 6c3d 8440 493e
00000130: c6a3 803e 7459 853e 3b07 ba3d 505f 823c
00000140: 609f 43be 8509 44be fe31 a9bd c71e 643e
00000150: 3a88 b03e a7da 943e dafa 713d 84ff b3be
00000160: 62ef 033e e66c a53e 1c8e 06be 50a1 773e
00000170: 4733 80be eeff 17be 55fd 2abe ccfc 0c3d
00000180: 810e 9cbd 3bcf 0e3e d84d 8cbe f035 3e3e
00000190: 95be 933e ef8f 943e ca4e 83bd 5a35 fdbd
000001a0: c2f5 7dbe 74ee 9f3e dffe 1f3e 72a2 853e
000001b0: 27ff 083d e29e c9bd 2e45 9cbe 567c 2bbe
000001c0: 2062 f93d 3a55 f9bd 6901 a23e e1c0 9bbe
000001d0: 2c6a 8abe e043 133e 2023 703d 6cac eb3d
000001e0: 9cc9 933d 8de3 9e3e a013 973c 30d2 643d
000001f0: ca53 f4bd ae1c 83be 9c53 e8bd beac 683e
00000200: fe7b 353e 463f 703e cede 8cbe b59c 5ebe
00000210: d4d6 cb3d 82a9 61be 82bd 453e 5326 86be
00000220: 1d98 4c3e f641 953e 23ac f9bd 0359 693e
00000230: ea95 103e 5be9 2b3e 173a 013e 2e00 953d
00000240: 19ae a0be 2b16 db3c 2ab0 4d3e 1877 163e
00000250: 9407 ed3d a94f 9bbd 1c82 49be f5f5 05be
00000260: e869 c93d 6529 313d e3ec d0bd 03dd 56be
00000270: 3caf 573e 4395 9f3e 56b1 4a3e d543 37be
00000280: 2413 afbe 4e54 883e 3ddb 063e bc0c 96be
00000290: a89e 353c 5e7d 213e d9df 203e 51ca 6d3e
000002a0: 0fae 983c a7b8 893d 391b 3b3e e387 7a3e
000002b0: 5ca4 e5bd a175 83be 90ac 54bc 8741 2c3e
000002c0: 29a6 72be 6eb4 a8be 69b5 59be 32b5 a1be
000002d0: 8be4 47be f2f4 973e ea46 89be bdaf c1bc
000002e0: 0135 2abe 025b 37be 7d03 3bbd d017 21bc
000002f0: 0070 a6be 1590 663c c9c5 8abe 9e8b 133d
00000300: a476 c43d 303c 143e d621 263e a23e 81be
00000310: 4c4f 39be 4570 51be 6283 1e3e de2d 513e
00000320: 247c a13e 8e34 8dbe e8e6 5dbe f000 5bbe
00000330: 6add 7e3e 2dd9 4fbe 614b 55be bd33 3f3e
00000340: b9da 27be 5481 c2bd de69 fa3d e71a a4be
00000350: 1752 8fbe 62c5 ad3e 4c74 9ebe a3ed 4dbe
00000360: 5e23 c9bd 8657 89be db7a 723e eed6 6ebc
00000370: 28da 763e d067 abbe d267 b33c 1a01 a8be
00000380: 6b36 983e 59b7 a13e d808 723d 92d1 083e
00000390: 4663 85be 956d 08be fcff a3be da18 483e
000003a0: d8d6 573e e82b abbe 3d4a 8b3e 4012 87be
000003b0: ae0f a5be da97 b2be 7e47 26be 5e29 7bbe
000003c0: c285 833e 37e8 70bd 0295 3c3e fb89 a6bc
000003d0: c3df aabd a7fa 9b3e aaed d0bd a6e8 653c
000003e0: 8fa9 aebd 4a52 22be db58 10bd 0f9a c93d
000003f0: bb22 b03e d33e 733c 5117 b8bd 9b28 9c3e
-0.2809451 0.14925838 0.29055947 0.3308481 0.3140011 -0.24150367 -0.121427804 0.110480405
-0.066430494 0.09879928 0.20561889 0.15427391 -0.21727748 0.0700909 0.042586915 -0.26590848
0.22351967 0.030653447 0.17682908 0.22966927 0.019424845 -0.3528328 -0.215621 0.105298445
0.19639048 -0.10403364 0.016073734 0.028339246 -0.10697228 -0.28366786 0.16637194 -0.2551081
0.24850956 0.097035795 -0.08420925 0.10741815 -0.011215847 0.14982443 -0.19854361 -0.20650212
-0.15023492 -0.16356681 -0.060772944 0.20640959 0.17667112 0.3460708 -0.225278 0.23084635
-0.2996083 0.22947471 0.03613302 -0.2839275 0.17262182 0.19134173 0.26263765 0.027097808
-0.01116001 -0.32431853 -0.2908433 0.2459187 0.25701684 0.09552445 0.24438752 -0.17700426
0.032770604 0.19756103 0.10351402 -0.0437349 0.051080316 0.24814634 -0.32989454 0.30487567
0.039629072 0.06277864 0.057653107 0.19653517 0.2512495 0.2604481 0.0908341 0.01591459
-0.19103765 -0.19144256 -0.082614884 0.22277366 0.34478933 0.29073068 0.05907712 -0.3515588
0.12884286 0.32309645 -0.13140148 0.2418263 -0.25039122 -0.14843723 -0.16698201 0.034420773
-0.07619954 0.1394624 -0.2740314 0.18575263 0.2885634 0.29016063 -0.06411512 -0.12363692
-0.2480078 0.31236613 0.1562457 0.26100498 0.033446457 -0.098447576 -0.3052153 -0.16746649
0.12176919 -0.12174459 0.316417 -0.30420592 -0.27034128 0.14381361 0.058627248 0.11507496
0.07216188 0.31032982 0.018441975 0.055864513 -0.11930044 -0.25607818 -0.11344072 0.22722146
0.1772308 0.23461637 -0.27513736 -0.21739466 0.099530846 -0.22037318 0.19310573 -0.26201114
0.19979902 0.29151887 -0.121910356 0.22787862 0.14119688 0.16788237 0.12619816 0.07275425
-0.31382826 0.026743969 0.20086733 0.14693868 0.11573711 -0.07583553 -0.19678539 -0.13082106
0.09834653 0.043252368 -0.102014326 -0.20982747 0.2106294 0.31168565 0.19794211 -0.1789697
-0.3419429 0.2662682 0.1316957 -0.2930659 0.01108519 0.1577048 0.15710391 0.23221709
0.018637685 0.06724673 0.18272103 0.24465899 -0.1121299 -0.2567568 -0.012980595 0.16821872
-0.23696198 -0.32950157 -0.21260609 -0.31583554 -0.19520776 0.29679066 -0.26811916 -0.023643369
-0.16621782 -0.1790581 -0.045657624 -0.0098323375 -0.32507324 0.014072438 -0.27104023 0.03602182
0.095929414 0.14476085 0.16223845 -0.25243098 -0.18096656 -0.20452984 0.15479806 0.20427653
0.31540024 -0.2757916 -0.21670115 -0.21387076 0.2488915 -0.2029769 -0.20829536 0.1867208
-0.1639203 -0.09497324 0.12227224 -0.32051775 -0.27992317 0.33939654 -0.30948102 -0.20110182
-0.09821199 -0.26824588 0.23679678 -0.01457761 0.24106658 -0.3347764 0.021900091 -0.3281334
0.29729018 0.31585196 0.059090465 0.13361195 -0.26052302 -0.13323052 -0.32031238 0.1954073
0.2107805 -0.33431935 0.27205077 -0.2638111 -0.32238525 -0.3488148 -0.1623821 -0.24527499
0.25687987 -0.058815207 0.18416217 -0.020329466 -0.083434604 0.3046467 -0.10201581 0.0140325185
-0.085284345 -0.15851703 -0.03524099 0.098438375 0.34401497 0.014846521 -0.08988822 0.3049973

encoder.layers.1.linear1.bias f4 [32]
00000000: c239 8a3e 3609 a93e 97b1 ab3c 092d 19bc
00000010: d278 48be 317c 1c3e 9cfd 6dbe bbb6 893d
00000020: 877f 56be 96a7 a83e 6c44 7ebd 8012 873e
00000030: 648d a43e 335f d83d 337c 06be 81d5 b0be
00000040: 7043 e3bd ef1b 8e3e 7181 abbe 2b47 833e
00000050: 5610 97be 121f 21be e73a 47be 7844 94be
00000060: a757 a43e a641 54be bf19 f1bd 106f 5dbe
00000070: f060 aa3d 032e 813e a648 d9bd 9174 ac3d
0.2699719 0.3301484 0.020958705 -0.009349116 -0.1957734 0.1528175 -0.23241276 0.06724306
-0.20947085 0.32940358 -0.06207697 0.26381302 0.32139122 0.10565033 -0.13133316 -0.3453789
-0.11096847 0.27755687 -0.33497193 0.25640234 -0.2950465 -0.15734509 -0.19456063 -0.28958488
0.32098123 -0.20728168 -0.11772489 -0.21624398 0.083192706 0.25230417 -0.1060956 0.08420671
