models/ts_views_models/ts-v10.ckpt (torch, 328080 bytes, 201 tensors)

input_pos_embedding.weight f4 [1024, 8]
000000 31 92 99 3f 4c a7 11 3f 6f 53 31 bf 44 b7 77 3e
       1.1997739 0.568959 -0.69267935 0.24191004
000010 b3 a7 1a 3e 8c 55 fa 3e 18 dd 98 3f 2c 4f 03 bd
       0.15103035 0.48893392 1.1942472 -0.032057926
000020 d1 87 56 bf 66 91 a8 3d 1c b2 d0 bf f2 2c 10 c0
       -0.8380099 0.082308576 -1.6304355 -2.2527432
000030 23 da a9 bf bf 4b 8c bf 8e 11 d1 bf 64 c4 a2 bf
       -1.3269695 -1.0960616 -1.6333482 -1.2716184
000040 91 14 d9 3c c9 c2 9b bd 94 71 c9 be 52 26 c8 bd
       0.026499065 -0.07605512 -0.39344466 -0.09772934
000050 b8 2b 2c 3e b6 4e a2 3e d3 0a 68 bf 1f 59 bc bd
       0.16813552 0.31700677 -0.90641516 -0.09196686
000060 07 b7 66 3f 23 8a d1 3f c2 9e 31 40 cc ac 1e bf
       0.9012303 1.6370281 2.7753148 -0.6198242
000070 84 7d 40 3f 16 09 57 3f c1 d7 e9 bf e0 51 83 be
       0.7519152 0.8399824 -1.8268968 -0.25648403
000080 a6 1c 13 40 01 26 41 c0 81 1d 87 3f 31 5d 56 3e
       2.2986236 -3.0179446 1.0555879 0.20933987
000090 e6 ec 27 3e e6 a1 ef bf b8 6c 8b bf 72 60 cc 3e
       0.16398963 -1.8721282 -1.0892553 0.39917332
0000a0 01 f9 8c 3f 36 53 63 3e 28 85 d4 3e 2d 1a c2 3f
       1.101349 0.22199711 0.4150784 1.5164238
0000b0 2c f4 85 bf ae d0 f4 3c 9e 39 7b bf 75 90 fb bf
       -1.046514 0.029884662 -0.9813479 -1.965346
0000c0 99 ae 2d bf 87 fb 84 3e 79 47 aa bd 1b a9 24 bf
       -0.6784454 0.2597315 -0.083144136 -0.64320534
0000d0 b6 61 39 bf 24 34 e1 3f 75 0b 01 3e 68 64 b9 bf
       -0.7241472 1.7594037 0.12602027 -1.4483767
0000e0 36 bc 66 3f 60 14 86 bf 64 3f dc bf 8a c8 c1 3f
       0.9013094 -1.0474968 -1.7206845 1.5139325
0000f0 e1 51 3b 3f 28 6f 90 bd 78 aa c4 bf 09 0d 8c be
       0.7317181 -0.07052451 -1.5364523 -0.27353695
000100 c2 a6 a2 3e 4a 99 dc 3f d3 57 30 3f ea 79 0b bf
       0.3176785 1.723428 0.6888401 -0.544829
000110 4f 8b 65 bf f9 75 62 be 26 30 24 bf 2f 9f 98 be
       -0.89665693 -0.22115315 -0.6413597 -0.29808947
000120 76 dd 9c be 28 84 39 bf f1 3c 62 3f e1 58 09 bd
       -0.3063771 -0.7246728 0.8837424 -0.033532027
000130 be 0b 32 3d 20 9e 61 bf 4d e7 68 bf f5 33 06 3d
       0.04346823 -0.88131905 -0.90977937 0.032764394
000140 5a 7c 2d 3f 1b e9 2d bf 0c 8c c5 be b2 4e 85 bf
       0.6776787 -0.67933816 -0.3858341 -1.0414641
000150 c4 7f 9e 3d dc c6 0f 40 8e 08 d2 be 2e 8d b0 3e
       0.07739213 2.2465124 -0.41022152 0.34482712
000160 f2 0e 16 3f e2 bd 20 bf f4 5c 87 3f 58 76 43 bf
       0.58616555 -0.6278974 1.0575242 -0.76352453
000170 c5 4f c4 bf 55 5d 80 3f 6b 59 cb 3f 2e 38 73 bc
       -1.5336844 1.0028483 1.5886663 -0.014844937
000180 5b 5e a6 3f 45 62 6f 3e bc be c4 3e 13 6f 21 bf
       1.2997545 0.2337733 0.3842677 -0.6306011
000190 1a c5 4d bf ba 0a 04 3d 60 3c 86 bb 25 b1 28 3f
       -0.8037888 0.032236792 -0.0040965527 0.658953
0001a0 cd e5 cf bf a9 3f 80 bf af be 4a bf 69 77 95 bf
       -1.6242005 -1.0019428 -0.7919721 -1.1677066
0001b0 da 57 a7 3f f0 ab 89 be bb 08 d3 be 86 b1 13 3e
       1.3073685 -0.2688899 -0.41217598 0.14423189
0001c0 7f 16 e0 3e 6c a7 05 40 26 62 eb be 19 1b 45 3f
       0.43767163 2.0883436 -0.4597332 0.7699447
0001d0 b4 c9 60 3f 4b 9b af 3f 35 fb 7e bf 97 97 a9 be
       0.87807775 1.3719267 -0.9960206 -0.33123466
0001e0 55 ad 80 3c 99 aa 00 3e 11 d4 72 be b3 84 fc bf
       0.015707651 0.12565078 -0.2371371 -1.9727997
0001f0 7b b6 13 3f c0 17 97 be 3d 74 25 bf 0f 8b f9 3f
       0.5770032 -0.29510307 -0.6463049 1.9495562
000200 09 49 0f be dd 51 42 3f b6 52 ea be 57 be 92 3e
       -0.13992704 0.75906163 -0.45766228 0.28660843
000210 2c 6a f3 bd 18 c0 0b 3f 72 e7 7d bf 66 4a b5 be
       -0.11885485 0.54589987 -0.9918128 -0.35408324
000220 ba 3d a9 bf 06 93 61 3a be c5 bd 3e 3f 8a 11 3f
       -1.3221962 0.0008604977 0.37064928 0.5685157
000230 b0 14 b3 bf 60 5a bb 3e 34 c7 13 3f 7c aa 0d 3e
       -1.3990688 0.36592388 0.57725835 0.13834566
000240 d0 97 02 c0 74 48 d5 bf 98 1c dd be 27 10 02 3f
       -2.040516 -1.6662736 -0.43185878 0.50805897
000250 49 e5 02 3e c9 f9 c3 3f 89 3f 58 bf eb 48 97 bf
       0.12782778 1.5310603 -0.84471947 -1.1819128
000260 72 0c 13 c0 0c ab 12 3f 7c c8 b3 bd de 33 a2 3d
       -2.2976346 0.57292247 -0.08778474 0.07920049
000270 d9 97 47 bf 60 f9 99 be 63 1b 89 3f 26 67 e6 bc
       -0.77966076 -0.3007307 1.0711483 -0.028125357
000280 76 0d 11 c0 88 2f 04 3f 6d 6c c9 be 09 d9 02 40
       -2.2664466 0.51635027 -0.39340535 2.0444968
000290 67 e2 cb 3d 6f 5e bc 3b 14 bf 0e c0 0d e2 8d 3d
       0.09955292 0.005748562 -2.2304125 0.069278814
0002a0 6e 46 88 bd ae a3 b8 bf bc bd ef be 64 e5 c7 3f
       -0.066540584 -1.4424951 -0.46824443 1.561688
0002b0 83 03 d8 3e a8 ad 8d bf 43 0b 5a bf 36 e1 97 3e
       0.4219018 -1.1068621 -0.85173434 0.2966401
0002c0 c8 45 a9 bf 8b 18 93 be 5d 9c bd bf e6 85 d4 3d
       -1.322442 -0.28729662 -1.4813343 0.103771016
0002d0 f4 11 ad 3f 2e 52 bd bf 88 9d f0 be 20 82 61 3f
       1.3521104 -1.4790704 -0.46995187 0.8808918
0002e0 5f 38 92 be ad 45 aa 3e 9b be 04 3d ec bb 3d 3e
       -0.28558633 0.33256283 0.032408338 0.18528718
0002f0 bb 87 20 3e ab 01 1c be 4c 6d 2a bd 40 63 31 40
       0.15676777 -0.15235011 -0.04160814 2.7716827
000300 b4 43 03 c0 0a e6 d3 be 2c 94 91 bd 4d a1 88 3f
       -2.0510073 -0.41386443 -0.0710834 1.0674225
000310 01 6c 35 bf 6a e9 b3 3e da fe 3f 3f 47 4a 38 be
       -0.70867926 0.35139018 0.7499825 -0.17997085
000320 8e 52 68 bf 22 43 95 bd c7 0e 8f 3d 30 7d 03 be
       -0.9075097 -0.07288195 0.069852404 -0.12840724
000330 42 a5 de 3f ac 22 af be 00 7e 4f 3d 33 44 47 3e
       1.7394183 -0.3420614 0.050657272 0.1945961
000340 ea cc 81 3e 5f f6 9d be 7e 94 c7 bf e5 8c 15 bf
       0.2535165 -0.3085203 -1.5592191 -0.58418113
000350 41 4f 8d 3f 17 09 9c bd 81 73 a2 3d 35 83 dd bf
       1.1039811 -0.07618921 0.07932187 -1.7305666
000360 49 c8 58 3f 39 7c 16 3f 05 cd 05 3d 04 6a 53 3e
       0.8468061 0.587833 0.032666225 0.2064591
000370 e4 aa 74 bf 9c 73 a3 bf 46 ba bd bc 13 dc 81 bf
       -0.9557326 -1.2769656 -0.023160111 -1.0145286
000380 6d 3d f1 3e a2 ab 75 bf 20 a1 f7 bc 47 43 b3 3e
       0.47117177 -0.95965016 -0.030228198 0.35012266
000390 a0 03 fc bf fd a9 2d 3f 3c 63 ac bd ed cf c2 3f
       -1.9688606 0.67837507 -0.08417365 1.5219704
0003a0 65 65 18 bf 46 0b ad bf 1d ca d2 be 72 05 b9 be
       -0.59529716 -1.3519065 -0.41169825 -0.36136967
0003b0 da 56 e7 bc 1e bf 0f c0 26 e1 1b bf ae b7 9d 3e
       -0.028239656 -2.2460399 -0.60890424 0.308042
0003c0 f7 04 d8 3e 7f cf c1 be cc 2d 84 3f 41 65 89 bf
       0.42191288 -0.3785362 1.0326476 -1.0734025
0003d0 62 c1 aa be 7e 9d 28 bf 51 e1 04 be 2b 64 64 3f
       -0.33350664 -0.65865314 -0.12976576 0.89215344
0003e0 32 1a 89 3f 7f 68 64 bf 4b a8 07 bf 11 a5 ee be
       1.0711119 -0.8922195 -0.5299117 -0.4661031
0003f0 13 14 0f c0 86 f2 54 3f fd 2d d5 be 58 c4 47 be
       -2.2356002 0.8318256 -0.4163665 -0.19508493

target_pos_embedding.weight f4 [1024, 8]
000000 60 ee 85 3e 1d f6 1d bf 1f 2b 9a bf 65 cc 0b bf
       0.26158428 -0.61703664 -1.204441 -0.54608756
000010 e9 aa 50 bd d8 2f c6 bf fa 2e 67 3e df 55 f1 bf
       -0.050944243 -1.5483351 0.22576514 -1.8854331
000020 2a 0d f7 be 9d 27 13 be 0d 59 b9 3e 71 13 6e 3d
       -0.4825223 -0.1437058 0.36200753 0.05812401
000030 50 31 87 3f b3 79 cd 3f 3d 57 e6 be 55 48 d6 3e
       1.0561924 1.6052765 -0.44988433 0.4185206
000040 5b 09 01 40 41 86 31 3f f1 58 0e 3f cd bc a5 3e
       2.016196 0.6934548 0.55604464 0.32370606
000050 21 a3 82 bf 70 9f 65 3f b8 f5 0d 3f 5d d2 3b bf
       -1.0206033 0.8969641 0.5545306 -0.73367864
000060 3e a0 75 3f 86 13 3c bf 8e 2c 11 bf ba 6d 18 bd
       0.95947635 -0.7346729 -0.5670861 -0.03721402
000070 01 f4 27 c0 c8 46 17 bd 36 5f 78 bf a5 49 6a 3f
       -2.6242678 -0.036932737 -0.9702028 0.9151862
000080 3c f1 9e bf af ab 2f 3e bd ac a5 be 76 ad 32 3f
       -1.2417369 0.17155336 -0.3235835 0.6979593
000090 b5 5e 8e 3f 36 c8 a5 be d0 82 72 bf 46 4a c0 bf
       1.1122652 -0.3237931 -0.94730854 -1.5022666
0000a0 7c 7a af bf 69 2d bd 3e e7 ad 7f bf 87 14 9e bf
       -1.3709254 0.36948708 -0.9987473 -1.2350014
0000b0 41 c0 e3 be f3 3f 45 be f2 f8 1d 3f 45 f1 98 3f
       -0.44482616 -0.19262676 0.61707985 1.194863
0000c0 07 33 a9 3f 34 c6 6f bf 2d 0f 95 3f 1e 78 34 bf
       1.3218697 -0.9366181 1.1645256 -0.70495784
0000d0 ff 3f f5 bf 62 b2 89 bf 75 5e 0c 3f f9 4c 37 c0
       -1.9160155 -1.0757563 0.5483163 -2.864073
0000e0 16 2f 0d bf e2 ef 1b bf 88 e4 96 be ea 43 59 be
       -0.5514997 -0.6091291 -0.2947123 -0.21217313
0000f0 f6 e6 ed 3d 0f 62 8e 3e 3e 8b 36 be a9 61 46 3f
       0.11616318 0.27809188 -0.17826554 0.7749277
000100 17 9e d7 bf d6 6f d4 3f 45 65 08 bf ad 20 38 3f
       -1.684512 1.659663 -0.53279525 0.7192486
000110 fa 22 31 bf ed 1c bf bf 29 7e 48 bf 33 b6 24 bf
       -0.69193995 -1.4930702 -0.78317505 -0.64340514
000120 e1 82 df 3e 93 86 d5 3f 63 72 d9 3e d8 31 0c c0
       0.4365454 1.6681694 0.42470083 -2.1905422
000130 2f b6 d1 bf 1b c2 25 3d 06 7e d4 be 08 16 da bd
       -1.6383723 0.040468317 -0.41502398 -0.106487334
000140 91 c4 26 3f 75 a4 a9 bf d0 d0 90 bf c9 7c 27 c0
       0.65143687 -1.3253313 -1.1313725 -2.6169913
000150 96 66 2f c0 dd 72 e6 3e ec fe eb 3f 14 b2 8c 3d
       -2.7406363 0.4500951 1.8437171 0.06869903
000160 af 0b b1 3f 17 d3 af 3e 91 a9 15 3e cb 09 e1 3f
       1.383169 0.34340736 0.14615466 1.7581114
000170 ed 28 d8 3e 60 e9 3c 3e ed 37 b9 3f ab 67 4c 3f
       0.42218724 0.184484 1.4470192 0.79845685
000180 9e 6b 69 bf 3e d0 ee be 4e ca 99 3f f4 b2 a1 be
       -0.91179836 -0.4664325 1.2014863 -0.31581843
000190 66 58 a6 3f f9 b9 07 40 a1 dc 07 bf a0 50 09 3d
       1.2995727 2.1207259 -0.5307103 0.033524156
0001a0 9a 53 ff 3f c8 ef cd bc a8 4f 9e 3d ee 6a d3 be
       1.9947388 -0.02513875 0.07730037 -0.41292518
0001b0 52 d0 ac be 2f ba 89 be fc a0 5f bf 0e c8 a4 bf
       -0.33752686 -0.2689986 -0.8735502 -1.2873552
0001c0 96 95 66 3d 10 59 2e bb ce a2 6c 3e d9 6e ac 3f
       0.056295 -0.0026603378 0.2310898 1.3471328
0001d0 10 bc 4a bd 4d 54 c0 bf 41 a8 c7 be 07 b5 3b 3f
       -0.049495757 -1.5025727 -0.38995555 0.733231
0001e0 6e b2 a1 bf bb fa b5 bf 4a 9e 97 3f 00 7c a6 bf
       -1.2632577 -1.4217142 1.1845181 -1.3006592
0001f0 cb ce 28 40 c4 23 ce 3f 61 a6 c9 be 65 0b 14 40
       2.6376216 1.6104665 -0.3938475 2.3131955
000200 4f 95 8f 3e 43 ca 09 bf a5 52 16 be c7 2b 79 3f
       0.280436 -0.5382425 -0.14679964 0.97332424
000210 87 90 85 bf aa de 88 bf b7 18 a0 bf 01 f6 1e bf
       -1.0434731 -1.0692952 -1.2507542 -0.6209412
000220 1f 07 82 be b2 60 c6 be b4 14 e5 be 80 cd 47 bf
       -0.25396058 -0.38745648 -0.44742358 -0.78047943
000230 43 aa 89 3f 0d d4 cb be 79 f9 7f bf db 58 00 3e
       1.0755085 -0.3981022 -0.9999004 0.12533896
000240 0e 8e 7f bd 5f f8 7b 3f 11 17 d1 3e 35 7a df be
       -0.062391333 0.9842586 0.4083791 -0.43647924
000250 70 4a f1 bf fc 21 39 bf a4 e3 9c 3f 17 73 d5 be
       -1.8850842 -0.7231748 1.225697 -0.4168937
000260 85 8d e7 3e 15 b5 83 be a4 68 08 bf 58 58 5f be
       0.45225158 -0.25724092 -0.5328467 -0.21811044
000270 b7 0a 98 3e 25 7c 50 3f 3a 5e 23 40 0e 2f fe be
       0.29695675 0.8143943 2.5526261 -0.49645275
000280 12 21 d2 be 9b 5b 99 3f 99 4e e5 3e 95 53 9f 3f
       -0.41040856 1.1981081 0.44786528 1.2447382
000290 a4 65 1d be 19 1b 8d be 5c 31 9c 3f 4e e7 e4 3f
       -0.15370804 -0.27559736 1.2202563 1.7883089
0002a0 3d 9b 2d 3e b8 52 40 bf 8a 77 fb 3e 6b 71 5c bf
       0.1695375 -0.7512622 0.4911464 -0.8611056
0002b0 c0 6e c2 bf 2f 66 b0 bc e9 76 16 3f a8 22 a2 bf
       -1.5190048 -0.0215331 0.5877519 -1.2666826
0002c0 65 22 1c bf 1a 02 21 be 71 c9 c8 bf 42 a6 b8 3d
       -0.6098998 -0.15723458 -1.5686475 0.09016086
0002d0 f2 0d 97 bf c8 78 ff 3f b6 6a b3 3e 05 a3 ca 3e
       -1.1801131 1.9958735 0.3504235 0.395775
0002e0 d7 10 e6 bf d0 33 d5 3c 73 b3 13 3e af be 24 bf
       -1.7973889 0.026025683 0.14423923 -0.6435346
0002f0 bc 56 be bc 8f 40 fc be b3 1e 10 3f a2 f9 f4 bf
       -0.023234718 -0.49268004 0.56296843 -1.9138682
000300 45 1b c5 3e bd fe 2a bf 9f 1e d6 3e a9 f2 98 bf
       0.38497368 -0.6679495 0.41820237 -1.1949054
000310 51 73 46 bf 73 b9 a9 3f 04 9d f1 bf 37 c4 04 bf
       -0.7751971 1.325972 -1.8876042 -0.518619
000320 79 c1 3a bf 9d e7 f0 bf ae 5d c6 3f 43 64 b2 3e
       -0.72951466 -1.8820683 1.5497339 0.3484212
000330 a0 e4 35 be 6e 5c 6b bf fb c4 e5 be 9b d5 78 3f
       -0.17762995 -0.9193791 -0.44876847 0.97200936
000340 c5 9d c4 be 95 4a 91 3f 07 2f 00 3f 10 cd 7c bf
       -0.3840162 1.1350886 0.5007176 -0.987504
000350 8f 28 b5 3e 41 b2 80 3e c0 cd f4 be c8 66 0e 40
       0.35382506 0.25135997 -0.47813225 2.2250233
000360 3a 10 d0 bf e1 cb 84 3e d7 b1 90 3f 98 c1 04 bf
       -1.6254952 0.25936797 1.1304272 -0.518579
000370 d1 aa b1 3e ae f8 73 bf 5b e1 87 bf 4b 0e b2 3d
       0.34700635 -0.9530133 -1.0615648 0.086941324
000380 09 b4 da bf b1 74 61 be 95 32 f0 be 68 b6 09 bf
       -1.7086192 -0.2201717 -0.4691359 -0.53793955
000390 7e 1e 2a 3e 83 b5 03 bf a4 ff 28 3f d1 74 b1 bf
       0.16613194 -0.5144884 0.66015077 -1.3863775
0003a0 15 91 d1 be 2c 2a 38 3f 06 38 ae 3e 51 45 46 3f
       -0.40931 0.7193935 0.34027117 0.7744952
0003b0 71 75 54 be 9e a2 00 3f 2d 98 c7 3e 33 f7 b1 3b
       -0.20747925 0.50248134 0.38983288 0.00543108
0003c0 7f b2 4a bf 21 ff 5f 3f f5 b8 a7 be f9 b2 8a be
       -0.79178613 0.8749867 -0.327583 -0.2708967
0003d0 b5 c2 a0 3e 95 14 7f 3e 03 85 ae 3e 7b aa fc bf
       0.3139855 0.24910195 0.34085855 -1.9739527
0003e0 73 82 9f bc 98 c3 9c bd bb 65 31 be 58 e0 97 bf
       -0.019471383 -0.07654494 -0.17323963 -1.1865339
0003f0 72 ce 47 40 fb 67 14 3f 5b 00 03 40 d6 43 fe be
       3.1219754 0.5797116 2.0468967 -0.4966113

encoder.layers.0.self_attn.in_proj_weight f4 [24, 8]
000000 fb 54 da 3e 21 f5 c9 3d 2b f8 32 bd 9d ee 9a be
       0.4264296 0.09861208 -0.043693703 -0.30260172
000010 b6 54 60 be a3 0e be 3e a0 33 30 3d 68 41 fb bd
       -0.21907315 0.37120542 0.043017983 -0.122683346
000020 66 16 f0 bd f4 31 9e 3e 58 8f 0e be cc 79 93 3b
       -0.11723022 0.30897486 -0.13921869 0.0045006033
000030 ec 82 80 3e 41 96 7f 3c 03 bb c4 be cd 42 b3 bd
       0.25099885 0.015599788 -0.3842393 -0.087529756
000040 a5 3f a5 be 18 26 83 be 1f d4 c6 3e bd 9b 85 be
       -0.3227512 -0.25615 0.3883371 -0.2609538
000050 6c d2 80 be 27 04 af be fb 71 8b 3e d3 61 8b be
       -0.2516054 -0.34182855 0.27235398 -0.2722307
000060 92 b2 9b be 75 44 87 be cf e8 99 3d c0 4a 8d 3d
       -0.30409676 -0.26419416 0.07515108 0.06899023
000070 56 eb c9 be e2 70 f6 3d 38 40 5b bc 14 0b 0b be
       -0.3943736 0.120332494 -0.01338201 -0.13578445
000080 28 a1 b0 3e fe 4b 2f 3e bc ae 08 be 0a 3b bf 3e
       0.34497952 0.17118832 -0.13347906 0.3734973
000090 9d 8e a4 3e b5 b3 85 be b7 5a f8 3c 85 a9 bc 3e
       0.32140055 -0.26113668 0.030316694 0.36848083
0000a0 23 6d af bd d8 77 8f 3d db 8a e0 3d a7 b4 a7 3e
       -0.08565738 0.0700528 0.109639846 0.32755014
0000b0 c8 0c b9 be a6 38 9c 3e 31 44 a4 3d 89 f5 19 3e
       -0.36142564 0.3051197 0.08020819 0.1503507
0000c0 d0 a4 41 bd 7d 2b d5 3e dc 81 8e 3e ab 2f 8a be
       -0.047276318 0.4163474 0.2783345 -0.26989493
0000d0 1d 34 78 be 68 96 4b 3e e3 da c5 bd ed 0f 83 bd
       -0.2423863 0.19881594 -0.0966089 -0.06399522
0000e0 99 a9 ab 3c 28 c4 07 3e 68 04 98 be bf a8 aa be
       0.020954894 0.13258421 -0.29690862 -0.33331868
0000f0 de 78 a2 3e fa 6b b9 3e 7f 9d eb 3d f0 03 ba bd
       0.3173284 0.36215192 0.11504649 -0.09082782
000100 ef 04 09 bd 7c 44 ad 3e 3a e5 2e be 37 5e d9 3e
       -0.03345197 0.33841312 -0.1707963 0.42454693
000110 32 c1 65 3d 99 70 9d 3e f9 c7 d2 3e d8 aa 33 be
       0.05609245 0.30749968 0.41168192 -0.1754564
000120 38 f7 9e 3e c2 26 41 3e ff 86 40 be fd 8b 7b bd
       0.31047988 0.18862441 -0.18801497 -0.0614128
000130 1a 93 73 3e 05 48 b0 3e ed bd a7 3e 8b 75 6a 3e
       0.23786584 0.34429947 0.3276209 0.22896402
000140 32 f2 d0 be 6c 72 40 3e 9b aa da 3c f9 e5 87 3d
       -0.4080978 0.18793648 0.02669268 0.06635661
000150 d1 18 ee 3d af 14 7d bd 89 bc ac 3e 03 27 d9 3e
       0.11625827 -0.061787304 0.3373759 0.42412576
000160 e2 76 b5 3e 13 f1 dc bc 53 57 26 be 86 80 20 3c
       0.35442263 -0.026970422 -0.16244249 0.009796267
000170 f7 3f 93 3d 3a 0c 89 3e e0 9e 98 be f8 04 28 3e
       0.07189935 0.2676714 -0.29808712 0.16408145
000180 05 dc c5 be 88 09 14 3e 0e df d8 be da c2 3f be
       -0.38644424 0.14456761 -0.42357677 -0.18726674
000190 3f f3 98 3e 14 27 74 3c 49 dc 62 bd 69 6c df be
       0.29873082 0.014901895 -0.05538586 -0.43637398
0001a0 94 ae be 3d 4e df 86 be c7 35 d7 be 3c f9 a1 be
       0.09310642 -0.26342243 -0.42033216 -0.31635463
0001b0 87 a6 0e 3c e8 39 9a 3d f3 72 27 3e 9e 26 8b 3e
       0.008706695 0.07530576 0.16352443 0.271779
0001c0 5d ea 8b 3e 06 2d 78 be 26 3f b4 3d b5 e2 3f 3e
       0.27327242 -0.24235925 0.08801107 0.18738826
0001d0 43 87 7d 3e 43 28 34 3d 0a b0 c0 3e 9a 97 ba bd
       0.2475863 0.04398371 0.37634307 -0.09110947
0001e0 9f 74 2f 3e 81 94 ac 3e 74 b0 3a 3e 8a 8e 80 3d
       0.17134331 0.3370705 0.18231374 0.06277187
0001f0 82 c7 3b be de 1c a6 3d b3 17 00 be 84 c6 47 3e
       -0.18337825 0.08110975 -0.1250904 0.19509321
000200 c0 c4 e0 be d7 ef b9 3e e4 b8 02 be 8d 83 23 3c
       -0.43900108 0.36315796 -0.12765843 0.009980095
000210 2d 0a 90 3e 4d 29 b1 3d 7c 7f a5 be 20 e8 ce 3e
       0.28132764 0.086504556 -0.32323825 0.40411472
000220 1b 88 6a 3e 9e 27 c1 be 07 1d 83 3e 37 04 87 3d
       0.22903483 -0.37725538 0.25608084 0.06592601
000230 fb ff 52 3e 1b 13 24 3d a5 3f 2e 3e ce 91 fa 3c
       0.20605461 0.040057283 0.17016466 0.030587103
000240 bd 35 bd be c5 9f 86 be 4f b4 00 be 55 17 b7 3e
       -0.36955062 -0.2629377 -0.12568782 0.35759988
000250 4b 14 55 3e 14 32 6e be 1f ed 0a be f7 21 96 3c
       0.20808522 -0.23261291 -0.13567017 0.018326743
000260 67 fa 7f 3e 99 2c aa 3e b8 fa 40 be fc 36 b5 be
       0.24997865 0.3323715 -0.18845642 -0.35393512
000270 cc 44 f8 bc e8 45 1a 3d 59 fd f6 bd be 80 6a bd
       -0.030306242 0.037664324 -0.12060041 -0.057251684
000280 0b b4 21 3d bf e8 06 be a9 f3 d8 be 41 a0 95 be
       0.039478343 -0.13174723 -0.42373398 -0.29223827
000290 7f 41 b4 bd 98 bc 3d 3e 77 be 52 bd bf 3d b7 be
       -0.08801555 0.18528974 -0.051451173 -0.35789296
0002a0 80 36 cc 3e cf 6b 5a be 2a 89 d0 3e f1 b4 36 3e
       0.3988533 -0.21330188 0.40729648 0.17842461
0002b0 e9 f7 bf bc bd d7 cb be 81 8f a6 be 9e cd 85 be
       -0.023433642 -0.39813033 -0.3253136 -0.26133436
0002c0 75 ef 7b be db 35 cc bc 72 6b 02 be 1a a4 b5 be
       -0.24603064 -0.024928024 -0.127363 -0.35476762
0002d0 c1 ed 60 3d 74 39 8f 3d 08 1c 5b 3b f3 1d ad 3d
       0.05491424 0.0699338 0.0033433456 0.08452978
0002e0 0c d2 cd bd a7 0a 19 bd e7 20 4a 3d eb 53 91 be
       -0.10049829 -0.037363674 0.049347784 -0.28384337
0002f0 31 4b 92 be 07 41 d1 be 2f bc cf 3e 5a 85 d3 3e
       -0.28572991 -0.40869924 0.4057326 0.41312677

encoder.layers.0.self_attn.in_proj_bias f4 [24]
000000 4e dc c2 3b 44 19 04 bc 5c 12 ae 3b 50 0e f1 3b
       0.0059466725 -0.008062664 0.005312247 0.0073564425
000010 e3 21 04 3c ac 11 d2 bb e1 a8 0b bc 0c ca 03 bc
       0.00806472 -0.006410798 -0.008524151 -0.008043777
000020 b6 13 ec b9 ab 94 c0 b8 f0 7b c8 39 45 a9 32 39
       -0.00045028114 -9.182965e-05 0.00038239313 0.0001703846
000030 77 6a 05 3a 79 05 f7 b8 c8 e5 8b b9 3e 7d 50 b9
       0.0005089412 -0.00011778897 -0.00026683346 -0.00019883082
000040 0a b1 0d 3c 33 1d fd bb b5 71 0c 3c 90 b5 00 3c
       0.008648166 -0.007724428 0.008572032 0.007855788
000050 7c f3 e6 3b 3b ec e6 3b bf b2 0a 3c a8 b8 03 bc
       0.0070480686 0.007047204 0.008465468 -0.008039631

encoder.layers.0.self_attn.out_proj.weight f4 [8, 8]
000000 3e 29 12 be f0 4a a3 bb c6 a4 02 3e f4 d0 eb bd
       -0.14273545 -0.0049832985 0.12758169 -0.11514464
000010 88 9a 48 bd d0 7e 18 bd be 05 7d 3e b2 65 8d be
       -0.048975497 -0.037230313 0.24709222 -0.2761665
000020 54 63 8c 3e 03 48 01 3e 43 54 13 be 7a ae a9 3e
       0.2741953 0.12625127 -0.14387612 0.33140928
000030 e6 44 68 3e 96 6f 3b 3e 1c 0c 8e 3d 90 7e aa be
       0.22682533 0.18304285 0.069359034 -0.33299685
000040 32 07 54 3d 37 7a 8e 3e d7 2f 02 be 76 7e 61 be
       0.051764674 0.27827618 -0.12713562 -0.22020897
000050 c3 05 e1 bd d7 ad 0f 3c d0 98 b0 be da b0 fe 3c
       -0.10987427 0.008769474 -0.34491587 0.031090189
000060 b5 3c f2 bd ca 41 87 be 94 34 3a be 13 fe 78 3e
       -0.11827985 -0.2641738 -0.1818412 0.24315672
000070 5d 6d 5b 3d 86 2c 67 3b 1d 85 ab 3c d0 33 43 be
       0.053571094 0.003527434 0.020937497 -0.19062734
000080 95 4f 9d 3c b4 52 26 3e 6a b0 aa be 81 fa 85 be
       0.019202987 0.16242486 -0.33337718 -0.26167682
000090 19 aa 63 be 71 f0 e6 bd bd 85 d0 bd 95 39 67 3e
       -0.22232856 -0.11276329 -0.101817586 0.2258056
0000a0 ff d8 97 3e 28 72 81 3e b5 58 04 3e bb 0d 5e 3e
       0.29657742 0.25282407 0.12924464 0.21684925
0000b0 7a 10 fd bd bd 21 ec 3d d6 ec 15 3e 25 f4 1a be
       -0.12356658 0.115298726 0.14641127 -0.15132196
0000c0 4e c8 a2 be f2 2c 82 3e 10 38 2d be 06 1d ac be
       -0.31793445 0.25424916 -0.16915917 -0.33615893
0000d0 7b 92 62 be 76 27 ab be 1f 03 3d be 46 a9 10 3e
       -0.2212619 -0.33428544 -0.18458222 0.14127073
0000e0 8f cf a3 3e 3d 69 44 be 8c 30 50 3d f0 7e ec 3c
       0.31994292 -0.1918077 0.050827548 0.028869122
0000f0 04 0f 07 be 90 43 b0 be 55 25 48 3e e6 9b 35 be
       -0.13189322 -0.34426546 0.19545491 -0.17735252

encoder.layers.0.self_attn.out_proj.bias f4 [8]
000000 4d b0 09 3c bb 78 34 3b 9d 94 0a bc 53 5c f6 b9
       0.00840385 0.0027537781 -0.008458284 -0.00046989563
000010 d6 95 d7 bb a7 8b 0a 3c 06 ee 07 bc 6f 96 df 3b
       -0.006579141 0.008456147 -0.008296495 0.006823353

encoder.layers.0.linear1.weight f4 [32, 8]
000000 78 84 3d be 02 ef 7d 3e f1 cb 18 3d 81 b9 6e 3e
       -0.18507564 0.24798205 0.03730387 0.23312952
000010 f4 5a 2b be a2 61 12 be 53 cb 4e be 1b 60 0c bc
       -0.16733915 -0.14295056 -0.2019475 -0.008567835
000020 b5 df 4e be c2 bf 9e be c6 68 61 be 6b 35 a8 be
       -0.20202525 -0.31005675 -0.22012624 -0.32853255
000030 e8 32 a1 3e 0f 21 83 be 51 9b 1d 3e 98 ac ac 3e
       0.3148415 -0.2561116 0.1539128 0.3372543
000040 c0 64 9b 3e 1b 52 06 be ee c1 de bd 10 83 04 be
       0.30350304 -0.13117258 -0.10876833 -0.12940621
000050 f7 39 5f 3e 76 48 29 3e d5 7c 0e 3e 42 26 08 bd
       0.21799456 0.16531548 0.13914807 -0.03323961
000060 b4 74 3c 3e 7c d8 7c 3b fa 83 2d bd 81 9b 15 3e
       0.18403894 0.0038581183 -0.04236219 0.14610101
000070 92 e8 8a bd bc fa b1 be 59 a7 6f 3e 00 a7 92 be
       -0.067826405 -0.34761608 0.23403682 -0.28643036
000080 97 48 a3 be 12 a7 4e 3d 12 c2 a4 be 0e d7 85 3e
       -0.3189132 0.0504523 -0.32179314 0.26140636
000090 7d f7 9f 3d 69 a7 33 3e 5c 56 38 3e fa 93 7f 3e
       0.078108765 0.1754433 0.18001693 0.24958792
0000a0 af ad 3e be 60 ab b0 be b3 bb 55 be c2 97 d2 bd
       -0.18620943 -0.3450575 -0.20872383 -0.10282852
0000b0 22 91 08 3d 78 3f 03 be 60 8a 4f bc 9a 51 13 be
       0.033341534 -0.1281718 -0.0126672685 -0.14386597
0000c0 09 9f 21 bd 18 bc 5b 3d e9 db 48 3d 48 27 0e 3e
       -0.03945831 0.053646177 0.049037848 0.13882172
0000d0 fe a7 8d 3e 5a 91 af bd 8b 14 80 3e 83 a4 83 be
       0.2766723 -0.085726455 0.25015673 -0.2571145
0000e0 f8 e0 a2 3e c3 cb a1 be ba 70 84 be 16 7f 4a 3e
       0.31812263 -0.3160077 -0.25867254 0.19775042
0000f0 a2 24 5e bc dc ba b1 3e 51 54 f0 3c c5 61 aa bd
       -0.013558539 0.34712875 0.02933708 -0.08319429
000100 82 6a 36 be 8a aa 92 3e 36 01 14 3d de 76 97 be
       -0.17814067 0.28645736 0.036133967 -0.29582876
000110 1d 68 aa 3e 04 09 92 3e 46 3b a8 3e cc 58 f9 bc
       0.33282557 0.28522503 0.32857722 -0.03043785
000120 dd 43 d2 3d d3 d5 91 bd 82 e4 81 be dd cc 58 3e
       0.1026685 -0.07120862 -0.2536965 0.21171899
000130 35 98 c2 bd 77 f9 ae 3e 37 98 92 be 3d 5d 27 be
       -0.095016874 0.34174702 -0.28631756 -0.16344161
000140 34 51 86 3d 49 9b 1a 3d 0d aa 51 be 5a 40 87 3d
       0.06558457 0.037745748 -0.20475025 0.06604071
000150 f6 eb fa 3d e7 85 d7 3d 66 d5 40 bd 2b 48 dd 3d
       0.12252037 0.10523587 -0.047078513 0.108047806
000160 a2 dc ab bd 28 10 8d bd 79 4f 6a 3e 61 fa 2b bd
       -0.08391692 -0.06887847 0.22881879 -0.041986827
000170 ce f9 a4 be 26 4b b4 bd 12 63 a8 3e 17 f7 45 be
       -0.32221836 -0.08803396 0.32888085 -0.19332539
000180 ff cc 8c bc ca a3 2b be cc 27 04 3e 20 e1 8c be
       -0.017187594 -0.167617 0.12905806 -0.27515507
000190 b4 94 84 be 22 89 a2 be f9 23 2f 3e f3 f1 ac be
       -0.258947 -0.3174525 0.17103566 -0.33778343
0001a0 81 46 ad 3e 35 58 96 3e 60 dd 43 be f6 c9 af be
       0.33842853 0.29364172 -0.19127417 -0.3433377
0001b0 2b 3d a2 3e c3 61 41 bd 04 32 ae 3e 9f 9b ab 3e
       0.31687292 -0.047212373 0.34022534 0.33517167
0001c0 c8 18 78 be c1 3a 85 3c 6d de 9d be fc 7f 8e 3e
       -0.24228203 0.016263368 -0.3083376 0.2783202
0001d0 d9 6a d1 3d a4 80 84 be 16 64 a1 3e 81 9e 6b 3e
       0.10225458 -0.25879395 0.31521672 0.23009683
0001e0 a7 49 80 be 52 7e b0 3e df 3c 2d bd cd da 60 3e
       -0.25056192 0.34471375 -0.04229438 0.21958466
0001f0 0c dc 8c 3e a5 79 82 bd f5 5e 14 be 6c a5 4b be
       0.27511632 -0.06370858 -0.14489348 -0.19887322
000200 4a bf 24 be e1 b2 1a be 6c 31 e7 bd d0 14 28 3e
       -0.16088596 -0.151073 -0.11288723 0.1641419
000210 9a 5e 5f 3e 30 af f8 3c c9 d1 a0 3e 9c 76 a1 3e
       0.21813431 0.030356973 0.31410053 0.31535804
000220 ab 29 42 3e 50 4f 01 3e e9 a2 62 3e 9d 9b 13 3e
       0.18961208 0.12627912 0.22132458 0.1441483
000230 e0 8e 45 be 96 71 91 3e 6f c0 e2 bd 80 e7 85 be
       -0.19292784 0.28406972 -0.1107186 -0.26153183
000240 ed fc 25 be 77 3f a6 bd cc b0 9b bd 04 ef 83 bb
       -0.16209765 -0.08117574 -0.07602081 -0.0040262956
000250 87 f1 b2 3d 09 a6 49 bb 76 0b 25 bd dd b5 3f 3e
       0.08737474 -0.003076913 -0.040294133 0.18721719
000260 51 a7 2d 3e 0d b8 51 3e 43 41 97 be 9b af 78 be
       0.16958357 0.20480366 -0.29541978 -0.24285738
000270 b4 81 a4 be 01 a3 02 be 75 1b a8 be 2a ca e5 3c
       -0.32130206 -0.12757494 -0.32833448 0.0280505
000280 5e 33 45 be 5d d9 96 3c b1 03 97 3e 4a 10 50 3d
       -0.19257876 0.018414194 0.29495004 0.050796784
000290 e7 36 8f be c8 c3 8e 3e 2d 73 2b be 86 c8 9c 3e
       -0.27971575 0.27883744 -0.16743155 0.30621737
0002a0 56 c3 46 bc d2 ca 56 3e 18 7c 5d be 56 08 85 3e
       -0.012131533 0.20975807 -0.2162937 0.25982922
0002b0 bc 89 8d be c5 83 68 be a4 ca 6d be 2d 46 76 3e
       -0.27644145 -0.22706516 -0.23221833 0.24050207
0002c0 74 60 bc 3d c6 bd 54 3e 57 c7 ac 3e be a8 a3 3e
       0.091980845 0.20775518 0.33745834 0.31964678
0002d0 16 b6 84 3e 61 ba 32 3e 9f d0 55 bd af d5 85 3e
       0.2592017 0.1745391 -0.05220091 0.2613959
0002e0 ab b0 93 bb 64 e4 03 3e 44 95 a6 3e 17 bc 7d bd
       -0.0045071444 0.12880093 0.32535756 -0.061946955
0002f0 a5 fa 5c be 18 b4 41 be 88 c6 7a 3e b6 33 4b 3d
       -0.21579988 -0.18916357 0.24489796 0.049609862
000300 36 48 a1 3e 1a a6 cb 3d 97 d5 61 be d5 a2 b1 be
       0.31500405 0.09943791 -0.22054134 -0.34694543
000310 44 20 3f 3e 64 94 a4 3e bc 3b 99 3e 1f 1c 51 be
       0.18664652 0.32144463 0.29928386 -0.20420884
000320 4b 90 57 bd fd e1 03 be a0 69 3b 3d 60 63 e9 bd
       -0.052627843 -0.12879176 0.04575503 -0.113959074
000330 39 76 8e 3e ae d9 8a be fc 56 32 3d b5 8a 90 be
       0.27824572 -0.271192 0.043539986 -0.28230825
000340 44 ec 33 3d 15 9b 83 bd 57 02 9d 3a c9 c2 b6 3a
       0.043926492 -0.06426064 0.0011978847 0.0013943549
000350 36 41 e5 bd 54 7b 62 3e 09 50 18 3e 5f 92 eb 3d
       -0.111940786 0.22117358 0.14874281 0.115025274
000360 c4 f3 70 3e 46 f8 5b bd 09 2c d8 3c f1 d5 20 bd
       0.23530489 -0.05370357 0.026388185 -0.03926653
000370 f8 35 06 be 13 c4 0a be f3 a3 3e be 59 8c 90 3e
       -0.13106525 -0.13551359 -0.18617229 0.28232077
000380 2a 39 56 3e 8d 82 44 3d 15 d2 b2 3d 92 68 ee 3d
       0.20920244 0.047976065 0.08731476 0.11641039
000390 99 2a aa bc 16 90 87 be 54 06 af 3e 6a e1 aa be
       -0.020772265 -0.26477116 0.34184515 -0.33375102
0003a0 48 8e 91 3e e0 43 b2 be 05 e7 0c be 07 bf a0 be
       0.28428864 -0.3481741 -0.13760002 -0.31395742
0003b0 b6 e8 5c be c6 4f b1 3b a3 48 2f 3e 67 c0 a5 3e
       -0.21573147 0.005411121 0.17117552 0.32373354
0003c0 49 37 89 3e cd 6b 14 be ca e0 6b be 30 81 2c 3d
       0.26799992 -0.14494248 -0.23034969 0.04211539
0003d0 ce d0 62 3e 3f 0a 78 be 6b 5a 0f be cf f0 e9 bd
       0.22149965 -0.24222659 -0.13999335 -0.11422884
0003e0 30 9f 83 3e f6 21 29 be 46 6a 02 be fc 6a 1e 3e
       0.25707388 -0.16516861 -0.12735853 0.15470499
0003f0 0c ed d9 bd af db ab 3d 33 d3 a5 be 8d 4f a4 be
       -0.10640916 0.08391511 -0.32387695 -0.32091942

encoder.layers.0.linear1.bias f4 [32]
000000 58 a9 8f be e1 69 36 be b4 7b d8 3b 8e 14 42 be
       -0.28058887 -0.17813827 0.0066065434 -0.18953153
000010 12 e8 a4 3d e3 22 af be ce f7 81 be af 8e 71 3e
       0.080520764 -0.34206304 -0.25384372 0.23589586
000020 64 16 1b 3c 52 99 26 be 34 11 83 3e 93 85 2d 3d
       0.009465788 -0.16269425 0.25599062 0.042363714
000030 dd d4 3a 3e 78 05 b7 3d 9f e2 72 3d b8 77 67 3e
       0.18245263 0.0893659 0.059298154 0.22604263
000040 d5 e6 64 3e ec 8b 40 3e a9 e3 1c 3e d0 63 70 3e
       0.2235368 0.18803376 0.1532122 0.23475575
000050 89 a4 a9 be 15 85 7f 3d 91 97 89 be 0b 3b 4e 3d
       -0.33133343 0.062382776 -0.26873448 0.050349277
000060 2f 78 01 be 8d 2e 93 be 5b 3d cb 3c f9 49 2d 3d
       -0.12643503 -0.28746453 0.02480953 0.042306874
000070 6a 73 32 3d 6a 64 a2 be 57 1f a8 be fd e2 3c 3e
       0.0435671 -0.31717235 -0.3283641 0.18445964

encoder.layers.0.linear2.weight f4 [8, 32]
000000 e1 4b 88 3d ce c5 2f bd d9 8e 87 bd 5a f2 0c 3d
       0.06655098 -0.04291325 -0.06619043 0.034410812
000010 4d 31 92 3d 12 91 9f 3d cf 70 db 3d 69 e6 d2 3d
       0.0713831 0.07791342 0.10714876 0.102978535
000020 4f 1b 51 bd a5 7a 23 3d 03 6b 27 3e a8 77 84 bc
       -0.051051434 0.039911885 0.16349415 -0.016170338
000030 75 b0 e2 bc c8 d6 37 3d 80 ba f1 3c 04 5d 1d be
       -0.027672032 0.044882566 0.029507875 -0.15367514
000040 cc 1e a4 bc f8 d3 d9 3c 0c 37 0e ba d6 fa 9e 3b
       -0.020034216 0.026590332 -0.0005425073 0.0048516793
000050 21 06 33 3d 1d 2a fc bd 8d 31 de 3c 3b f4 cf bd
       0.043707017 -0.1231272 0.027123237 -0.10154005
000060 7f 8b 51 bd 53 18 d9 3d b7 96 06 3e 24 de 2e 3d
       -0.051158424 0.106003426 0.1314343 0.04269232
000070 06 d9 25 be ac f9 0c 3e 96 2d e1 3d 34 d7 1e bd
       -0.16196069 0.13767117 0.10995023 -0.038779452
000080 3f 45 91 bd 91 5a 14 3d ee ba 1c 3e 37 7e 11 be
       -0.07093286 0.036219183 0.15305683 -0.14208303
000090 b4 cc ba 3c 28 07 d7 bd 7b 11 2d bd bf 5a b8 bd
       0.022802688 -0.10499412 -0.042253 -0.090016834
0000a0 17 29 1f be 2c 84 1a 3d 67 d8 83 bc 5e 94 d7 3c
       -0.15543018 0.037723705 -0.0160944 0.026315864
0000b0 f9 4d c4 bd 98 ca 58 bc 2b b2 63 bb 33 a1 2a 3e
       -0.095851846 -0.013231896 -0.0034743648 0.16663055
0000c0 93 d4 e3 3d 01 fd b2 3d 5c 4b 45 bd 29 ec 8c 3d
       0.1112453 0.08739663 -0.04816757 0.068809815
0000d0 7d 71 92 3d f8 d5 5d bd ea 6a 56 3c d7 55 23 be
       0.071505524 -0.054159135 0.013087014 -0.15950714
0000e0 00 9f 81 3d dc be 4d 3d 2a 45 9f 3d 55 a4 39 bb
       0.06329155 0.050230846 0.07776864 -0.002832671
0000f0 53 74 24 3e 3c 70 7f 3b de 1f 2a bd 83 75 31 3e
       0.16059999 0.003897681 -0.041534297 0.17329983
000100 a7 05 b1 3d 5f bf e9 3d 07 75 24 bc 8b f4 30 bc
       0.08643656 0.11413454 -0.010037667 -0.010800491
000110 15 f1 0c be 1d fe df 3c 43 0c 1a 3c da 4c 20 bd
       -0.1376384 0.02734285 0.0094023375 -0.03913579
000120 15 fb 90 3b c3 5b 6b 3d ac f7 29 3e 82 0e 1f 3e
       0.0044244626 0.057460558 0.16598386 0.15532878
000130 1c 00 03 be 2f f6 b3 3b 51 4c e0 3d 82 79 ba 3d
       -0.1279301 0.005491994 0.10952056 0.09105207
000140 b8 de ce 3d 17 7d 58 bd 17 e8 bd bb d0 27 91 3d
       0.10101074 -0.05285367 -0.0057954895 0.07087672
000150 58 04 0c be f0 aa 3c be 24 63 ce 3d c1 3c dd 3d
       -0.13673532 -0.18424582 0.10077503 0.108026035
000160 ac 44 f8 bd aa 16 ad 3d 69 dc a7 3d b0 71 39 bd
       -0.12122473 0.084515885 0.08196337 -0.045274436
000170 d1 0e 7f bd a5 c3 17 be cb 05 80 3d 75 10 f5 bd
       -0.06226999 -0.14820726 0.06251105 -0.119660296
000180 46 90 10 3e 57 98 c0 bd 99 4c db bd ed 29 65 bd
       0.14117536 -0.094040565 -0.10707969 -0.055948187
000190 6d 20 b8 bc 05 81 ec bd 89 e9 db bd e0 0b f8 bd
       -0.0224764 -0.11548046 -0.10737903 -0.1211164
0001a0 e6 bb 22 be 18 b0 6c 3d 81 28 c6 bd a5 52 be bd
       -0.1589199 0.057785124 -0.09675694 -0.09293107
0001b0 6f 9b c5 3d 17 64 94 bc a0 26 b6 3d 27 0e 96 3c
       0.09648787 -0.018114133 0.08894086 0.018317295
0001c0 44 9a 19 3d 36 f0 d0 3d 21 d2 63 3d 33 91 87 bd
       0.037500635 0.102020666 0.055620316 -0.066194914
0001d0 c5 9e 19 be c4 35 11 3e b5 ed 1f 3e 53 26 17 be
       -0.15001972 0.14180666 0.15618022 -0.14760713
0001e0 94 cb db 3d 8e cd 17 3e e9 f9 63 3d b3 3e e6 3d
       0.10732189 0.14824507 0.055658255 0.11242428
0001f0 f3 31 42 bd 4e 96 ea 3d 9c 0b 8e bc 00 ef fd bd
       -0.047410917 0.114544496 -0.01733952 -0.12399101
000200 5f 1d 18 be e1 10 f4 bd 38 6b 29 3e 5f e8 b8 bd
       -0.14854954 -0.11917282 0.16544807 -0.09028696
000210 c0 c1 d2 bc 14 9c 54 bd c2 1d f3 3d 17 bf a2 bd
       -0.025727153 -0.05190666 0.1187091 -0.07946604
000220 94 56 04 3e c1 b0 f4 bd 24 bb fa bd 7d c6 a2 3b
       0.12923652 -0.11947776 -0.122427255 0.0049675093
000230 fb a4 48 3c bc 29 52 3d 20 6c d4 bd 12 51 17 be
       0.012246366 0.051309332 -0.10372186 -0.1477702
000240 79 3f 38 be b1 16 34 be 2e 41 c1 bd 9d 6a 43 bd
       -0.17992963 -0.17586781 -0.0943626 -0.047709096
000250 e2 3c 37 bd 76 e9 e7 3d 4d 74 01 3d 38 8b 34 be
       -0.044735797 0.11323826 0.031605054 -0.17631233
000260 60 fc e9 3d de 4e 2e 3e f9 ba ec 3d fd db b4 bd
       0.1142509 0.17022273 0.115591 -0.08831022
000270 6c 4e cd bd a6 08 10 be 4e 03 6c 3d 73 ac 15 3e
       -0.100247234 -0.14065799 0.05762034 0.14616565
000280 57 fa a5 3d 39 79 c7 3d 06 46 1b be d9 de 24 be
       0.08104389 0.09739918 -0.1516343 -0.16100635
000290 70 64 17 be 5a 1c 0a be 53 31 e1 bd dc 60 10 3e
       -0.14784408 -0.13487378 -0.10995736 0.14099449
0002a0 aa 4a cd 3c 68 b1 8e bd 16 5f 7e 3c c7 a3 96 3c
       0.025060017 -0.06967431 0.0155256 0.018388642
0002b0 f0 1a 5e bd cc 61 d2 bd 0d 08 1f 3e 08 22 06 bd
       -0.05422491 -0.102725595 0.15530415 -0.0327473
0002c0 e7 4f 90 3d 5d 58 ab 3d 36 7b 08 3e 49 7b 44 bd
       0.0704649 0.08366463 0.13328251 -0.047969136
0002d0 17 dd 03 be af 88 a4 3b b3 a9 a2 bd 45 2f 1e 3e
       -0.12877308 0.0050211768 -0.07942524 0.1544772
0002e0 a3 71 0d be b7 70 f7 3d 89 18 fd bd df ae cd 3d
       -0.1381288 0.120820455 -0.12358195 0.1004312
0002f0 82 e1 10 3e 86 15 b8 3d 54 95 2c 3e 8d e9 aa bb
       0.14148524 0.0898848 0.16853839 -0.0052158297
000300 34 76 03 3d fd 92 6a 3c ce 3c 16 be 97 d8 33 be
       0.03209515 0.014317271 -0.14671633 -0.17563091
000310 f8 ee 24 be 4a 0f f9 b9 13 ca a6 bc 4c 1d 3b be
       -0.16106784 -0.00047504372 -0.020360028 -0.18272895
000320 1d cc 45 3c df e6 f8 3d 12 18 09 3e 7e 53 26 3e
       0.01207259 0.1215341 0.13388088 0.16242787
000330 1c 91 82 bd b8 48 9d bb f9 4a 70 bd 13 b2 cb 3d
       -0.06375334 -0.0047999285 -0.05866525 0.09946074
000340 19 50 71 3d 39 a5 87 3d d8 c2 f0 3d f9 6a 22 3e
       0.058914278 0.066233106 0.117559135 0.1586112
000350 e0 24 24 bd 65 ad 26 be 54 ff 4a 3d c6 49 1e be
       -0.04007423 -0.16277082 0.049559906 -0.1545783
000360 1a 91 27 3e 70 22 06 be 78 9f 3d bc ac 27 7e bb
       0.16363946 -0.13099074 -0.011573665 -0.003878097
000370 a8 ac 06 be b6 9a 30 be 1b 55 c4 bc 9e 8f fb bb
       -0.131518 -0.17246518 -0.023966363 -0.0076770326
000380 5d 8d 1c 3e 40 66 51 3d f1 7f b7 3d 81 d6 86 3c
       0.15288301 0.051122904 0.0895995 0.016459705
000390 6a 53 35 bb 1f f7 16 3e 92 36 9a bb 18 c3 2a 3e
       -0.0027668127 0.14742707 -0.0047062123 0.16675985
0003a0 d5 d2 73 bd c4 38 e5 bd d3 46 22 3e 9d b3 c9 3d
       -0.059527237 -0.11192468 0.1584733 0.09848712
0003b0 c1 20 bd bc dc fa 03 3e 9d 1e 39 bd 8b 69 39 bc
       -0.023086907 0.12888664 -0.04519521 -0.011316667
0003c0 d9 fa cc 3c e5 5e 74 bc 77 be aa bd ca 50 c7 3d
       0.025021957 -0.014915203 -0.083371095 0.09732206
0003d0 e2 d7 d0 3d 5c a9 e7 bd bc 31 13 be 48 5f 29 be
       0.101974264 -0.113115996 -0.14374441 -0.16540253
0003e0 94 80 12 be b2 c7 28 be 41 38 e4 3d 86 fe 69 3d
       -0.14306861 -0.16482428 0.11143542 0.057127498
0003f0 c8 d5 19 3e f8 2d f0 bd 25 21 06 3d ed 3a 5e 3d
       0.15022957 -0.11727518 0.032746453 0.054255415

encoder.layers.0.linear2.bias f4 [8]
000000 82 01 e5 3d 6e 83 20 be b3 06 f9 bc ee e8 af 3b
       0.11181928 -0.15675136 -0.030398702 0.0053683436
000010 88 cd 12 3e 4a bf 18 3e c3 57 91 bd c4 ea 08 be
       0.14336216 0.14916721 -0.07096817 -0.13370806

encoder.layers.0.norm1.weight f4 [8]
000000 ba f1 7d 3f 1b 07 7e 3f be ff 80 3f 3c 95 7e 3f
       0.9919697 0.9922959 1.0078046 0.99446464
000010 47 eb 7d 3f d9 2c 7e 3f 6b 03 81 3f 8e fc 80 3f
       0.9918713 0.9928718 1.0079168 1.0077074

encoder.layers.0.norm1.bias f4 [8]
000000 aa 07 0a 3c bb f9 fd 3a 7b 82 0b bc 0a 75 89 bb
       0.008424679 0.0019376794 -0.008514996 -0.0041948603
000010 53 d4 de bb 47 6a 0a 3c 37 08 08 bc 33 1b d0 3b
       -0.0068002134 0.00844819 -0.00830274 0.0063508986

encoder.layers.0.norm2.weight f4 [8]
000000 9a 16 7e 3f 3d 00 7e 3f fd e7 80 3f 0c 3b 7e 3f
       0.9925324 0.99219114 1.0070797 0.9930885
000010 fb 57 7e 3f 1a b0 80 3f 96 0e 81 3f 55 66 7e 3f
       0.99353 1.0053742 1.0082576 0.99374896

encoder.layers.0.norm2.bias f4 [8]
000000 a5 e4 08 3c 15 ef c4 3b 06 21 0b bc 9a a5 b9 bb
       0.008355294 0.006009946 -0.00849176 -0.005665493
000010 58 99 b5 bb 04 4d 04 3c d1 37 08 bc 69 cb 9f 3a
       -0.0055419616 0.008075003 -0.008314089 0.0012191358

encoder.layers.1.self_attn.in_proj_weight f4 [24, 8]
000000 6c 3d d9 3e 46 79 c9 3d a7 52 0a bd 57 78 9f be
       0.42429674 0.09837584 -0.03377023 -0.311465
000010 64 3e 66 be c6 52 c2 3e c1 7e 2c 3d 3b e4 f2 bd
       -0.22484738 0.37953776 0.04211307 -0.11859938
000020 9d 28 f2 bd 4a 0f 98 3e 03 d9 0d be ad 18 57 bb
       -0.118241526 0.29699165 -0.13852315 -0.0032821104
000030 04 c7 82 3e 27 83 1f 3c 9e 83 c5 be 10 c5 a5 bd
       0.25542462 0.009735859 -0.38576978 -0.08094227
000040 e9 21 a5 be 51 af 80 be ef b5 c6 3e 48 df 86 be
       -0.32252434 -0.25133756 0.3881068 -0.26342225
000050 2a 04 81 be 4e 0e ac be b5 3b 8c 3e 75 0b 8d be
       -0.2519849 -0.33604664 0.27389303 -0.27547804
000060 48 0a 99 be 61 c4 87 be 2d e3 9a 3d d3 c2 8e 3d
       -0.29890656 -0.26517013 0.075628616 0.069707535
000070 3a c3 c5 be b5 32 01 3e 6f bf 72 bc ce 98 0c be
       -0.3862551 0.12617 -0.014816149 -0.13730165
000080 50 68 b0 3e 2e 2d 30 3e 02 4e 02 be 12 09 bf 3e
       0.34454584 0.17204735 -0.1272507 0.37311608
000090 b1 dc a2 3e 4a 82 7c be 87 bc f5 3c 94 a7 bc 3e
       0.31809 -0.24659076 0.029997123 0.36846602
0000a0 87 b2 b1 bd 3b 86 8b 3d 9e a5 d0 3d 8a 0f a2 3e
       -0.086766295 0.06812712 0.10187839 0.3165248
0000b0 7e e9 b8 be fb 4e 9f 3e 78 54 a6 3d cd d5 19 3e
       -0.3611564 0.31114945 0.0812158 0.15022965
0000c0 8d 60 61 bd dd 9b cf 3e ab 18 8d 3e 86 5d 8a be
       -0.05502372 0.40548602 0.27557883 -0.27024478
0000d0 a2 c2 73 be 05 ed 40 3e b7 1f cd bd ce 9c 64 bd
       -0.23804715 0.18840416 -0.10015815 -0.055813603
0000e0 e9 13 ad 3c d7 95 06 3e d8 bc 9c be 14 46 a4 be
       0.021127658 0.13143097 -0.30612826 -0.32084715
0000f0 9b b1 a4 3e 1e 1e b2 3e 33 2d ed 3d 69 46 ba bd
       0.32166752 0.34788603 0.11580887 -0.09095461
000100 6a 3e 0a bd 77 d0 ad 3e a5 d0 30 be 9c e8 d7 3e
       -0.03375093 0.3394811 -0.17267092 0.42169654
000110 fe ab 67 3d 1d 74 9c 3e a0 88 d2 3e 73 ea 3e be
       0.05656051 0.30557337 0.41119862 -0.18644123
000120 a1 a1 9e 3e 75 7f 42 3e 83 ff 3f be 05 e6 79 bd
       0.30982688 0.18993933 -0.18749814 -0.06101038
000130 80 b2 75 3e 8b e0 af 3e 7d 24 a7 3e 96 09 6c 3e
       0.23993874 0.34351 0.32645026 0.23050532
000140 b2 ec cf be 2b 26 3b 3e 7b 66 21 3d a7 2c 72 3d
       -0.40610272 0.18276279 0.039404374 0.059124615
000150 d7 c9 ea 3d e8 b1 78 bd cd 49 ad 3e 95 f3 d8 3e
       0.11464279 -0.06071654 0.33845368 0.42373338
000160 b4 72 b5 3e e2 ba d2 bc 08 03 28 be f5 f2 74 3c
       0.35439074 -0.025723878 -0.16407406 0.014950504
000170 a5 70 92 3d c2 e6 87 3e 81 fb 99 be 94 b3 25 3e
       0.071503915 0.26543242 -0.30074695 0.16181785
000180 5d 64 c0 be 34 e5 23 3e 24 e7 d2 be 89 8d 3f be
       -0.3757657 0.16005403 -0.4119197 -0.18706335
000190 4d 45 99 3e 72 4f 96 3c 51 f6 5f bd ed c5 df be
       0.29935685 0.01834843 -0.054678265 -0.43705693
0001a0 9d 09 b7 3d 46 8a 82 be bb 37 da be 5b 6a a5 be
       0.089373805 -0.2549612 -0.42620644 -0.32307705
0001b0 4f e1 ac 3c c3 6a b2 3d ed 39 1a 3e b9 1d 85 3e
       0.02110353 0.087117694 0.1506116 0.2599924
0001c0 1b 10 85 3e 81 27 80 be d3 b3 95 3d 1e 6a 35 3e
       0.2598885 -0.2503014 0.073096894 0.17716262
0001d0 40 47 84 3e ad 98 64 3d d1 53 bc 3e a9 14 cb bd
       0.2583561 0.055809665 0.36782697 -0.0991605
0001e0 8d 93 26 3e 2f 44 a8 3e 69 53 2e 3e 1b 06 79 3d
       0.16267224 0.3286452 0.17024006 0.06079684
0001f0 82 64 3b be a4 e0 a9 3d 33 e7 00 be fb 69 47 3e
       -0.1830006 0.082948 -0.12588196 0.19474022
000200 51 d5 df be a7 43 ba 3e 59 2c f1 bd 56 63 2b 3c
       -0.43717435 0.3637974 -0.11776037 0.010460695
000210 b8 04 8f 3e eb 7e c0 3d 8a 62 a3 be 1b 79 cd 3e
       0.27933288 0.09399208 -0.31911117 0.4013146
000220 49 0c 5b 3e 16 a3 c1 be 39 2d 83 3e f0 d0 85 3d
       0.21391405 -0.37819737 0.2562044 0.06533992
000230 36 42 5a 3e ea 99 dd 3c ea 3c 2e 3e af 22 fb 3c
       0.2131432 0.027050931 0.17015424 0.030656187
000240 11 cc b4 be e7 42 86 be 62 0b 01 be 7a 2e b7 3e
       -0.3531194 -0.26222917 -0.12601998 0.35777646
000250 f6 11 4c 3e cf ad 5d be 8c ee 0a be 6a 27 96 3c
       0.19928727 -0.21648334 -0.13567561 0.018329341
000260 2d c1 87 3e 3f 75 aa 3e c8 c8 40 be db 14 b5 be
       0.2651457 0.33292577 -0.18826592 -0.35367474
000270 7f a0 15 bd 7e d4 51 3d a9 a4 f6 bd 7b 19 6b bd
       -0.036530014 0.05122804 -0.12043125 -0.057397347
000280 c2 7e 46 3d 51 e1 06 be 1e 05 d9 be 84 b2 95 be
       0.04846073 -0.13171889 -0.42386717 -0.2923776
000290 9a b5 bc bd 6e bb 49 3e ed ac 52 bd fd 37 b7 be
       -0.09214325 0.19700405 -0.051434446 -0.35784903
0002a0 0d 72 cd 3e 9e 31 57 be d6 da d0 3e 5a 21 3c 3e
       0.40126076 -0.21015021 0.4079196 0.18372098
0002b0 04 a1 b6 bc 5d 4f c6 be 24 2d a5 be b5 a8 86 be
       -0.022293575 -0.38732424 -0.32261002 -0.26300588
0002c0 43 21 6c be 67 74 c9 bc 76 65 02 be cb 3f b6 be
       -0.23059563 -0.024591638 -0.12734017 -0.35595545
0002d0 61 c7 3a 3d 28 84 ae 3d e9 4e 4f 3b d3 5c ad 3d
       0.0456003 0.085213006 0.0031632727 0.084649704
0002e0 e9 91 eb bd 6a ac 19 bd 85 be 49 3d 69 fb 90 be
       -0.115024395 -0.037517942 0.04925396 -0.2831681
0002f0 26 ea 8d be dd 67 d8 be 28 ca cf 3e 3a 7e d3 3e
       -0.27717704 -0.4226674 0.4058392 0.4130724

encoder.layers.1.self_attn.in_proj_bias f4 [24]
000000 da ce 02 3c 88 32 6d bb 51 5a 87 3b 54 b2 d9 3b
       0.007983888 -0.003619345 0.0041306396 0.006643573
000010 44 fa 04 3c 55 ac cd bb 65 b0 58 bb c3 d3 07 bc
       0.008116309 -0.006276647 -0.0033064124 -0.008290234
000020 8a db b5 b8 bb ab a3 b8 f3 df 92 39 3a c2 10 39
       -8.671645e-05 -7.804433e-05 0.00028014145 0.00013805265
000030 8d 31 66 39 c1 ae 11 b8 62 3e ab b8 81 20 b9 b8
       0.00021952968 -3.4733446e-05 -8.165535e-05 -8.827542e-05
000040 65 ae 58 3b fc 67 fe bb d1 09 0c 3c 83 64 ff 3b
       0.0033062932 -0.0077638607 0.008547262 0.0077939644
000050 a1 a7 e7 3b 5f fe bd 3b 6a 6d 0d 3c 94 e2 05 bc
       0.0070695435 0.0057981457 0.008632043 -0.008171696

encoder.layers.1.self_attn.out_proj.weight f4 [8, 8]
000000 0e 21 12 be e8 7a be bb 91 b8 e3 3d 31 cf ea bd
       -0.14270422 -0.0058129914 0.111191876 -0.114653
000010 4e 4d 4d bd 3d f7 1e bd e9 f5 7c 3e e3 cf 8d be
       -0.05012255 -0.038810004 0.24703182 -0.27697667
000020 8b 4c 8c 3e 9c 3c 03 3e 7e be 14 be 02 75 a9 3e
       0.27402148 0.1281609 -0.14525792 0.33097082
000030 f4 f3 66 3e 3f 6c 3b 3e 4c d0 8c 3d fb b5 a9 be
       0.22553998 0.18303011 0.06875667 -0.33146653
000040 c3 8d 53 3d a8 d0 8e 3e 7c e0 e1 bd 37 49 62 be
       0.051648866 0.27893567 -0.11029145 -0.22098242
000050 41 0a df bd 2a 03 22 3c 3c a0 b0 be 37 5e 03 3d
       -0.10890628 0.00988845 -0.3449725 0.032072272
000060 3c 2f f4 bd 7e c6 86 be 7c fd 35 be c5 70 74 3e
       -0.11923072 -0.26323313 -0.17772478 0.23871143
000070 e7 0b 7f 3d 51 34 09 3c 4e 33 a6 3c 09 59 42 be
       0.06226721 0.00837429 0.020288136 -0.18979277
000080 28 27 9a 3c 46 f4 27 3e 11 62 a3 be a2 83 86 be
       0.0188175 0.16401777 -0.31910756 -0.26272303
000090 f1 72 63 be ff a5 e1 bd bf f9 d1 bd 96 16 67 3e
       -0.22211815 -0.11017989 -0.102527134 0.2256721
0000a0 a6 64 97 3e 61 8f 82 3e e9 0d ea 3d 9e f8 5d 3e
       0.29568976 0.25500014 0.114284344 0.21676871
0000b0 2f ee fd bd ed 34 ee 3d 65 f8 14 3e 75 3b 1d be
       -0.123989455 0.116311885 0.1454788 -0.15354712
0000c0 0d e6 a2 be 3f fc 81 3e fd be 1e be e5 90 ad be
       -0.3181614 0.2538776 -0.15502544 -0.33899608
0000d0 3a 3c 62 be d2 96 aa be f5 41 3d be 5a b7 10 3e
       -0.22093287 -0.33318192 -0.18482192 0.14132443
0000e0 5e dd a3 3e ae 79 47 be 36 f5 1b 3d 8e 80 10 3d
       0.32004827 -0.19480011 0.03807565 0.03527885
0000f0 ff d9 06 be b7 1d b4 be 09 10 49 3e da bf 35 be
       -0.13169096 -0.3517892 0.19635023 -0.17748967

encoder.layers.1.self_attn.out_proj.bias f4 [8]
000000 7c dc 0c 3c ba d0 2c 3b 57 4b 0d bc 51 df 98 bb
       0.008597489 0.0026369528 -0.008623919 -0.0046652933
000010 93 12 e9 bb 14 81 d9 3b e3 d9 0c bc 8a 46 01 3c
       -0.00711281 0.0066377018 -0.00859687 0.007890353
