models/ts_views_models_old/ts.ckpt (torch, 194832 bytes, 201 tensors)

input_pos_embedding.weight f4 [1024, 4]
-0.0057876455 -0.274831 -1.063859 -0.84950036 0.49685958 -0.5375122 -0.5734779 0.16347797
-1.2255114 -0.35060596 -0.2987114 1.7178243 -1.4017595 0.29299173 0.2331689 -2.290573
0.5636949 0.6288064 -1.2678986 -1.3783433 1.1956507 -1.105682 -0.6622027 0.6857059
-0.71506345 -0.8800298 0.04474232 -3.0621612 -0.37348598 0.19395947 -1.174737 0.21584655
0.5962776 2.8496675 -0.51829505 -0.33266333 0.19457465 1.479067 -0.5420428 0.86930007
-0.56652844 -0.53759694 0.6060249 0.7935538 0.9781659 -0.73209673 -0.14091054 0.7553895
-0.034680184 -0.18817668 0.5015411 0.6636502 -0.5855638 -0.13258292 -0.9682405 -0.7958839
-0.8519243 -0.90981185 0.92090034 -0.79801476 -0.60756975 0.5493446 -1.2851912 -0.8365043
0.0704162 -0.12888062 2.3849766 1.3747666 -1.941249 -0.9926505 -1.2556139 -1.287131
-1.7893194 -0.5261766 -1.064332 0.8162677 0.848424 -0.6694596 0.0029260146 -0.19382213
1.874104 1.1659476 0.3161122 -0.55432105 0.58500034 0.8594987 -0.25433746 0.21654919
-0.5715695 -0.6148366 0.9144207 0.5352403 -0.7587971 -1.8055037 -1.0319417 1.236044
-2.3187075 0.5845907 1.2396924 -0.20627737 0.65069324 0.8007795 1.0598594 -0.74310374
-0.8588004 -0.43946633 -0.7467929 0.5755491 -1.3287325 -0.06294082 -1.1928046 0.5005617
-0.75906503 0.88357145 -0.8005014 0.44789806 0.2128758 0.074749246 -1.5107256 0.95777863
-1.5968413 0.6492409 -1.9248546 -0.8617457 0.8413424 -0.6589555 -0.57038903 -0.1482718
-0.50097835 -0.9749807 -0.07472404 1.8025162 -0.3386532 -1.0064359 -0.24650046 -1.2115722
-1.3579652 -0.61657834 0.5469735 -1.4777107 2.0497334 0.06964604 0.48331097 -0.48547962
-0.45907244 0.44140056 0.43657514 -1.4451551 -1.5495993 0.080958486 -1.1973782 0.6184018
-0.6010064 -0.7217509 0.8813641 -0.057502333 -0.16155908 -0.72608584 -0.48746607 1.2108562
-0.03416949 1.260621 0.27688313 -1.3274946 -0.46636587 -0.48680332 0.49001688 0.6179047
-0.69267946 -0.10024777 -1.0363408 0.64661574 -1.2504376 -1.95639 -0.57850975 -0.9622529
1.841398 0.7829297 -1.1462789 1.8857913 -2.2001717 0.6775996 0.5367341 0.20206194
0.13903186 -0.48729804 1.2759256 -0.96918666 -0.3824122 0.1277443 1.2038002 -0.40638772
-0.18221906 -0.49300322 0.8356946 1.8183352 -0.37239864 0.45811513 -1.324365 -1.2842805
0.3361866 -0.49288505 -1.388304 -0.3698182 -0.5909178 -0.73406786 0.8007045 -0.448849
1.3914862 0.04106875 0.19383909 0.7412722 2.1361587 -0.6929945 -0.98370886 -1.14834
0.53395593 -0.1972476 -0.43800318 1.0261892 -0.54217297 -1.6350392 -0.67565954 -0.33113644
-0.24615085 0.6110546 1.2811445 -0.2416937 -2.4648862 -0.2918499 -1.2840214 0.07964778
0.5420892 -0.43199736 0.8621659 -0.32424214 1.2799672 -0.81217325 -0.7497844 2.9001207
1.0028582 -0.548592 2.311667 -2.1427114 -0.36462137 1.2610981 0.118594706 1.6616676
0.2510105 0.9674955 -0.62359285 -0.03073693 -0.2781498 -0.550064 1.180744 -0.4937354
00000000: 4aa6 bdbb a6b6 8cbe 882c 88bf db78 59bf
00000010: 6164 fe3e 669a 09bf 73cf 12bf c566 273e
00000020: 8fdd 9cbf a082 b3be b3f0 98be abe1 db3f
00000030: db6c b3bf 0303 963e d4c3 6e3e bf98 12c0
00000040: 4f4e 103f 75f9 203f 804a a2bf 8e6d b0bf
00000050: 150b 993f fd86 8dbf 1e86 29bf 6c8a 2f3f
00000060: 660e 37bf a249 61bf b943 373d 73fa 43c0
00000070: 8e39 bfbe 509d 463e c85d 96bf e106 5d3e
00000080: a6a5 183f f460 3640 fcae 04bf d952 aabe
00000090: 943e 473e 1152 bd3f 51c3 0abf 738a 5e3f
000000a0: 0208 11bf f49f 09bf 7324 1b3f 5826 4b3f
000000b0: 1569 7a3f b16a 3bbf da4a 10be 3561 413f
000000c0: cf0c 0ebd 63b1 40be ff64 003f fbe4 293f
000000d0: 82e7 15bf d1c3 07be 9cde 77bf 0cbf 4bbf
000000e0: b617 5abf 6ee9 68bf 20c0 6b3f b24a 4cbf
000000f0: b189 1bbf d9a1 0c3f 2581 a4bf 2525 56bf
00000100: 5e36 903d 48f9 03be 75a3 1840 5af8 af3f
00000110: d97a f8bf 581e 7ebf f5b7 a0bf b5c0 a4bf
00000120: 6b08 e5bf 82b3 06bf 083c 88bf ecf6 503f
00000130: 5132 593f b461 2bbf 61c2 3f3b 4f79 46be
00000140: a4e2 ef3f c53d 953f 75d9 a13e fce7 0dbf
00000150: 95c2 153f 1b08 5c3f 8538 82be 12bf 5d3e
00000160: 6152 12bf ee65 1dbf 7a17 6a3f 8205 093f
00000170: 8740 42bf bf1a e7bf aa16 84bf b136 9e3f
00000180: b465 14c0 bca7 153f 3eae 9e3f 603a 53be
00000190: d593 263f e3ff 4c3f 79a9 873f 0c3c 3ebf
000001a0: 58da 5bbf bb01 e1be d22d 3fbf 3057 133f
000001b0: e813 aabf 1ee7 80bd d2ad 98bf d024 003f
000001c0: 1652 42bf bd31 623f a9ed 4cbf e552 e53e
000001d0: 1dfc 593e 2216 993d 755f c1bf fb30 753f
000001e0: 4c65 ccbf a734 263f a361 f6bf 5e9b 5cbf
000001f0: 3762 573f 4fb1 28bf 0405 12bf 90d4 17be
00000200: 1e40 00bf 5698 79bf eb08 99bd dab8 e63f
00000210: f463 adbe e4d2 80bf 9e6a 7cbe cc14 9bbf
00000220: ced1 adbf 14d8 1dbf 7506 0c3f a025 bdbf
00000230: d52e 0340 95a2 8e3d 8974 f73e c990 f8be
00000240: 8b0b ebbe 41ff e13e c786 df3e d8fa b8bf
00000250: 4559 c6bf 90cd a53d b043 99bf 954f 1e3f
00000260: 8edb 19bf abc4 38bf 14a1 613f 9187 6bbd
00000270: be6f 25be c3e0 39bf 2795 f9be 56fd 9a3f
00000280: 4ff5 0bbd 075c a13f a0c3 8d3e 58eb a9bf
00000290: 82c7 eebe 493e f9be 7ee3 fa3e 012f 1e3f
000002a0: 7153 31bf b44e cdbd d1a6 84bf 9c88 253f
000002b0: 570e a0bf fd6a fabf 3719 14bf 3556 76bf
000002c0: eeb2 eb3f 156e 483f 44b9 92bf 9c61 f13f
000002d0: 9dcf 0cc0 2b77 2d3f 6867 093f 53e9 4e3e
000002e0: 5e5e 0e3e 217f f9be 8851 a33f 9e1c 78bf
000002f0: 88cb c3be 67cf 023e 2016 9a3f 0d12 d0be
00000300: a297 3abe eb6a fcbe 15f0 553f 35bf e83f
00000310: 09ab bebe 118e ea3e cb84 a9bf 4e63 a4bf
00000320: a620 ac3e 6e5b fcbe f2b3 b1bf d058 bdbe
00000330: 6446 17bf dfeb 3bbf f8fa 4c3f 89cf e5be
00000340: 381c b23f b537 283d c17d 463e 04c4 3d3f
00000350: d3b6 0840 1668 31bf 58d4 7bbf cefc 92bf
00000360: 56b1 083f 46fb 49be f441 e0be 2b5a 833f
00000370: d9cb 0abf f748 d1bf 06f8 2cbf b78a a9be
00000380: f80e 7cbe 136e 1c3f 8bfc a33f 8e7e 77be
00000390: b2c0 1dc0 5a6d 95be d05a a4bf 601e a33d
000003a0: 5cc6 0a3f c22e ddbe e8b6 5c3f 1103 a6be
000003b0: f7d5 a33f 96ea 4fbf dff1 3fbf 949b 3940
000003c0: a85d 803f 8670 0cbf 5af2 1340 2f22 09c0
000003d0: a7af babe aa6b a13f c8e1 f23d 86b1 d43f
000003e0: 7384 803e c9ad 773f c8a3 1fbf 04cc fbbc
000003f0: a769 8ebe ffd0 0cbf 9f22 973f e3ca fcbe

target_pos_embedding.weight f4 [1024, 4]
-1.438544 -2.1071503 0.2451448 -1.5210325 -0.35455245 0.3261015 0.8945232 0.1945758
-1.8088598 -1.9109308 0.48422498 -0.5842647 2.1826184 -1.5095524 0.031776164 -0.18612082
-1.8003006 0.5230648 2.0321512 2.4963906 -0.9941499 -1.3425903 -0.86813086 0.36654124
-0.63870627 -0.09409882 2.2719674 0.6531417 -1.5658944 0.96198213 0.44290286 -1.7134978
-1.4917175 1.1135155 2.1986701 -0.67159474 0.23647632 -1.6294274 -0.29368058 -0.28436795
0.16896056 0.4812163 0.1800539 -2.448143 0.004094517 -0.039241448 0.08413512 1.735792
1.1800752 0.5988894 0.21085232 1.6712105 -0.60991937 -1.7542748 0.1265448 -0.7852796
-1.1533706 -0.7296701 -0.16896829 -2.0930285 -0.64112103 0.6554941 0.387935 0.8378117
1.2001315 0.38905066 1.0603173 -1.8766632 -1.6761351 0.50433904 1.085691 1.2992296
0.46674967 -0.2722135 -1.3354638 -0.3891672 0.2690743 -0.71801627 -0.112720184 1.4692141
1.5590799 1.4805591 0.8769803 -0.11007439 1.1683947 -1.6843393 0.337842 0.7015479
0.86193967 1.808636 -0.6029565 0.8865639 1.8293471 1.0077949 -1.1254934 -0.5392758
-1.1692863 -1.4857934 -1.1435292 1.2196171 0.051197935 -0.35979575 0.6557339 -0.14778881
1.0717225 -2.0641289 -0.5838511 -1.1903166 -0.5430897 1.0326889 2.307562 -2.0823975
-0.71336895 -0.7717679 0.8629684 -0.23017308 -0.098662645 -0.7832716 -0.30375737 -0.03213549
-1.1385964 2.1724021 -0.10700439 0.26604846 -0.7611566 0.4059157 -0.10349845 -0.09648204
-0.44453475 0.14479214 -1.1038417 0.6345784 0.09108953 1.8555887 -1.437887 2.0613317
-0.58955693 0.117857404 0.27742544 0.7941937 -1.3443356 0.049515158 0.81647396 0.58498245
-0.62027603 0.097199984 -1.2796621 -0.48583224 2.0687885 -0.9206505 -1.1400527 0.4658366
-1.3820877 0.36090165 0.22162908 0.42379326 0.19720192 0.36101425 0.9900719 -0.44362095
0.6588457 -1.1327186 1.0162069 0.21605523 -0.4096836 -0.20281237 0.23771644 -0.3773768
-0.296028 -0.6024905 -0.8519305 -0.6209784 -0.5815277 2.120331 0.102859885 0.7916983
0.15185398 0.646004 0.3008697 -0.48241952 -0.7461429 0.9921916 0.92481345 -0.33349106
0.6981541 -0.008570027 -0.30787316 1.8225038 1.8945283 -0.44972828 0.07785855 0.2403549
0.6332541 2.3017783 0.9423604 -1.3531038 1.7312803 1.7842082 0.8680853 1.5622041
-0.909804 -0.88018185 1.4254535 -1.059497 0.6162305 0.45658103 0.4731953 -1.232774
-0.35794222 -0.7644263 -2.1297016 0.8092367 0.28655997 -0.06446469 1.2999042 -0.08750597
-0.19673674 0.3155224 -0.99650073 0.43734556 1.0130529 -0.6374238 -0.45374876 0.16943917
0.7897987 1.1272786 -0.1651328 1.3465245 0.99784636 -1.1050972 -0.7333382 -0.78053457
-2.3373935 -0.2672075 -1.0260834 -0.42545632 1.3630428 1.7730997 0.859797 -0.36749768
0.10409426 -1.5684115 1.0757556 -0.27413574 -0.27945498 -0.95196295 0.45961714 -2.824785
0.035921074 1.9915551 -0.45587394 -0.76157886 0.90026116 1.143482 0.7394256 0.15890928
00000000: 3622 b8bf 8ddb 06c0 3d07 7b3e 31b1 c2bf
00000010: e687 b5be c7f6 a63e 79ff 643f e13e 473e
00000020: b888 e7bf 6199 f4bf 56ec f73e 5f92 15bf
00000030: 05b0 0b40 0339 c1bf b927 023d 7596 3ebe
00000040: 4070 e6bf 93e7 053f c40e 0240 ddc4 1f40
00000050: 9c80 7ebf 00da abbf d33d 5ebf 4bab bb3e
00000060: 4182 23bf e2b6 c0bd ea67 1140 4b34 273f
00000070: 3a6f c8bf 7644 763f 2ac4 e23e e553 dbbf
00000080: 99f0 bebf ad87 8e3f 03b7 0c40 a2ed 2bbf
00000090: d926 723e 1491 d0bf 4d5d 96be ad98 91be
000000a0: ff03 2d3e fc61 f63e 0d60 383e 60ae 1cc0
000000b0: 4c2b 863b a4bb 20bd 094f ac3d 6f2e de3f
000000c0: b40c 973f d150 193f ace9 573e 3aea d53f
000000d0: ad23 1cbf 148c e0bf f694 013e 1508 49bf
000000e0: a6a1 93bf a9cb 3abf 0606 2dbe 2ef4 05c0
000000f0: 8220 24bf 76ce 273f 6b9f c63e d47a 563f
00000100: e99d 993f a631 c73e 7ab8 873f 8036 f0bf
00000110: 988b d6bf 5d1c 013f ecf7 8a3f 284d a63f
00000120: d0f9 ee3e 915f 8bbe 7af0 aabf ec40 c7be
00000130: 1bc4 893e eacf 37bf d7d9 e6bd 350f bc3f
00000140: ee8f c73f f682 bd3f c881 603f af6e e1bd
00000150: f58d 953f 6e98 d7bf a0f9 ac3e a598 333f
00000160: 14a8 5c3f 6281 e73f 5b5b 1abf daf5 623f
00000170: 0c28 ea3f 6cff 803f 2b10 90bf fb0d 0abf
00000180: 2cab 95bf 7a2e bebf 2a5f 92bf 6a1c 9c3f
00000190: edb4 513d 2637 b8be 2dde 273f f355 17be
000001a0: 342e 893f b01a 04c0 4477 15bf 4b5c 98bf
000001b0: ed07 0bbf 262f 843f 19af 1340 0046 05c0
000001c0: 599f 36bf 9592 45bf 7feb 5c3f 7eb2 6bbe
000001d0: a40f cabd 7d84 48bf 1686 9bbe 81a0 03bd
000001e0: 87bd 91bf a308 0b40 1e25 dbbd 8137 883e
000001f0: 29db 42bf 2fd4 cf3e fff6 d3bd 6098 c5bd
00000200: 0f9a e3be 6444 143e af4a 8dbf bb73 223f
00000210: 268d ba3d ee83 ed3f ae0c b8bf dcec 0340
00000220: 34ed 16bf 395f f13d b50a 8e3e 4750 4b3f
00000230: 3013 acbf 68d0 4a3d 7004 513f 69c1 153f
00000240: 69ca 1ebf c910 c73d f8cb a3bf 01bf f8be
00000250: 0867 0440 c0af 6bbf 3fed 91bf 2382 ee3e
00000260: 40e8 b0bf 1ac8 b83e bcf2 623e 6efb d83e
00000270: 4def 493e dcd6 b83e 5a75 7d3f 4922 e3be
00000280: 1daa 283f ecfc 90bf 1113 823f 953d 5d3e
00000290: 0cc2 d1be 0cae 4fbe f06b 733e 8837 c1be
000002a0: fb90 97be d13c 1abf 1e18 5abf 71f8 1ebf
000002b0: 00df 14bf 81b3 0740 34a8 d23d bdac 4a3f
000002c0: 9c7f 1b3e 8560 253f 980b 9a3e b1ff f6be
000002d0: 3903 3fbf 4500 7e3f 93c0 6c3f 57bf aabe
000002e0: 3aba 323f 4c69 0cbc 8da1 9dbe ce47 e93f
000002f0: e77f f23f c942 e6be 4e74 9f3d 981f 763e
00000300: f11c 223f 5650 1340 883e 713f 8132 adbf
00000310: 989a dd3f ef60 e43f d73a 5e3f 4ef6 c73f
00000320: eae8 68bf 9953 61bf 4375 b63f 999d 87bf
00000330: 48c1 1d3f fdc4 e93e a846 f23e 8acb 9dbf
00000340: 3444 b7be 71b1 43bf 084d 08c0 232a 4f3f
00000350: fdb7 923e 1006 84bd 4363 a63f 5436 b3bd
00000360: 5b75 49be 278c a13e ac1a 7fbf c2eb df3e
00000370: b8ab 813f 352e 23bf c251 e8be 7681 2d3e
00000380: 3f30 4a3f aa4a 903f 9318 29be ea5a ac3f
00000390: dc72 7f3f d373 8dbf 0dbc 3bbf 1dd1 47bf
000003a0: db97 15c0 6ccf 88be b356 83bf 69d5 d9be
000003b0: 3078 ae3f eef4 e23f a81b 5c3f a828 bcbe
000003c0: 5f2f d53d b5c1 c8bf 5cb2 893f 855b 8cbe
000003d0: b914 8fbe d8b3 73bf f052 eb3e 47c9 34c0
000003e0: fa21 133d 47eb fe3f 4f68 e9be d5f6 42bf
000003f0: 8477 663f 9e5d 923f ff4a 3d3f 1db9 223e

encoder.layers.0.self_attn.in_proj_weight f4 [12, 4]
0.08727788 -0.30125234 0.16216746 0.09267735 0.22747913 -0.033524342 -0.58182114 -0.0469851
0.12627198 -0.39556873 -0.20847611 -0.05202831 -0.44254926 0.031940453 0.3981146 -0.17429864
-0.6130283 0.32267022 -0.3667373 0.19972609 -0.02391095 0.34492373 0.50437886 -0.21362692
-0.54958236 0.22597556 -0.2857558 -0.13014616 0.225131 -0.17023614 -0.1726689 -0.45470774
-0.4128545 -0.41721287 -0.58053535 -0.20258117 0.16552031 0.44286782 0.15411998 -0.2631143
-0.1739462 -0.308519 0.07469828 0.0057334253 0.3421286 0.61058706 -0.17648505 -0.42828152
00000000: bfbe b23d bf3d 9abe 3a0f 263e 9fcd bd3d
00000010: 4af0 683e d250 09bd 3bf2 14bf 7373 40bd
00000020: 714d 013e fc87 cabe c37a 55be a31b 55bd
00000030: d195 e2be fed3 023d add5 cb3e 587b 32be
00000040: 6cef 1cbf 0835 a53e fec4 bbbe ff84 4c3e
00000050: e6e0 c3bc d899 b03e f91e 013f 04c1 5abe
00000060: 6eb1 0cbf 2366 673e 964e 92be 0945 05be
00000070: be88 663e 6252 2ebe 1ed0 30be 74cf e8be
00000080: aa61 d3be ed9c d5be f79d 14bf 7071 4fbe
00000090: 287e 293e 92bf e23e a1d1 1d3e ebb6 86be
000000a0: f41e 32be 34f6 9dbe 69fb 983d 75df bb3b
000000b0: 7b2b af3e 6f4f 1c3f 7fb8 34be b747 dbbe

encoder.layers.0.self_attn.in_proj_bias f4 [12]
0.0021321534 -0.00040377796 -0.0017178556 -0.00043724253 -2.0784209e-07 -1.4879462e-05 6.827935e-06 -3.6906738e-06
0.002259586 -0.00065806805 -0.00058830087 -0.00023824662
00000000: 99bb 0b3b 29b2 d3b9 ab29 e1ba b33d e5b9
00000010: 332b 5fb4 cda2 79b7 841b e536 4bad 77b6
00000020: 9015 143b 3382 2cba 3438 1aba d7d1 79b9

encoder.layers.0.self_attn.out_proj.weight f4 [4, 4]
-0.3946067 -0.03908369 -0.21613699 0.20711268 -0.42162406 0.1877338 -0.19816995 -0.45058024
0.23934597 -0.3843023 -0.4454562 -0.3843502 -0.4187222 0.4613041 -0.108010195 -0.032341156
00000000: e409 cabe 3816 20bd 0453 5dbe 5915 543e
00000010: 1cdf d7be 4a3d 403e 10ed 4abe 74b2 e6be
00000020: 1c17 753e 45c3 c4be d612 e4be 8dc9 c4be
00000030: c262 d6be 0d30 ec3e 7334 ddbd 2978 04bd

encoder.layers.0.self_attn.out_proj.bias f4 [4]
0.0009574473 -0.00014069841 0.0023104409 -0.0028204937
00000000: 33fd 7a3a 7188 13b9 c46a 173b 08d8 38bb

encoder.layers.0.linear1.weight f4 [16, 4]
-0.44194227 -0.25284472 -0.20473082 0.107107766 -0.114928514 0.4798452 -0.48676047 0.35323903
-0.33234704 -0.08162059 0.18012372 -0.001912382 0.038749676 -0.3051009 -0.023836602 0.4869976
-0.18350267 -0.17093897 -0.2534899 -0.18611878 -0.09603602 -0.11690301 0.101368666 0.025096297
0.39935416 0.314714 -0.03640119 0.11393959 0.23223582 0.07358898 0.059913788 0.49931192
0.4111646 -0.39869583 -0.2202337 0.23624453 0.34304994 -0.34968728 -0.028878985 0.07327136
0.025431274 -0.26968005 -0.41623795 -0.36324555 -0.30569655 -0.28865594 0.26843435 -0.42971906
0.13560192 0.10065244 0.27001026 -0.4976073 -0.31550968 -0.12408584 -0.40510508 0.22659512
0.3166159 -0.44943106 0.41171128 -0.44580567 -0.18827808 0.10421964 -0.48186085 -0.08678797
00000000: 4246 e2be dd74 81be f5a4 51be 515b db3d
00000010: a45f ebbd 45ae f53e ab38 f9be bfdb b43e
00000020: 6429 aabe b228 a7bd 5a72 383e e4a8 faba
00000030: fbb7 1e3d 2f36 9cbe fa44 c3bc c057 f93e
00000040: 20e8 3bbe a00a 2fbe 6ec9 81be ec95 3ebe
00000050: 88ae c4bd d86a efbd 609a cf3d c096 cd3c
00000060: 2678 cc3e 3222 a13e 6a19 15bd 2959 e93d
00000070: 3acf 6d3e d2b5 963d 2968 753d d0a5 ff3e
00000080: 2b84 d23e dc21 ccbe f184 61be 16ea 713e
00000090: 3ea4 af3e 360a b3be 9f93 ecbc 4b0f 963d
000000a0: 3f55 d03c 8113 8abe 241d d5be 52fb b9be
000000b0: 4284 9cbe b6ca 93be 3a70 893e 2304 dcbe
000000c0: 3bdb 0a3e de22 ce3d c93e 8a3e 62c6 febe
000000d0: 7c8a a1be b820 febd ef69 cfbe 8d08 683e
000000e0: 7b1b a23e d41b e6be d2cb d23e a440 e4be
000000f0: f8cb 40be 1b71 d53d 77b6 f6be e4bd b1bd

encoder.layers.0.linear1.bias f4 [16]
-0.4626203 -0.027295372 -0.18606672 -0.4972475 -0.27159804 -0.3622849 -0.013086487 -0.24041042
0.45944437 0.36635655 -0.18423395 -0.11825433 -0.3677933 -0.029637419 0.15907648 -0.47861642
00000000: 91dc ecbe 8b9a dfbc 4688 3ebe 3997 febe
00000010: e60e 8bbe 687d b9be b468 56bc 262e 76be
00000020: 4b3c eb3e 1693 bb3e d3a7 3cbe 532f f2bd
00000030: 674f bcbe 2cca f2bc f2e4 223e 360d f5be

encoder.layers.0.linear2.weight f4 [4, 16]
0.05628877 -0.22745784 -0.23808919 0.0034643207 0.088457495 -0.028783023 -0.035327565 0.11500105
-0.1407012 0.22788711 0.05811553 -0.010566911 0.16785102 0.16246745 0.19575246 -0.1414718
-0.20901294 0.098233655 0.03725848 0.20477839 -0.19336063 0.098481 0.009264712 -0.18675148
-0.18635467 -0.24592589 -0.14633055 0.17449889 -0.081819594 -0.1840371 0.23602448 -0.24289224
0.16687594 -0.107109025 -0.09000147 0.054637223 0.02827841 -0.05245301 0.12206049 -0.14193106
-0.023430431 -0.2310753 0.069133244 -0.08071866 -0.05842968 0.23045473 0.018324347 0.118742086
-0.13595943 0.18047377 0.014036406 0.16797902 -0.22588047 0.024280071 -0.056132082 -0.09529007
-0.08250153 0.09933288 0.23474964 -0.11925398 -0.0932296 0.10543709 0.08700027 0.03660702
00000000: 0e8f 663d b5ea 68be a7cd 73be a809 633b
00000010: 3429 b53d 60ca ebbc a3b3 10bd ac85 eb3d
00000020: fa13 10be 3d5b 693e 8d0a 6e3d d620 2dbc
00000030: 23e1 2b3e de5d 263e 5573 483e fcdd 10be
00000040: 7d07 56be ba2e c93d 599c 183d 6db1 513e
00000050: 5400 46be 68b0 c93d 05cb 173c c83b 3fbe
00000060: c2d3 3ebe ffd3 7bbe add7 15be d6af 323e
00000070: 0891 a7bd 3974 3cbe 67b0 713e beb8 78be
00000080: 87e1 2a3e fa5b dbbd b152 b8bd 48cb 5f3d
00000090: 20a8 e73c f8d8 56bd dafa f93d 6056 11be
000000a0: 2df1 bfbc 019f 6cbe bb95 8d3d d34f a5bd
000000b0: f653 6fbd 53fc 6b3e f11c 963c 0d2f f33d
000000c0: f338 0bbe 1ece 383e f4f8 653c b102 2c3e
000000d0: 364d 67be 00e7 c63c c1ea 65bd 7127 c3bd
000000e0: 90f6 a8bd 096f cb3d 3662 703e 6e3b f4bd
000000f0: 29ef bebd 67ef d73d 332d b23d 3ef1 153d

encoder.layers.0.linear2.bias f4 [4]
-0.10735919 -0.017817922 0.24425936 0.03134024
00000000: 23df dbbd e4f6 91bc 201f 7a3e a05e 003d

encoder.layers.0.norm1.weight f4 [4]
1.0038314 0.9971164 1.0019648 0.9984768
00000000: 8c7d 803f 0543 7f3f 6240 803f 2d9c 7f3f

encoder.layers.0.norm1.bias f4 [4]
0.00026638497 0.0007732985 0.0025137868 -0.0032202168
00000000: 96a9 8b39 2fb7 4a3a 58be 243b 460a 53bb

encoder.layers.0.norm2.weight f4 [4]
1.0008124 1.0006515 1.0017978 0.9965097
00000000: 9f1a 803f 5915 803f e93a 803f 421b 7f3f

encoder.layers.0.norm2.bias f4 [4]
-3.1036936e-05 6.0937924e-05 0.0024796736 -0.0012861057
00000000: a82d 02b8 9997 7f38 0582 223b 8c92 a8ba

encoder.layers.1.self_attn.in_proj_weight f4 [12, 4]
0.08144307 -0.3005333 0.15997398 0.093605295 0.23034237 -0.03363928 -0.58017653 -0.048363276
0.12606892 -0.39781544 -0.2072515 -0.045846444 -0.43702376 0.031257156 0.39784312 -0.1672817
-0.61079735 0.32460836 -0.36685863 0.20205076 -0.02167038 0.34405822 0.5024113 -0.21416749
-0.5494402 0.22620794 -0.28701293 -0.13084127 0.22296393 -0.17138122 -0.17242283 -0.45293853
-0.41664982 -0.41714483 -0.5803268 -0.20168693 0.16517366 0.44296166 0.15364975 -0.26423058
-0.17363584 -0.30858403 0.07412717 0.004335469 0.34256068 0.610671 -0.17678179 -0.42873606
00000000: a0cb a63d 80df 99be 38d0 233e 22b4 bf3d
00000010: dfde 6b3e 57c9 09bd 7386 14bf 9218 46bd
00000020: 3618 013e 77ae cbbe bd39 54be 7bc9 3bbd
00000030: 94c1 dfbe 8107 003d 18b2 cb3e e54b 2bbe
00000040: 375d 1cbf 1133 a63e e5d4 bbbe 65e6 4e3e
00000050: 1586 b1bc 6628 b03e 079e 003f b94e 5bbe
00000060: 1da8 0cbf 0ea3 673e 5cf3 92be 41fb 05be
00000070: a850 643e 8f7e 2fbe 9c8f 30be 8fe7 e7be
00000080: 2053 d5be 0294 d5be 4c90 14bf 0587 4ebe
00000090: 4923 293e dfcb e23e 5c56 1d3e 3b49 87be
000000a0: 98cd 31be bafe 9dbe fccf 973d 8d10 8e3b
000000b0: 1d64 af3e ef54 1c3f 4906 35be 4b83 dbbe

encoder.layers.1.self_attn.in_proj_bias f4 [12]
-0.0011953013 -0.0011576581 -0.0012241742 -0.0007792543 1.0277934e-06 2.1300875e-06 1.1202451e-06 -1.5895666e-05
0.0009869619 -0.0011275361 -0.002752717 -0.0014543381
00000000: a8ab 9cba 8fbc 97ba 7874 a0ba df46 4cba
00000010: b6f2 8935 a0f2 0e36 545b 9635 af57 85b7
00000020: f25c 813a d5c9 93ba ed66 34bb 7d9f beba

encoder.layers.1.self_attn.out_proj.weight f4 [4, 4]
-0.394088 -0.041949898 -0.2148169 0.20413734 -0.41739243 0.18813856 -0.197896 -0.45015514
0.24452677 -0.38504967 -0.44550982 -0.38484067 -0.42279676 0.46191093 -0.10819053 -0.031689625
00000000: e7c5 c9be a8d3 2bbd f6f8 5bbe 6109 513e
00000010: 76b4 d5be 65a7 403e 40a5 4abe bc7a e6be
00000020: 3a65 7a3e 3b25 c5be dd19 e4be d609 c5be
00000030: d178 d8be 977f ec3e ff92 ddbd fbcc 01bd

encoder.layers.1.self_attn.out_proj.bias f4 [4]
0.0005414902 0.0014606186 0.00061109837 -0.0036570018
00000000: cbf2 0d3a 3a72 bf3a 1e32 203a 4faa 6fbb

encoder.layers.1.linear1.weight f4 [16, 4]
-0.4404827 -0.25287956 -0.20570916 0.10654889 -0.11407511 0.47963846 -0.4867572 0.35154337
-0.33276263 -0.08113739 0.18017821 -0.003773382 0.039349232 -0.30514213 -0.024153396 0.48702163
-0.18350267 -0.17093897 -0.2534899 -0.18611878 -0.09603602 -0.11690301 0.101368666 0.025096297
0.39913335 0.31422096 -0.036066342 0.113222994 0.23223431 0.07237578 0.059697844 0.5000366
0.41120672 -0.39258856 -0.22530182 0.2368325 0.34511432 -0.35013422 -0.029394401 0.07715788
0.025327586 -0.2668293 -0.41575179 -0.3635502 -0.3098734 -0.28856575 0.268183 -0.43036252
0.13427208 0.100937545 0.2708927 -0.49830583 -0.31473875 -0.120641895 -0.40416217 0.22595975
0.31643724 -0.45171025 0.4156339 -0.4462674 -0.18341485 0.10559062 -0.48198137 -0.087262936
00000000: f386 e1be 6e79 81be 6ca5 52be 4e36 da3d
00000010: 36a0 e9bd 2c93 f53e 3d38 f9be 7efd b33e
00000020: dd5f aabe 5c2b a6bd a380 383e d84a 77bb
00000030: a92c 213d 973b 9cbe 58dd c5bc e65a f93e
00000040: 20e8 3bbe a00a 2fbe 6ec9 81be ec95 3ebe
00000050: 88ae c4bd d86a efbd 609a cf3d c096 cd3c
00000060: 355b cc3e 92e1 a03e 4dba 13bd 75e1 e73d
00000070: d5ce 6d3e c139 943d ba85 743d 6602 003f
00000080: b089 d23e 5e01 c9be 85b5 66be 3884 723e
00000090: d3b2 b03e cb44 b3be 87cc f0bc f304 9e3d
000000a0: cc7b cf3c da9d 88be 6bdd d4be 4023 babe
000000b0: baa7 9ebe e4be 93be 484f 893e 7a58 dcbe
000000c0: 9f7e 093e 58b8 ce3d 73b2 8a3e f121 ffbe
000000d0: 7025 a1be 1913 f7bd 58ee cebe fe61 673e
000000e0: 1004 a23e 9146 e7be f7cd d43e 297d e4be
000000f0: 1ad1 3bbe e53f d83d 43c6 f6be e9b6 b2bd

encoder.layers.1.linear1.bias f4 [16]
-0.46344617 -0.027606633 -0.18600631 -0.49709788 -0.27159804 -0.3622849 -0.015079006 -0.23943982
0.45805043 0.3659145 -0.18438236 -0.118301764 -0.36717674 -0.030203134 0.1639033 -0.47839832
00000000: d148 edbe 4e27 e2bc 7078 3ebe 9d83 febe
00000010: e60e 8bbe 687d b9be ef0d 77bc b62f 75be
00000020: 9685 ea3e 2559 bb3e bbce 3cbe 3248 f2bd
00000030: 97fe bbbe 906c f7bc 44d6 273e a0f0 f4be

encoder.layers.1.linear2.weight f4 [4, 16]
0.05582829 -0.22713172 -0.23795028 0.0038985799 0.088457495 -0.028783023 -0.036932386 0.11548399
-0.14044163 0.22846001 0.056825254 -0.010027461 0.16861042 0.16289294 0.19643699 -0.14068255
-0.20729391 0.09882836 0.038485643 0.20460318 -0.19336063 0.098481 0.009602881 -0.18666144
-0.18611288 -0.24530128 -0.1459507 0.175247 -0.081592426 -0.18342833 0.23686412 -0.2430235
0.16657954 -0.109748684 -0.093664646 0.053489715 0.02827841 -0.05245301 0.121654674 -0.14593214
-0.02621469 -0.23363933 0.06886671 -0.084427014 -0.058578957 0.22731002 0.015373641 0.11846655
-0.13617983 0.18030448 0.013874679 0.16822477 -0.22588047 0.024280071 -0.056017958 -0.095082454
-0.08010235 0.09733863 0.23472743 -0.11931038 -0.09452799 0.106167085 0.086911365 0.03668068
00000000: 34ac 643d 3895 68be 3da9 73be 517f 7f3b
00000010: 3429 b53d 60ca ebbc 6a46 17bd df82 ec3d
00000020: eecf 0fbe 6cf1 693e 99c1 683d 384a 24bc
00000030: 36a8 2c3e 68cd 263e c726 493e 160f 10be
00000040: db44 54be 8666 ca3d 1fa3 1d3d 7f83 513e
00000050: 5400 46be 68b0 c93d 6755 1d3c 2d24 3fbe
00000060: 6094 3ebe 4230 7bbe 1a74 15be f373 333e
00000070: ee19 a7bd a3d4 3bbe 828c 723e 27db 78be
00000080: d493 2a3e ebc3 e0bd 40d3 bfbd 0818 5b3d
00000090: 20a8 e73c f8d8 56bd 1626 f93d 3c6f 15be
000000a0: 31c0 d6bc 263f 6fbe fd09 8d3d 12e8 acbd
000000b0: 7df0 6fbd f5c3 683e b9e1 7b3c 979e f23d
000000c0: ba72 0bbe bda1 383e 9f52 633c 1d43 2c3e
000000d0: 364d 67be 00e7 c63c 1673 65bd 97ba c2bd
000000e0: b30c a4bd 7a59 c73d 635c 703e 0059 f4bd
000000f0: e497 c1bd 216e d93d 96fe b13d 7b3e 163d

encoder.layers.1.linear2.bias f4 [4]
-0.10708879 -0.017147714 0.24177568 0.031101763
00000000: 5e51 dbbd 5d79 8cbc 0b94 773e 20c9 fe3c

encoder.layers.1.norm1.weight f4 [4]
1.0011401 0.9969115 1.003589 0.99984336
00000000: 5c25 803f 9835 7f3f 9b75 803f bcf5 7f3f

encoder.layers.1.norm1.bias f4 [4]
0.0006829731 0.0013062113 0.0005625266 -0.0033860628
00000000: 8d09 333a 2e35 ab3a 8576 133a b5e8 5dbb

encoder.layers.1.norm2.weight f4 [4]
1.001721 1.0001928 1.0011541 0.9985524
00000000: 6538 803f 5106 803f d125 803f 21a1 7f3f

encoder.layers.1.norm2.bias f4 [4]
0.0004647321 0.0009422987 7.6445125e-05 -0.0030847513
00000000: 49a7 f339 9804 773a 2a51 a038 8a29 4abb

decoder.layers.0.self_attn.in_proj_weight f4 [12, 4]
-0.17104514 0.49405232 -0.54173625 -0.14490156 -0.42851695 -0.50288147 -0.03394977 0.109420575
-0.4078537 0.18401714 0.13928473 -0.040701646 -0.14211883 -0.19982615 0.35009065 -0.030429214
-0.41009054 -0.10713764 0.431901 -0.57880294 -0.037994806 0.39355326 -0.52397066 0.28405643
-0.31889093 0.54625773 -0.36659628 -0.6007206 0.36551043 -0.20211409 -0.5663271 0.57951725
-0.3974754 0.105679795 0.2513191 0.32083657 -0.44366714 0.47469667 -0.10579987 0.13231349
0.03366197 -0.4564795 -0.19115457 -0.2557609 0.38010535 0.053861383 -0.16613024 -0.20839177
00000000: 7526 2fbe 6df4 fc3e 3aaf 0abf 1361 14be
00000010: 9366 dbbe d7bc 00bf ea0e 0bbd e517 e03d
00000020: 33d2 d0be fd6e 3c3e a8a0 0e3e c5b6 26bd
00000030: 9987 11be 3a9f 4cbe 153f b33e b046 f9bc
00000040: 63f7 d1be fb6a dbbd 2122 dd3e 6e2c 14bf
00000050: 71a0 1bbd d07f c93e f122 06bf d86f 913e
00000060: ac45 a3be 8cd7 0b3f 82b2 bbbe d3c8 19bf
00000070: 2f24 bb3e fff6 4ebe d0fa 10bf 3e5b 143f
00000080: e581 cbbe a66e d83d e6ac 803e b144 a43e
00000090: 5728 e3be 710b f33e 9aad d8bd 307d 073e
000000a0: 22e1 093d aeb7 e9be 06be 43be 18f3 82be
000000b0: 2b9d c23e c19d 5c3d 0c1e 2abe a764 55be

decoder.layers.0.self_attn.in_proj_bias f4 [12]
0.00083209685 0.0043698507 0.0033261944 0.0040626684 -6.0385235e-05 -7.519826e-05 -5.602732e-05 5.2663676e-05
-0.00080772274 0.0047793053 0.00017242024 0.0036220995
00000000: 1321 5a3a f730 8f3b 48fc 593b 2220 853b
00000010: 2746 7db8 c2b3 9db8 e0fe 6ab8 31e3 5c38
00000020: 5bbd 53ba b89b 9c3b b5cb 3439 bf60 6d3b

decoder.layers.0.self_attn.out_proj.weight f4 [4, 4]
-0.15913142 -0.0046540014 -0.32568744 0.30731127 0.30025998 0.27831805 0.41344076 0.0316987
0.37714309 0.055410583 -0.10033218 -0.38287586 -0.30827853 -0.4869772 -0.0811492 -0.005040301
00000000: 59f3 22be 9880 98bb 81c0 a6be e757 9d3e
00000010: adbb 993e b47f 8e3e 82ae d33e 7fd6 013d
00000020: e618 c13e 35f6 623d f57a cdbd 4e08 c4be
00000030: afd6 9dbe 1355 f9be 8d31 a6bd 1c29 a5bb

decoder.layers.0.self_attn.out_proj.bias f4 [4]
0.0034254282 0.0023198184 -0.003923779 -0.00463782
00000000: 267d 603b 1808 183b 0b93 80bb dbf8 97bb

decoder.layers.0.multihead_attn.in_proj_weight f4 [12, 4]
-0.59527045 -0.2497984 -0.13214023 0.21528558 -0.22024988 -0.3819023 -0.3048201 -0.55780864
0.4461391 0.31579477 0.18493538 -0.33731982 -0.013372998 -0.09905325 -0.1441939 0.1351701
-0.029067738 -0.29484576 0.37079808 -0.56913334 -0.088847525 -0.47300294 -0.54752094 -0.55951315
-0.37105274 0.23439285 0.12912439 0.19452591 -0.36504483 -0.19391386 -0.31801438 0.52018875
-0.22592287 -0.14062777 -0.07755192 0.00013701666 -0.09017437 0.30111802 -0.10148501 0.49607432
0.18403302 -0.30435565 -0.03569387 0.5504417 0.3269233 -0.0981887 0.31944165 -0.3595266
00000000: a563 18bf 27cb 7fbe c54f 07be d373 5c3e
00000010: 2f89 61be b388 c3be 6111 9cbe 8ccc 0ebf
00000020: 586c e43e daaf a13e b35f 3d3e 2fb5 acbe
00000030: 6b1a 5bbc 6edc cabd 91a7 13be 086a 0a3e
00000040: 771f eebc 06f6 96be 3fd9 bd3e b9b2 11bf
00000050: b1f5 b5bd 712d f2be 552a 0cbf 413c 0fbf
00000060: a0fa bdbe ae04 703e 2f39 043e cd31 473e
00000070: 28e7 babe 5b91 46be c8d2 a2be 172b 053f
00000080: 5358 67be ba00 10be 8bd3 9ebd 21ac 0f39
00000090: 57ad b8bd 242c 9a3e 5fd7 cfbd 74fd fd3e
000000a0: 2773 3c3e 81d4 9bbe bc33 12bd bfe9 0c3f
000000b0: 7e62 a73e 2817 c9bd db8d a33e df13 b8be

decoder.layers.0.multihead_attn.in_proj_bias f4 [12]
0.00029546022 0.00066459633 0.0036126864 -0.00063736626 0.000117947784 -2.9153363e-05 2.7076932e-05 -4.4265753e-06
-0.004500756 -0.00015000124 -0.0017631835 -0.0032932877
00000000: 00e8 9a39 4e38 2e3a d2c2 6c3b ed14 27ba
00000010: bc5a f738 5f8e f4b7 4523 e337 fe87 94b6
00000020: 147b 93bb a749 1db9 9f1a e7ba 33d4 57bb

decoder.layers.0.multihead_attn.out_proj.weight f4 [4, 4]
-0.05758259 -0.22763108 -0.15398866 0.24058339 -0.019223688 0.44412777 -0.34880418 -0.40056148
-0.07649429 -0.24722847 0.3395469 -0.07238039 0.21451591 0.056651734 -0.2844087 0.31159225
00000000: b9db 6bbd 1f18 69be 34af 1dbe 7e5b 763e
00000010: ff7a 9dbc b764 e33e 7696 b2be 6516 cdbe
00000020: 0aa9 9cbd 7629 7dbe 17d9 ad3e 2b3c 94bd
00000030: 0faa 5b3e a60b 683d 049e 91be 0589 9f3e

decoder.layers.0.multihead_attn.out_proj.bias f4 [4]
0.003986081 0.0027442435 -0.0041291327 -0.0046439334
00000000: ac9d 823b c4d8 333b ad4d 87bb 232c 98bb

decoder.layers.0.linear1.weight f4 [16, 4]
-0.2327081 -0.106057756 0.45881158 0.14265774 0.43414146 0.24062489 0.077983834 -0.41030097
-0.41609725 0.107214205 0.15974705 -0.44053888 -0.35570344 -0.12755507 0.43919548 -0.38201725
-0.047816753 0.21894312 -0.093846075 -0.22364882 -0.15981399 0.13179371 0.29312614 -0.17843796
-0.113397904 -0.34368712 0.34186754 -0.1844525 -0.007332597 -0.16287778 -0.463867 0.13130155
0.013302354 0.16657324 0.003979394 0.36129773 0.26860213 0.36233774 0.0073979544 -0.15801261
0.116781905 0.14284441 -0.3324307 -0.27093512 0.41405752 0.09448707 -0.035123106 -0.41590968
-0.107442215 0.21002713 0.13672577 -0.29343787 0.017726026 0.25181916 0.14102945 0.4369093
-0.2468036 -0.16401182 -0.029325014 0.018460313 -0.49952456 0.014375228 0.22705759 -0.03457366
00000000: 084b 6ebe cf34 d9bd 5ae9 ea3e df14 123e
00000010: ca47 de3e 5f66 763e fdb5 9f3d f812 d2be
00000020: b30a d5be 1f93 db3d bb94 233e 508e e1be
00000030: c31e b6be cc9d 02be 3bde e03e c497 c3be
00000040: 80db 43bd a032 603e 5f32 c0bd 3204 65be
00000050: 47a6 23be eef4 063e a114 963e 71b8 36be
00000060: 293d e8bd c2f7 afbe 4309 af3e 1ee1 3cbe
00000070: 4846 f0bb 6fc9 26be fa7f edbe ea73 063e
00000080: 1ef2 593c 2d92 2a3e 9465 823b 04fc b83e
00000090: 3886 893e 5584 b93e 8a6a f23b 0fce 21be
000000a0: 5a2b ef3d ce45 123e 5b34 aabe 02b8 8abe
000000b0: 59ff d33e 7082 c13d 3fdd 0fbd 1df2 d4be
000000c0: aa0a dcbd 5a11 573e d701 0c3e 7d3d 96be
000000d0: 2c36 913c 71ee 803e 066a 103e 93b2 df3e
000000e0: 15ba 7cbe b7f2 27be 033b f0bc 153a 973c
000000f0: afc1 ffbe 1486 6b3c c981 683e 1c9d 0dbd

decoder.layers.0.linear1.bias f4 [16]
-0.14149341 -0.34361222 -0.3085658 0.30614498 0.12818438 0.2782789 0.40000126 -0.10154577
0.16545878 0.29604065 0.026490455 -0.12167341 -0.319481 -0.309017 0.47899005 0.3872948
00000000: a6e3 10be f1ed afbe 56fc 9dbe 09bf 9c3e
00000010: c442 033e 927a 8e3e f7cc cc3e 3bf7 cfbd
00000020: 076e 293e a492 973e 8302 d93c e92f f9bd
00000030: 0393 a3be 7a37 9ebe 2f3e f53e 814b c63e

decoder.layers.0.linear2.weight f4 [4, 16]
0.13282882 -0.07097441 0.22331049 -0.09724384 0.22830343 0.094871804 0.09054692 -0.22307524
-0.06273806 0.19856645 0.15916957 -0.14772345 -0.099470645 -0.113485664 0.2256452 0.115437925
-0.097546004 -0.19150327 0.16342647 -0.16272993 0.04205888 -0.16606268 -0.05933078 -0.07076509
0.03305076 -0.22601944 -0.10722519 -0.23236841 -0.19219714 0.12312191 0.0033188802 -0.027305808
0.09761684 -0.123044156 -0.17623416 0.11703143 -0.030821156 0.20838976 0.08350347 -0.08619035
0.072503045 0.14623304 -0.0019548063 -0.21166466 -0.053446304 0.08321389 -0.09605068 0.23257986
-0.0007893434 -0.12092074 -0.10816355 -0.09506031 0.13492805 0.042877316 -0.18749952 -0.029120037
0.07211419 -0.005270403 0.1557225 0.2423583 0.07824064 0.11521158 -0.16899998 -0.18377171
00000000: 4704 083e 085b 91bd 81ab 643e c727 c7bd
00000010: 60c8 693e 264c c23d aa70 b93d d66d 64be
00000020: d07c 80bd 0155 4b3e 59fd 223e d144 17be
00000030: 44b7 cbbd 2c6b e8bd 890f 673e b86a ec3d
00000040: 33c6 c7bd 6f19 44be 4559 273e ada2 26be
00000050: ef45 2c3d 560c 2abe d504 73bd 4aed 90bd
00000060: 3c60 073d a471 67be e198 dbbd fcf1 6dbe
00000070: 54cf 44be 5727 fc3d 9281 593b 6eb0 dfbc
00000080: 56eb c73d 93fe fbbd ba76 34be 2dae ef3d
00000090: a67c fcbc 2064 553e de03 ab3d 9184 b0bd
000000a0: 7a7c 943d 1dbe 153e 351c 00bb 9fbe 58be
000000b0: 83ea 5abd 0b6c aa3d 38b6 c4bd 6a29 6e3e
000000c0: f0eb 4eba 4ba5 f7bd da84 ddbd fbae c2bd
000000d0: 942a 0a3e 20a0 2f3d e0ff 3fbe 258d eebc
000000e0: 9bb0 933d 58b3 acbb b875 1f3e c62c 783e
000000f0: a13c a03d 0df4 eb3d 550e 2dbe a72e 3cbe

decoder.layers.0.linear2.bias f4 [4]
0.11195796 0.12745608 0.15732253 0.19468811
00000000: 374a e53d d983 023e 2819 213e 525c 473e

decoder.layers.0.norm1.weight f4 [4]
0.99998426 1.001819 0.99736124 1.003509
00000000: f8fe 7f3f 9b3b 803f 1153 7f3f fc72 803f

decoder.layers.0.norm1.bias f4 [4]
0.004459898 0.0035643112 -0.0041029793 -0.004767997
00000000: 5624 923b 3897 693b 4972 86bb dc3c 9cbb

decoder.layers.0.norm2.weight f4 [4]
1.0010564 0.99800014 0.99564976 1.0029358
00000000: 9e22 803f f07c 7f3f e7e2 7e3f 3360 803f

decoder.layers.0.norm2.bias f4 [4]
0.004359168 0.003080945 -0.0046333703 -0.004748621
00000000: 5ad7 8e3b aee9 493b 87d3 97bb 529a 9bbb

decoder.layers.0.norm3.weight f4 [4]
1.0042851 0.99592423 0.99536234 1.0046256
00000000: 6a8c 803f e4f4 7e3f 11d0 7e3f 9297 803f

decoder.layers.0.norm3.bias f4 [4]
0.0047776746 0.0045554354 -0.0047207614 -0.0049001584
00000000: 0a8e 9c3b c345 953b 9eb0 9abb 8291 a0bb

decoder.layers.1.self_attn.in_proj_weight f4 [12, 4]
-0.16513677 0.4940603 -0.54709816 -0.1454815 -0.4244471 -0.50487053 -0.03446459 0.11372454
-0.4012424 0.17824033 0.14223278 -0.043086275 -0.14348012 -0.20360002 0.35102233 -0.0330944
-0.4150789 -0.10751252 0.43925932 -0.5703708 -0.03126531 0.39217657 -0.53153867 0.28001747
-0.31790492 0.5446762 -0.363687 -0.59764963 0.3683139 -0.1999348 -0.57147175 0.5738055
-0.40053615 0.109440334 0.24943821 0.32363284 -0.4348571 0.47455722 -0.105664514 0.137747
0.03232863 -0.45449424 -0.19478445 -0.2525401 0.38917607 0.051230706 -0.16515622 -0.20431198
00000000: 9d19 29be 79f5 fc3e a00e 0cbf 1af9 14be
00000010: 2151 d9be 323f 01bf be2a 0dbd 69e8 e83d
00000020: a56f cdbe a284 363e 78a5 113e 3c7b 30bd
00000030: 74ec 12be 867c 50be 33b9 b33e fe8d 07bd
00000040: 3985 d4be 862f dcbd 99e6 e03e d203 12bf
00000050: 0e10 00bd 5ecb c83e eb12 08bf 735e 8f3e
00000060: 6fc4 a2be e66f 0b3f 2f35 babe 91ff 18bf
00000070: a493 bc3e b5bb 4cbe f94b 12bf ebe4 123f
00000080: 1313 cdbe 4122 e03d bb6c 7f3e 34b3 a53e
00000090: 97a5 debe 2af9 f23e a366 d8bd 8d0d 0d3e
000000a0: 076b 043d 78b3 e8be 9375 47be f04c 81be
000000b0: 1642 c73e 4ad7 513d b61e 29be 2937 51be

decoder.layers.1.self_attn.in_proj_bias f4 [12]
0.001687337 0.0045437017 0.004841475 0.0047456995 3.204507e-05 -4.3226487e-07 9.807516e-06 4.5872046e-05
-0.0034977773 0.0049123936 -0.0012271923 0.0049367794
00000000: a229 dd3a 55e3 943b 3ca5 9e3b d081 9b3b
00000010: 2268 0638 0812 e8b4 f68a 2437 bc66 4038
00000020: f73a 65bb 25f8 a03b bed9 a0ba b5c4 a13b

decoder.layers.1.self_attn.out_proj.weight f4 [4, 4]
-0.16453627 -0.006741489 -0.32293308 0.30645534 0.3025696 0.278186 0.4141784 0.03170394
0.38536677 0.05750717 -0.10434263 -0.38255945 -0.30318224 -0.48696172 -0.08136748 -0.005038396
00000000: 327c 28be b5e7 dcbb 7c57 a5be b7e7 9c3e
00000010: 67ea 9a3e 656e 8e3e 310f d43e fedb 013d
00000020: cb4e c53e a38c 6b3d 97b1 d5bd d5de c3be
00000030: b43a 9bbe 0c53 f9be fea3 a6bd 2119 a5bb

decoder.layers.1.self_attn.out_proj.bias f4 [4]
0.004852692 0.0025520194 -0.0049248845 -0.004834322
00000000: 5503 9f3b c83f 273b ed60 a1bb 3b69 9ebb

decoder.layers.1.multihead_attn.in_proj_weight f4 [12, 4]
-0.59425646 -0.24794441 -0.13216056 0.21181057 -0.21933426 -0.38032857 -0.30482817 -0.56062263
0.44669747 0.31063756 0.18367165 -0.33319208 -0.015710512 -0.09823903 -0.1482267 0.1372834
-0.03118959 -0.2907381 0.3688523 -0.5674275 -0.08412656 -0.48046452 -0.5426459 -0.5636108
-0.3693662 0.23326367 0.1312294 0.19565089 -0.36660635 -0.19217177 -0.32233647 0.5199596
-0.22589605 -0.13852349 -0.07752785 -0.0034609162 -0.09064121 0.30183008 -0.10164105 0.49208626
0.18189764 -0.30261078 -0.036059704 0.5504838 0.32966673 -0.0999756 0.32280678 -0.35970542
00000000: 3121 18bf 24e5 7dbe 1955 07be dfe4 583e
00000010: 2999 60be 6dba c2be 7012 9cbe f784 0fbf
00000020: 88b5 e43e e30b 9f3e 6c14 3c3e 2798 aabe
00000030: 55b3 80bc 8b31 c9bd bdc8 17be 0594 0c3e
00000040: 5081 ffbc a0db 94be 35da bc3e ee42 11bf
00000050: 8c4a acbd 72ff f5be d7ea 0abf cc48 10bf
00000060: 911d bdbe acdc 6e3e 0061 063e b558 483e
00000070: d4b3 bbbe adc8 44be 4909 a5be 131c 053f
00000080: 4b51 67be 1ad9 0dbe ecc6 9ebd 8ad0 62bb
00000090: 19a2 b9bd 7989 9a3e 2f29 d0bd bbf2 fb3e
000000a0: 6043 3a3e cdef 9abe 57b3 13bd 82ec 0c3f
000000b0: 14ca a83e 02c0 ccbd ee46 a53e 4f2b b8be

decoder.layers.1.multihead_attn.in_proj_bias f4 [12]
0.001741603 0.001834817 0.0019340743 -0.002280286 4.955019e-05 -1.463829e-06 -1.3681201e-05 -1.4717884e-05
-0.0044599255 -0.0014812804 -0.0020882753 -0.0005322243
00000000: 8046 e43a 3e7e f03a c480 fd3a da70 15bb
00000010: 1dd4 4f38 c878 c4b5 5088 65b7 d5ec 76b7
00000020: 9124 92bb 8627 c2ba 72db 08bb f884 0bba

decoder.layers.1.multihead_attn.out_proj.weight f4 [4, 4]
-0.057262797 -0.22603825 -0.1542837 0.24038099 -0.018135926 0.4449366 -0.34963167 -0.40238127
-0.07343916 -0.24490769 0.33875942 -0.0736806 0.21439077 0.054508455 -0.28465688 0.3115853
00000000: 658c 6abd 9276 67be 8cfc 1dbe 6f26 763e
00000010: cb91 94bc bbce e33e ec02 b3be eb04 cebe
00000020: 4567 96bd 15c9 7abe e071 ad3e dbe5 96bd
00000030: 4189 5b3e 4244 5f3d 8cbe 91be 1c88 9f3e

decoder.layers.1.multihead_attn.out_proj.bias f4 [4]
0.004582706 0.00045884767 -0.004550056 -0.004548217
00000000: 862a 963b 7e91 f039 a318 95bb 3609 95bb

decoder.layers.1.linear1.weight f4 [16, 4]
-0.23021641 -0.107035235 0.45900515 0.14173271 0.4402971 0.23249713 0.07786507 -0.40988502
-0.41739327 0.098099545 0.15964821 -0.44050133 -0.35927504 -0.1262952 0.439144 -0.38226667
-0.0440633 0.21112624 -0.09405957 -0.22366072 -0.15950614 0.1335429 0.2916119 -0.18359573
-0.10909882 -0.3452653 0.34176743 -0.1854742 -0.009835731 -0.16305149 -0.46026093 0.13146071
0.010415205 0.16472007 0.009904736 0.36111593 0.27182138 0.35336608 0.007449157 -0.16471978
0.11951153 0.14356405 -0.33227265 -0.2744029 0.41390032 0.09708127 -0.035433896 -0.41572633
-0.11079067 0.21956538 0.13677719 -0.29341826 0.015615956 0.24772929 0.14348598 0.44046444
-0.24121575 -0.16551006 -0.029358266 0.018111411 -0.4966637 0.016539602 0.2250432 -0.03750334
00000000: dabd 6bbe 4a35 dbbd b902 eb3e 6122 113e
00000010: 9f6e e13e ba13 6e3e b977 9f3d 73dc d1be
00000020: 92b4 d5be 6ae8 c83d d27a 233e 6489 e1be
00000030: e6f2 b7be 8753 01be 7bd7 e03e 75b8 c3be
00000040: b87b 34bd 7a31 583e 4ea2 c0bd 5107 65be
00000050: 9455 23be 78bf 083e 284e 953e 8500 3cbe
00000060: 346f dfbd 9dc6 b0be 24fc ae3e f3ec 3dbe
00000070: 0c26 21bc f8f6 26be 52a7 ebbe a39d 063e
00000080: 89a4 2a3c 61ac 283e 7947 223c 30e4 b83e
00000090: 2c2c 8b3e 66ec b43e 0f18 f43b 4dac 28be
000000a0: 76c2 f43d 7402 133e a41f aabe 897e 8cbe
000000b0: beea d33e 8bd2 c63d 2223 11bd 15da d4be
000000c0: 38e6 e2bd bfd5 603e 520f 0c3e eb3a 96be
000000d0: 11da 7f3c bfac 7d3e fded 123e 8e84 e13e
000000e0: 4301 77be 787b 29be bf80 f0bc 625e 943c
000000f0: b44a febe 0f7e 873c ba71 663e 1a9d 19bd

decoder.layers.1.linear1.bias f4 [16]
-0.14106584 -0.34426218 -0.30863854 0.3060721 0.12804759 0.27776036 0.40035465 -0.1015666
0.16803855 0.3030876 0.029307416 -0.121871576 -0.3194218 -0.30570853 0.47901776 0.38714248
00000000: 9073 10be 2243 b0be df05 9ebe 7bb5 9c3e
00000010: e81e 033e 9b36 8e3e 49fb cc3e 2602 d0bd
00000020: 4c12 2c3e 4c2e 9b3e 1b16 f03c ce97 f9bd
00000030: 418b a3be d485 9cbe d141 f53e 8a37 c63e

decoder.layers.1.linear2.weight f4 [4, 16]
0.13071865 -0.06979732 0.22342688 -0.0971549 0.22805144 0.095029704 0.09064716 -0.22057937
-0.06361285 0.19869873 0.15853421 -0.14746623 -0.099747404 -0.11553677 0.22535594 0.11304611
-0.0982993 -0.19009252 0.16336338 -0.16365579 0.04022946 -0.16697094 -0.05942673 -0.07109165
0.034170885 -0.22629073 -0.10731542 -0.23279788 -0.19211797 0.1253107 0.0024749127 -0.028558364
0.096379325 -0.12413816 -0.17626199 0.11701088 -0.030569404 0.20817992 0.08348929 -0.084837645
0.07275402 0.14607856 0.0025205398 -0.211674 -0.053428233 0.08423478 -0.0978188 0.23182735
0.0017026796 -0.121687904 -0.108326286 -0.09497091 0.13503355 0.042943276 -0.18723916 -0.033264212
0.07201506 -0.0055608274 0.15666959 0.24224085 0.078522325 0.11475365 -0.16871434 -0.18136218
00000000: 1cdb 053e e6f1 8ebd 04ca 643e 26f9 c6bd
00000010: 5186 693e ef9e c23d 38a5 b93d 8fdf 61be
00000020: 7447 82bd ae77 4b3e cb56 223e 6301 17be
00000030: 5e48 ccbd 8b9e ecbd b5c3 663e b884 e73d
00000040: 2551 c9bd 9da7 42be bb48 273e 6295 27be
00000050: a5c7 243d 6efa 2abe 7169 73bd 8098 91bd
00000060: c5f6 0b3d c2b8 67be 30c8 dbbd 9162 6ebe
00000070: 93ba 44be 7351 003e 2532 223b 3bf3 e9bc
00000080: 8662 c53d 263c febd 067e 34be 66a3 ef3d
00000090: b06c fabc 1e2d 553e 6ffc aa3d 5cbf adbd
000000a0: 0f00 953d 9e95 153e a42f 253b 12c1 58be
000000b0: 90d7 5abd 4983 ac3d 3955 c8bd 2664 6d3e
000000c0: 722c df3a 8237 f9bd 2cda ddbd 1c80 c2bd
000000d0: 3c46 0a3e 4ae5 2f3d 9fbb 3fbe 0e40 08bd
000000e0: a27c 933d 9a37 b6bb fe6d 203e fc0d 783e
000000f0: 50d0 a03d f603 eb3d 74c3 2cbe 02b7 39be

decoder.layers.1.linear2.bias f4 [4]
0.11228444 0.12699342 0.15682726 0.19488835
00000000: 62f5 e53d 900a 023e 5397 203e d090 473e

decoder.layers.1.norm1.weight f4 [4]
1.0027798 0.99823266 0.9951197 1.0040534
00000000: 175b 803f 2d8c 7f3f 2ac0 7e3f d284 803f

decoder.layers.1.norm1.bias f4 [4]
0.0047375048 0.002201086 -0.004707288 -0.0048062913
00000000: 123d 9b3b 1840 103b 983f 9abb 187e 9dbb

decoder.layers.1.norm2.weight f4 [4]
1.0039891 0.9987258 0.9950095 1.0036268
00000000: b782 803f 7eac 7f3f f1b8 7e3f d876 803f

decoder.layers.1.norm2.bias f4 [4]
0.0047104983 0.0015355599 -0.0047914474 -0.004788455
00000000: 865a 9a3b d744 c93a 9301 9dbb 79e8 9cbb

decoder.layers.1.norm3.weight f4 [4]
1.0047935 1.004719 0.9953538 1.0042381
00000000: 139d 803f a29a 803f 82cf 7e3f e08a 803f

decoder.layers.1.norm3.bias f4 [4]
0.004773128 -0.00477176 -0.004773197 -0.0047731916
00000000: e667 9c3b 6d5c 9cbb 7b68 9cbb 6f68 9cbb

input_projection.weight f4 [4, 6]
0.24906085 -0.012996549 -0.23081264 0.26451325 -0.36634654 0.22843613 0.28875536 0.37545863
-0.2811158 -0.015211206 0.21755774 -0.3994412 0.19627886 -0.11787526 0.24644214 -0.30731642
-0.36654288 0.40578082 -0.12712136 -0.16296862 0.32055947 -0.22143506 -0.13835746 0.3952587
00000000: cf09 7f3e 7aef 54bc 265a 6cbe 486e 873e
00000010: c691 bbbe 29eb 693e bed7 933e 1d3c c03e
00000020: 69ee 8fbe 6c38 79bc 75c7 5e3e 8f83 ccbe
00000030: 53fd 483e 9668 f1bd 545b 7c3e 9458 9dbe
00000040: 82ab bbbe 81c2 cf3e 1a2c 02be 3fe1 26be
00000050: 5f20 a43e dfbf 62be 94ad 0dbe 595f ca3e

input_projection.bias f4 [4]
0.2296564 -0.33775666 0.17212059 -0.008138853
00000000: 0c2b 6b3e 71ee acbe 6140 303e d358 05bc

output_projection.weight f4 [4, 6]
0.20316458 -0.40204474 0.3046819 -0.1565884 -0.13989529 -0.3094587 -0.024599139 -0.16889474
-0.013523706 0.28953168 -0.09900344 0.21438988 -0.10377671 -0.069061525 -0.2044097 -0.119055726
0.38146305 0.24537608 -0.2723772 -0.37241134 -0.2829638 -0.047883127 0.3076982 -0.10148863
00000000: 600a 503e cfd8 cdbe 44ff 9b3e b658 20be
00000010: b640 0fbe 5f71 9ebe 2284 c9bc bef2 2cbe
00000020: 8992 5dbc 7f3d 943e 51c2 cabd 0589 5b3e
00000030: e288 d4bd 2170 8dbd c750 51be 7dd3 f3bd
00000040: 204f c33e de43 7b3e 0675 8bbe b3ac bebe
00000050: a2e0 90be 1921 44bd 9e8a 9d3e 45d9 cfbd

output_projection.bias f4 [4]
0.28607723 -0.32718483 0.02805763 0.28790605
00000000: b778 923e c584 a7be 1dd9 e53c 6c68 933e

linear.weight f4 [1, 4]
0.21074606 -0.0366102 -0.27206478 -0.25459668
00000000: d1cd 573e 94f4 15bd 134c 8bbe 7f5a 82be

exp_avg f4 [1024, 4]
-1.6337457e-05 1.5925958e-05 -6.016246e-05 8.548793e-05 -1.5818909e-05 4.4804812e-05 -4.379794e-05 4.0751267e-05
-3.1661846e-06 3.653894e-05 2.1408943e-05 -2.1967473e-06 -2.0883284e-05 3.9094964e-05 5.2163678e-06 8.92809e-06
-5.170049e-05 9.246975e-05 -0.00010739633 8.337589e-05 9.710034e-07 -5.201601e-06 1.4608814e-05 2.2755223e-05
1.4921363e-05 1.1919016e-05 7.444973e-06 -5.9035237e-06 -5.3809737e-05 9.929311e-05 -2.0872776e-05 1.5415484e-05
-2.1500457e-05 3.5522255e-05 -3.995794e-05 5.4025408e-05 -9.303256e-06 1.596932e-05 7.6916194e-07 2.452118e-05
-3.2782922e-05 1.8836161e-05 -4.1888594e-05 8.400175e-05 5.8329823e-07 -1.7781715e-05 1.5964857e-05 2.9757432e-05
-0.00044603946 0.00033525744 0.00021248839 -2.4458917e-05 -3.517708e-05 3.6202207e-05 -0.00020033585 0.0002002576
-4.8416037e-05 -4.621821e-05 2.5978294e-05 9.743406e-05 -5.1078372e-05 2.7754242e-05 -0.00011167623 0.0001474652
-2.8411077e-05 -4.6087252e-06 -1.7368054e-06 6.7491535e-05 3.899487e-06 2.6281115e-05 -8.1505525e-05 9.196738e-05
2.687183e-05 2.9291286e-05 1.7874612e-05 -6.881089e-06 3.228213e-06 1.6837643e-05 -2.8894197e-05 3.2033713e-05
2.7620323e-05 -1.3399688e-05 2.4725252e-06 1.199641e-05 -3.900137e-05 5.8360667e-05 -0.000116472256 0.0001088664
-2.8160262e-05 -1.4474152e-05 -3.4549477e-05 0.0001047829 5.997517e-06 5.5803725e-05 9.928407e-06 -2.5831462e-06
-7.0824244e-06 2.082091e-05 -2.7646975e-06 3.2044725e-05 -6.197177e-07 3.27331e-05 -3.054157e-06 5.7573307e-06
-7.255052e-06 5.7373778e-05 8.727935e-07 -2.818635e-06 1.6025459e-05 5.2843036e-05 7.966943e-06 -2.3785069e-05
4.3664127e-06 2.9995563e-05 -1.37003835e-05 1.1995083e-05 -7.9169695e-06 4.5594945e-05 1.4941039e-05 -5.8911464e-06
2.0885986e-05 1.42140425e-05 2.0561147e-05 4.6374e-06 -1.1026887e-05 2.4234487e-05 -7.025986e-05 7.449734e-05
-1.4199317e-05 3.8470644e-05 1.1524834e-05 6.7948454e-06 6.365381e-05 -3.925913e-05 -3.158975e-05 3.4164954e-05
-6.3205465e-05 3.4590557e-05 2.4280505e-05 3.5951707e-05 1.2681262e-05 -1.2710479e-05 -2.4983841e-05 3.974347e-05
-1.45569675e-05 4.473672e-05 2.3185425e-05 -1.772028e-05 8.2026345e-06 4.4225115e-05 1.2383885e-05 -4.049933e-06
-5.1315194e-05 -1.3934327e-09 9.064941e-06 5.8908583e-05 -3.5911944e-05 5.6300498e-05 -9.578788e-07 2.1099355e-05
-2.4250525e-05 5.1031595e-05 2.0471869e-05 -7.710589e-06 -8.554382e-05 3.6426423e-05 -1.885066e-05 9.3579496e-05
-4.1071766e-05 8.2383856e-05 -7.548639e-06 8.217468e-06 -6.255208e-05 0.00012806588 6.0040158e-05 -6.9273585e-05
-1.4848752e-05 3.1402255e-05 1.1507061e-06 1.2674568e-05 1.2591668e-06 1.9993387e-05 -2.1129865e-05 4.0562507e-05
1.1091566e-05 -1.816823e-05 2.0435658e-05 1.7685692e-05 -6.389674e-05 1.1523154e-05 3.3745404e-05 5.7762976e-05
-3.968519e-05 3.612348e-05 2.8227234e-05 1.2125583e-05 -8.964498e-05 9.860528e-05 -0.00020199515 0.00019016488
-2.3230046e-05 3.347567e-05 -4.5095156e-05 6.13664e-05 -6.9746324e-07 -5.0651575e-05 1.2060775e-05 6.498829e-05
3.7650398e-06 2.5482628e-05 -4.3964243e-05 3.505096e-05 -1.615241e-06 1.7336815e-05 -6.2407566e-06 1.1515383e-05
-5.3239608e-05 7.6547374e-05 -3.4086002e-05 3.9292354e-05 5.409513e-05 -2.4131723e-05 2.734682e-05 -1.469902e-05
-5.4018074e-05 8.204459e-06 2.4849103e-05 5.0714338e-05 3.574035e-05 2.235686e-05 1.23766995e-05 -5.922493e-07
7.577247e-07 3.237997e-05 -2.6713376e-05 1.37176885e-05 -7.3330984e-06 3.8033475e-05 7.3852157e-06 6.7662904e-06
-5.6930526e-06 2.5383673e-05 1.7163942e-05 -3.2913254e-06 1.4756425e-05 2.0274107e-05 1.686164e-06 -1.7040256e-07
-9.093705e-05 8.937318e-05 -5.6658086e-05 8.2883096e-05 -3.0603213e-05 7.728874e-06 1.5980844e-05 3.8965358e-05
00000000: 6c0c 89b7 bc98 8537 f356 7cb8 fc47 b338
00000010: d9b2 84b7 cdec 3b38 aeb3 37b8 57ec 2a38
00000020: a37a 54b6 6341 1938 5b97 b337 d56b 13b6
00000030: 832e afb7 e6f9 2338 4208 af36 dbc9 1537
00000040: fad8 58b8 52ec c138 f739 e1b8 17da ae38
00000050: 6c53 8235 6a89 aeb6 6118 7537 78e2 be37
00000060: c456 7a37 c9f7 4737 d5cf f936 e216 c6b6
00000070: c4b1 61b8 953b d038 f217 afb7 8050 8137
00000080: e15b b4b7 bbfd 1438 8398 27b8 5799 6238
00000090: 2e15 1cb7 dbf5 8537 6878 4e35 d5b2 cd37
000000a0: 6580 09b8 5902 9e37 89b1 2fb8 192a b038
000000b0: f393 1c35 f129 95b7 45ec 8537 999f f937
000000c0: 67da e9b9 7ec5 af39 6bcf 5e39 202d cdb7
000000d0: 1a8b 13b8 d3d7 1738 3f11 52b9 3dfc 5139
000000e0: 5312 4bb8 6dda 41b8 f6eb d937 8355 cc38
000000f0: fc3c 56b8 c8d1 e837 b833 eab8 e3a0 1a39
00000100: 5354 eeb7 a6a4 9ab6 2e1c e9b5 3e8a 8d38
00000110: 57d8 8236 4476 dc37 f2ed aab8 9cde c038
00000120: d16a e137 8fb6 f537 70f1 9537 1be4 e6b6
00000130: 47a4 5836 903e 8d37 d161 f2b7 f05b 0638
00000140: 31b2 e737 39cf 60b7 a9ed 2536 3044 4937
00000150: 6795 23b8 4ac8 7438 9142 f4b8 344f e438
00000160: b439 ecb7 02d6 72b7 38e9 10b8 e4be db38
00000170: 473e c936 cb0e 6a38 2f92 2637 1d5a 2db6
00000180: 90a5 edb6 90a8 ae37 2489 39b6 c367 0638
00000190: ad5a 26b5 e64a 0938 05f6 4cb6 182f c136
000001a0: 6c70 f3b6 a0a4 7038 ea49 6a35 c827 3db6
000001b0: 696e 8637 c7a3 5d38 c2a9 0537 0c86 c7b7
000001c0: 3383 9236 fb9e fb37 b3da 65b7 7d3e 4937
000001d0: 20d3 04b7 333d 3f38 46ab 7a37 90ac c5b6
000001e0: 5034 af37 d978 6e37 ba7a ac37 f69a 9b36
000001f0: 1e00 39b7 2a4b cb37 7a58 93b8 743b 9c38
00000200: 9a39 6eb7 8a5b 2138 c95a 4137 47ff e336
00000210: e17d 8538 2baa 24b8 3c7f 04b8 574c 0f38
00000220: 2d8d 84b8 5415 1138 fdad cb37 daca 1638
00000230: 9bc1 5437 173f 55b7 6494 d1b7 3ab2 2638
00000240: b339 74b7 b0a3 3b38 527e c237 03a6 94b7
00000250: 0c9e 0937 5b7e 3938 62c4 4f37 a9e4 87b6
00000260: 453b 57b8 0e83 bfb0 a015 1837 9c14 7738
00000270: 28a0 16b8 3324 6c38 7790 80b5 85fe b037
00000280: 9b6d cbb7 c20a 5638 01bb ab37 ba5c 01b7
00000290: fd65 b3b8 93c8 1838 7c21 9eb7 1c40 c438
000002a0: 7944 2cb8 7fc5 ac38 514a fdb6 c2dd 0937
000002b0: 642e 83b8 6c49 0639 a1d3 7b38 f946 91b8
000002c0: e71e 79b7 eab5 0338 f671 9a35 dba4 5437
000002d0: a400 a935 79b7 a737 0a40 b1b7 a921 2a38
000002e0: ea15 3a37 fa67 98b7 3e6d ab37 bc5b 9437
000002f0: 4d00 86b8 9253 4137 da89 0d38 8646 7238
00000300: a673 26b8 4b83 1738 86c9 ec37 fc6e 4b37
00000310: c8ff bbb8 4eca ce38 a9ce 53b9 ff66 4739
00000320: 25de c2b7 3a68 0c38 8e24 3db8 d6b1 8038
00000330: 4f39 3bb5 b772 54b8 a258 4a37 534a 8838
00000340: e4aa 7c36 87c3 d537 3f66 38b8 af03 1338
00000350: 42cb d8b5 876e 9137 b167 d1b6 3232 4137
00000360: 984d 5fb8 0f88 a038 91f7 0eb8 d8cd 2438
00000370: 34e4 6238 7b6e cab7 d966 e537 cf9b 76b7
00000380: 7791 62b8 e2a5 0937 0b73 d037 1bb6 5438
00000390: e9e7 1538 fe8a bb37 85a5 4f37 10fb 1eb5
000003a0: 7266 4b35 bacf 0738 8a16 e0b7 0625 6637
000003b0: d60e f6b6 2286 1f38 85ce f736 fe09 e336
000003c0: f306 bfb6 06ef d437 49fb 8f37 8ae0 5cb6
000003d0: 5d92 7737 5012 aa37 2750 e235 e6f7 36b4
000003e0: 75b5 beb8 dc6d bb38 28a4 6db8 86d1 ad38
000003f0: f35b 00b8 43ab 0137 9a0e 8637 bc6e 2338
